LevelDifficultyEstimation/Assets/Test.onnx (onnx, 660497 bytes, 11 tensors)

discrete_act_size_vector f4 [1, 2]
00000000: 0000 2041 0000 2041
10.0 10.0

network_body._body_endoder.seq_layers.0.weight f4 [256, 102]
00000000: fcc1 3d3d f53f 62be 181f c0bd 5121 1e3e
00000010: 40bd 4c3e 8414 05bd c1b2 0cbd 1901 363c
00000020: df93 87bc 4052 39bd 8a95 88bd 83b3 3abd
00000030: fbc7 74be 0ef2 3b3d 4515 d6bd 64c1 04be
00000040: 53d6 83bd 4a0f 42be 595f 983d efa8 8abd
00000050: 12bc 143e 18f8 ad3b 4376 103d cb31 34be
00000060: e667 4fbe 8190 aabc 3278 64be 7187 65bd
00000070: a9c9 893b 0d1d a13d 805e 913d 0f7c 82be
00000080: 5ce3 e9bd 9618 f1bd fa8b 403d ff58 a53d
00000090: a54f 08be ddfa 36bc 9ab6 9d3d 2434 823b
000000a0: 415a fa3b 2c17 35be 2cba 883b 3e05 153d
000000b0: 69b6 c8bd 949f 2ebd 9f67 073d 7903 38be
000000c0: 45b0 ae3c d079 c23d 15bf 3cbe 83c0 a1bc
000000d0: 3f39 613c 313e ba3c 3fe7 40be 5c45 b23c
000000e0: 8824 a3bd 0cfb c03d f228 b43d c721 29be
000000f0: a6f1 4a3e 30fe 09be 180c 9fbd 26a6 69be
00000100: 2e89 a33d 168a e73c 6b0e b23d 7d19 fa3c
00000110: 82b9 a1bd 34a6 03ba df36 5fbd f6f3 423c
00000120: 1d2e bb3d 8564 cdbd 4c70 293c dc2c a3bd
00000130: 20bf 39bd 1c69 2abe 0357 b2bd 01fa 8a3d
00000140: 71f5 b7bc c3d2 bdbc 2bc7 873d 061f 3a3d
00000150: fbd7 00bd a162 1abe b6a2 a53b 2d32 1b3e
00000160: b27e 1ebd c8c0 e3bd 87f6 b1bc 6386 c83c
00000170: ea19 b03d c798 4b3c e812 9f3d 4eb5 12be
00000180: 14c9 213d e3dc 78bd cc50 963d 4ad3 e13c
00000190: f44e e3bd 006b 0ebd 331a e2bd f602 cb3d
000001a0: 5627 883d e790 ae3c 0f17 4f3e a377 013d
000001b0: 6e99 05be 002d 163e 522a 60bc 7d4c 10bd
000001c0: f7db bfbd e43c 563d 0d86 bd3b 4613 633d
000001d0: b86f 7fbd 295a 8bbd 3c9a 3a3e 9ad3 653c
000001e0: 8f26 c0ba bb84 eabd ca7b 04be dbd6 0fbd
000001f0: 3072 533b 93a8 083e 1efc c23d 1430 97bb
00000200: 066c 15be 6260 ee3d a5db 9dbc 3011 923d
00000210: 172e 83bd 4b0c 03be 06d4 423e f5f3 cabd
00000220: ab23 e33d fec7 85bd b454 06be 832b eebd
00000230: 07d9 313e d071 2ebe 97f9 813e 19ec 7d3d
00000240: 2270 483e 53c0 953b 24ed 633c 4a3e 1e3e
00000250: a1da 58bd 4a5c 9abb 8f19 3abe 3a99 563d
00000260: a383 90bd 01eb d33c eddf 803d 5f47 c23d
00000270: 9854 cd3c d6c0 633d 3c13 7b3d f2d4 3b3e
00000280: 1855 c0bc 07a8 833c bd09 acbd dbde df3d
00000290: c27f 213e 8711 223c 1a6e 94bc e6f3 813c
000002a0: 91a8 2e3e 0d22 5ebb 1503 8d3d 4862 f1bc
000002b0: 5991 08be a998 01be b373 5abd 2cc3 3a3d
000002c0: 4273 1fbe 2af3 12bd 5a83 d53c c7be bdbd
000002d0: 777f 423d 0a9a 8cbd f413 703e f932 82bd
000002e0: 936e 88bc ee0c 713d f851 56bb 2422 1ebe
000002f0: 2583 f2bd af65 c23d 3742 dbbd 437c 82bd
00000300: 931e 05bd 9bb7 47be 7d05 113e fdc8 b2bd
00000310: 49ae c5bd 5880 fb3b 730f db3c dfd1 0dbc
00000320: 4140 7bbd 69dc 4f3c a06e 33be 7d71 06bd
00000330: d684 66bd 15a5 df3d 33ef b4bd c5e9 e0bd
00000340: 3564 35bd ffc8 adba fab1 69bd 0956 afbd
00000350: 0029 353e 3c2a f8bd 99d4 293e 957e 79bd
00000360: 7bad 5fbe 7fda 29bd 3530 e9bd 3dba b4bc
00000370: 2498 043e e668 d0bd 4c68 c3bd bb1c 1abd
00000380: 2155 bebd ddb1 c3bc 60cd ffbc 7046 ae3d
00000390: 3a09 b5bd 6284 9dbd ef33 e3bc a837 a93d
000003a0: 6f46 823d 759b eb3d 05eb 4a3e 9cc0 3ebd
000003b0: e5a3 e13d 2556 90be 0ef2 023e 9fec b2bd
000003c0: 3b92 23be 6d0e 243e 4f2d 0a3d 60a0 fa3d
000003d0: b263 123d c70b 15be d8bf 41bd 9295 1abe
000003e0: c0cb d23c e0fb 96bd 661c 97bc 96e4 5c3d
000003f0: bc5f 943d 8acc fb3b f7a8 33be ff97 febc
0.046327576 -0.2209471 -0.09380931 0.15442397 0.19994068 -0.03249027 -0.03435016 0.01110866
-0.016550003 -0.045244455 -0.06669147 -0.045581352 -0.23904411 0.04588514 -0.104532756 -0.12964398
-0.064373635 -0.18951145 0.07440061 -0.06770503 0.14524868 0.005309116 0.035269033 -0.1759712
-0.20254478 -0.020820858 -0.22311476 -0.05603737 0.004204948 0.07866869 0.070981026 -0.25485274
-0.114203185 -0.117722675 0.047008492 0.08073615 -0.13311632 -0.011168209 0.07700844 0.003973501
0.0076401536 -0.1768462 0.004172584 0.036381952 -0.09800417 -0.042632654 0.033057805 -0.17970075
0.021324286 0.0949589 -0.18432267 -0.019745117 0.013746559 0.022734733 -0.18838213 0.021761589
-0.07965952 0.094228834 0.08796872 -0.16516791 0.19818744 -0.13475871 -0.077659786 -0.22817287
0.07985149 0.028264087 0.08694156 0.030529732 -0.07896711 -0.00050220196 -0.05449569 0.011898985
0.09139655 -0.10028938 0.010341715 -0.079675406 -0.045348287 -0.16641659 -0.087080024 0.06785966
-0.022455903 -0.023171788 0.06629785 0.045439743 -0.031455975 -0.15076686 0.005054797 0.1515586
-0.038695045 -0.111207545 -0.021723999 0.024478143 0.08598693 0.012426562 0.07767278 -0.14326975
0.039498404 -0.06075753 0.073396295 0.02756657 -0.110990435 -0.034770012 -0.11040153 0.09912674
0.06648128 0.02130933 0.2022364 0.031608235 -0.1304681 0.14665604 -0.013681965 -0.035229195
-0.09368127 0.052304164 0.0057838024 0.055438302 -0.062362403 -0.06804306 0.18222898 0.0140275005
-0.0014659929 -0.114510976 -0.12937847 -0.03511701 0.0032264106 0.13345556 0.09520744 -0.0046138857
-0.14591989 0.11639477 -0.019269774 0.071321845 -0.06405275 -0.12797658 0.19026193 -0.09909812
0.110907875 -0.06532286 -0.13118249 -0.11629393 0.17367946 -0.17035604 0.25385734 0.06199274
0.19574025 0.004570046 0.013911519 0.15453449 -0.052942876 -0.0047107087 -0.18173812 0.052392222
-0.07056358 0.025868895 0.062927105 0.09486269 0.025064752 0.055603825 0.06129764 0.18342951
-0.023478076 0.016071333 -0.08400295 0.10931178 0.15771392 0.009891874 -0.018118907 0.01586337
0.1705649 -0.0033894808 0.068853535 -0.02946581 -0.13336696 -0.12655891 -0.053332996 0.045596287
-0.15571311 -0.03587643 0.02606361 -0.092649035 0.04748484 -0.06865318 0.23445112 -0.063573785
-0.016654288 0.05885022 -0.0032702666 -0.15442711 -0.1184142 0.09492051 -0.10705989 -0.06371357
-0.03249986 -0.19503634 0.1416225 -0.08729742 -0.09652383 0.007675212 0.026740765 -0.008655994
-0.061340574 0.012686827 -0.17522669 -0.032823075 -0.056279026 0.10920159 -0.08834686 -0.10982088
-0.044285018 -0.0013258754 -0.057054497 -0.08561332 0.17691422 -0.121174306 0.16585006 -0.060911734
-0.21843521 -0.04146814 -0.11386148 -0.022061462 0.12948662 -0.10176258 -0.095413774 -0.037625056
-0.09293581 -0.023888523 -0.03122586 0.08509529 -0.088396505 -0.07691266 -0.027734725 0.08262569
0.063610904 0.115042605 0.19816215 -0.046570405 0.110175885 -0.28190723 0.12787649 -0.08736538
-0.15973751 0.16021128 0.033734616 0.1223762 0.035739608 -0.14555274 -0.047302097 -0.15096119
0.025731921 -0.0737226 -0.018446159 0.053928934 0.072448224 0.007684295 -0.17544924 -0.031078337

network_body._body_endoder.seq_layers.0.bias f4 [256]
00000000: 419c 743a bfcc a1bb 5d3c 0ebc f7dc 0c3c
00000010: b2fa 103c 3538 6c3b 9de6 113a 10f3 683b
00000020: df21 70bb 77a2 4d3c a47c 9a3c e95e b5bb
00000030: a98e 92b8 4c80 abb8 2a20 043c e935 eb39
00000040: f1ac 1d3c 4fd7 d139 48b6 f6ba 6e30 59bb
00000050: 2da3 763c 2852 4c3c d844 043c 3309 a93b
00000060: 2f87 01bc 0282 103c 95a6 333c 900e 64bb
00000070: 3bf0 6bbb 5332 d83b a235 4b3c 4baa be3b
00000080: 2a28 aabb 4562 5c3b a97b eebb f50f 54bb
00000090: 08d5 143c 602d 85ba 77d1 b7bb 54d1 d33b
000000a0: 6da9 32bb 35d1 dc3b bc8a c43b 309f 9639
000000b0: 4f9d 493b 1396 ca3b 6b4d 7db8 71f7 39bc
000000c0: 4525 45ba e7db 1cbb fb21 0abb 7ab5 0f3b
000000d0: 98ae 0839 ac90 ac3a b6ae b6bb 6e7f e1b9
000000e0: 2e52 14bc be03 c43b 3e8f e6ba 5900 963c
000000f0: 3d5f 0fbc 233d 263b 9aeb 593b ac90 f0ba
00000100: e15a 5938 fe27 e13b e40e 1dbc 2a72 dcbb
00000110: 607e a63a 498a 193c 359a 94bb e620 d13a
00000120: 68ec 4d3c b091 d93a a24b a6ba 912e febb
00000130: b08e 143c 92ce 86b8 e9f3 f4b9 35b2 3d3b
00000140: 2c13 863b 9c25 d73b 1c31 ce3b cb8b 8939
00000150: 0258 98ba 35c1 6dbb 4457 6dbb 8e6f 253c
00000160: 0ac7 5f3b 9460 553a 17a8 003b 1634 4f3b
00000170: b3e7 2f3c b270 113c 5cef a7ba 867b 443b
00000180: 4fa0 23bb a1be 0ebb 40ef 053c 5d66 74ba
00000190: bccd 9dba 9643 3e38 96d0 3c3b 5c4a 8c3b
000001a0: 06dc edbb 5b7e 953b 7a76 2b3b d194 8d3c
000001b0: d171 783b 6373 8c3b db65 ea3b dccc c23b
000001c0: 9ce4 35bc 215a 1f3c bea8 653c 7b13 fe3b
000001d0: 8211 843b b5c1 3dbb d2ec c6bb 3e02 053c
000001e0: 9ffd 9f3a b6e9 0b3c 796c 0c3c 232e 123c
000001f0: 7d8c 893c b2d7 043a 8ed9 83ba fc92 c93b
00000200: 9b04 fb3b bbe9 9a3b 0485 873b d40f 063c
00000210: 81a2 8ab8 e74c d73a d7e5 3a3c 2d8a d33b
00000220: abbe d7ba b7ae a939 d8c8 e23b 704a 283c
00000230: 8c1e f7b9 4d20 c1bb 2464 98ba 131a db3b
00000240: e4d7 a2bb 67f2 3e3b 8d57 2eba d080 023c
00000250: b064 183b 516f cb3a 658d d43b 2667 6d3c
00000260: 49a9 dd3b 3368 f7b9 1806 3dbb 91a6 4e3b
00000270: aa7e 313b 5b6b aebb f405 80bb 728c a1ba
00000280: 6f0a 543c 64df 633a fc67 233c cfff 333c
00000290: 9cf9 003c 8353 23ba 649e 44bb d027 d4bb
000002a0: 94db 303c 1b37 e6bb 0cf6 cc39 82c2 ac3b
000002b0: d635 65bb d9d6 2aba 048c 613c 4d0b 8abb
000002c0: f090 c8ba 4a6d c7bb 4650 ed3b bb9a 53ba
000002d0: ec5a 9d3b 0f8d b43b eff6 933b 14a5 603b
000002e0: 7a59 c8bb c271 9e3a c933 893a 714a 63bb
000002f0: f5f7 cabb 6d5c 223c 499b 3e3b 00bf dabb
00000300: 7d67 373a ac78 c83b 81f4 0c3c 4e67 673b
00000310: 9121 1a3b b85f f339 a7f9 09bb 5910 2f3c
00000320: a6e9 ae3a eda8 6abb e22e 143b e36e 03bc
00000330: 5ecf 153b ff97 0e3b 5c29 9f3b 90e2 1d3b
00000340: 9611 023c 8623 6a3b 20d2 d83a d5c7 373c
00000350: 4483 7d3b e1b2 313b b133 d5bb ba66 9339
00000360: 3063 3a3b fc98 7a3c 0a29 e1ba b89b 763b
00000370: ae25 0bbc 66da f7ba 4335 843c 7ec7 31bc
00000380: 55fd aa3c a109 1dbc fb25 c5b9 80be 423b
00000390: 92bc e5ba 61a1 73bb 29d5 ba3b 7c2c b13b
000003a0: 86af 073a ed50 5f3a c689 2cbb abe8 163c
000003b0: b08b 42ba a67f 0dbb ce3a cebb a5e7 cc3b
000003c0: bb2d f73b a61d 4f3a 2160 183c f4db 003c
000003d0: a259 6837 9f04 e8ba a1e3 963c bab9 593c
000003e0: b505 833b 13a2 8f3b fe62 31bb 81a0 d53b
000003f0: b369 58bb e7ed 33bc 7e7c f6bb f234 49bb
0.0009331145 -0.0049377377 -0.008681384 0.008597604 0.008848833 0.0036044244 0.0005565675 0.0035545267
-0.0036641282 0.012550942 0.018858261 -0.005534996 -6.988395e-05 -8.1778126e-05 0.008064309 0.0004486286
0.009623752 0.00040024004 -0.0018822635 -0.0033140439 0.015053553 0.012470759 0.008073054 0.0051585673
-0.007905765 0.008820059 0.010965009 -0.003479872 -0.0036001343 0.006597796 0.012402924 0.0058186403
-0.005192776 0.003362791 -0.007277925 -0.0032358144 0.009083994 -0.0010160618 -0.005609687 0.006464163
-0.002726163 0.0067388066 0.0059979837 0.00028728833 0.003076393 0.006182441 -6.0392e-05 -0.011350499
-0.0007520507 -0.0023934783 -0.0021077383 0.0021928237 0.00013035012 0.0013165674 -0.0055750264 -0.00043010287
-0.009052796 0.0059818914 -0.0017590297 0.018310713 -0.008750734 0.002536603 0.0033252002 -0.0018353662
5.182147e-05 0.0068712225 -0.00958607 -0.0067274766 0.0012702458 0.009371349 -0.0045349845 0.0015955239
0.012568571 0.0016599204 -0.0012687335 -0.007757016 0.0090672225 -6.428095e-05 -0.00046721034 0.002894533
0.004091641 0.0065657627 0.0062924754 0.0002623483 -0.0011622908 -0.003627849 -0.0036215344 0.0100973975
0.0034145736 0.00081396964 0.001963144 0.003161674 0.010736394 0.008876966 -0.0012812424 0.0029980852
-0.0024967378 -0.0021781104 0.008174717 -0.00093231146 -0.0012039463 4.5362474e-05 0.002881085 0.0042813253
-0.007258895 0.004562182 0.0026163147 0.017282875 0.0037909637 0.004286216 0.0071532554 0.0059448313
-0.011101868 0.009726078 0.014017282 0.007753787 0.0040304074 -0.002895457 -0.0060707116 0.00811821
0.0012206322 0.008539608 0.008570784 0.008922133 0.016790623 0.00050675415 -0.0010059343 0.006151555
0.007660461 0.00472757 0.0041357297 0.008182485 -6.6106215e-05 0.0016426117 0.011407337 0.006455681
-0.0016460022 0.00032364365 0.006920915 0.0102716535 -0.0004713427 -0.005893743 -0.0011626524 0.006686458
-0.004969584 0.0029136182 -0.00066506193 0.007965282 0.0023253374 0.0015520846 0.006486582 0.014489925
0.006764565 -0.00047189146 -0.0028842743 0.0031532387 0.0027083554 -0.0053228564 -0.0039069597 -0.0012325181
0.012941941 0.00086926506 0.009973522 0.0109862825 0.0078720115 -0.0006230401 -0.0030001635 -0.0064744726
0.010794539 -0.007025612 0.0003909323 0.0052722106 -0.0034974716 -0.0006517 0.0137662925 -0.004212773
-0.0015301984 -0.0060860263 0.0072422354 -0.0008072068 0.0048020985 0.0055099796 0.0045155208 0.0034278082
-0.006114182 0.0012088346 0.0010467704 -0.0034681822 -0.0061941096 0.009909731 0.0029084256 -0.006675601
0.0006996317 0.006117901 0.008603216 0.0035309377 0.0023518542 0.00046419888 -0.0021053345 0.01068505
0.0013344779 -0.0035806254 0.0022610952 -0.008022043 0.0022859196 0.0021758077 0.0048572253 0.002409134
0.007938763 0.003572674 0.0016542114 0.011217077 0.0038682977 0.0027114677 -0.0065064062 0.00028114562
0.0028440468 0.015295263 -0.0017178368 0.0037629437 -0.00849287 -0.0018909692 0.016138678 -0.010850785
0.020872751 -0.009584815 -0.00037603066 0.0029715598 -0.0017527512 -0.0037175047 0.00570168 0.0054069143
0.00051759963 0.0008518834 -0.0026327237 0.009210746 -0.0007421328 -0.0021590977 -0.006293631 0.0062532
0.0075432933 0.00079008413 0.009300263 0.007864941 1.3849147e-05 -0.0017701573 0.018419089 0.01328891
0.003998483 0.0043833344 -0.002706706 0.0065193777 -0.0033021986 -0.010982013 -0.007522165 -0.0030701724

network_body._body_endoder.seq_layers.2.weight f4 [256, 256]
00000000: 8716 fcba 7eae 90bd ab1e ccbb 5c71 0bbd
00000010: 9f3c bb3c bd3c 7bbd 7421 f6bd ff0a f53d
00000020: 4545 ddbd 3fa4 a53c 6b58 bb3d 7ba5 43bd
00000030: 3f3f 863d 560a b0bd 4f52 a3bc 705c fc3c
00000040: 1c5a 893d bbba 10bc e04a cbbc eb60 dfbd
00000050: e431 473d 3a7f 16be 27e3 81bd ca2b 543d
00000060: c2b3 96bd afdc 1fbd 44e9 74bb 9a2a a63d
00000070: 6e0f ea3d b16e 06bd eb0c bb3b e349 703c
00000080: 513a 1e3b 30e8 433e 9b39 ac3d 07a9 783d
00000090: ce82 e23b 0e1a 5c3c 6a84 1bbd d2c0 d4bc
000000a0: 4472 0f3c 05cb 01bd 82cf 823d 061d a9bd
000000b0: 867a ec3b 87f8 2dbb 16cd 0abd 56e4 8a3d
000000c0: c31c 293d a051 ac3c 38e8 bbbd 03d9 463d
000000d0: 7f3d e5bb 3bbb bc3c 8da5 debc 4f38 803c
000000e0: 2b0b bd3c 0980 c63d 6706 4b3d 1097 9dbd
000000f0: f0c2 1bbd 95ad 2abd 3bfe 1bbe 0c02 1c3d
00000100: cf7e 43bc 394a bb3d 69c4 c7bd c609 763d
00000110: 9f17 dbbb e1a1 f9bc dd83 62bc 5c88 2a3d
00000120: 5561 a73c 9898 153d a392 c23c 7d65 a43c
00000130: 4a61 ccbb 1c9f 18bc 6793 1dba 21df ad3d
00000140: afb5 223d abe8 a4bd d021 f93d 09ba 80bc
00000150: fe0a b03d 0ae6 e3bc dbca 00bd 73fc bdbc
00000160: 8991 05bd 34c7 a33c 64ab 3f3b 95cc 013d
00000170: f2e4 02bb 4d03 5dbd 7ff2 ae3d 4a68 ccbd
00000180: d9e5 453d 4693 043e dbdd ef3b 44ac 583d
00000190: 6275 14bd 0ad9 4e3a 8e3d cbbb db63 ce3d
000001a0: 5163 9cbc 1e10 44bd a449 d43d dd77 61bc
000001b0: d3e2 eb3c c247 353d ea9f 473c 4352 433d
000001c0: 4f46 c13d 69a6 abbc 97b7 05be 49f5 e83c
000001d0: a479 53bd 0093 8c3d 5532 aabc 2b91 8ebd
000001e0: 7102 c4bc f8e6 9ebd 70cb 1bbd 03ae 6abd
000001f0: bc12 5a3d c572 9cbd d9dc acbc 5d67 2bbd
00000200: cb7e 8c3d 7ec1 83bc 2b2f c7bd 8354 1dbd
00000210: 999c 67bc d23c a03d 1fdb 013d 0582 85bd
00000220: 6311 ba3b e0d3 a13d 9b24 803d 73c8 143d
00000230: b9ad 80bc 4e2e 4e3d 09e0 563d c067 0a3e
00000240: 34a7 bbbd 96e2 ae3d 47ec 3c3e 89c1 193d
00000250: 7668 483d b4f1 a3bd 4122 d63a 222a 35bd
00000260: d776 9b3d 78c2 7c3d af28 a73d 4586 623c
00000270: fc09 e53c 8ad2 cebd de97 903d 0a24 013e
00000280: 002f a9bd 42d9 433d 7bb4 323a e771 243d
00000290: a13f 66bd 7c11 373d 9400 363d 2501 b93d
000002a0: 25a7 b73d 796d 823c 4aa9 9fbc c542 5c3d
000002b0: 3924 6abd 1948 9bbc 9227 13bd b073 c3bd
000002c0: 72c5 8fbd cf65 1fbc 7fe7 2cbd 8635 8e3c
000002d0: 5ab1 b7bc 0a44 ab3c 238a 303c 060a 1a3d
000002e0: 3ef3 033d 91ab c63d 40db dfbd 75e1 d53c
000002f0: 5565 a5bd 57e4 3fbd 5755 3ebd 3039 d3bb
00000300: 2f8a d23d 4cae d7bc f064 8c3b 4981 d93c
00000310: 1207 083e 44a4 303c ddb6 01bd 9437 91bd
00000320: fa0c ba3d 433b 58bc 6b89 b13c 8b5b ccbd
00000330: 6eb2 b2bd 2370 e9bd dd84 233c c7b3 e5bd
00000340: 6fec cfbd f661 17bd bf5f f43b 678c 9cbd
00000350: 3977 b33d e600 b5bd 83f4 503c 1bea b0bb
00000360: 61e6 0bbe 1cd4 893d f551 cf3c eb40 9ebc
00000370: 3c2a ea3c 9075 743c 4ea9 3c3d a94e 843c
00000380: 9d4a a6bd 2ce4 833d 42cb 7dbd b9cd c43d
00000390: 7319 d0bc 4f9d c5bd 8e9a 0c3e 364c 523d
000003a0: 7727 373d 68f8 9336 0c75 6d3d 4f0e f03b
000003b0: 5047 8c3b 336e 7b3c 1e7a 7d3c 0416 d2bc
000003c0: 91aa da3d b4df 21bd aa10 ecbc 122c 583d
000003d0: 719e 4a3d 2874 a93d d5b8 13bd 5107 b6bd
000003e0: aa1f 133c f76e 15be 48d9 263c 6c31 7abd
000003f0: 455f 613a e0a3 913d 6779 6ebd cd7b eabd
-0.0019232788 -0.07064532 -0.006229242 -0.034043655 0.022856055 -0.06133722 -0.120180994 0.11964988
-0.10804228 0.02021992 0.09147724 -0.047765236 0.06555032 -0.085957214 -0.019936709 0.030805796
0.0670664 -0.0088335825 -0.024815977 -0.109071575 0.048631564 -0.1469697 -0.06342154 0.051799573
-0.07358505 -0.03902882 -0.0037370482 0.08113594 0.11428724 -0.032820407 0.005708327 0.0146660535
0.0024143646 0.19131541 0.08409425 0.060708072 0.006912566 0.013433946 -0.037968077 -0.02597085
0.00875527 -0.031687755 0.06387235 -0.08257489 0.0072167544 -0.002654584 -0.03388699 0.06781833
0.041287195 0.021035016 -0.091751516 0.048546802 -0.0069958563 0.023038497 -0.02717855 0.01565185
0.023076614 0.096923895 0.049566653 -0.076948285 -0.038027704 -0.041669447 -0.152337 0.03808789
-0.011932089 0.09145016 -0.09754259 0.060067914 -0.0066861655 -0.030472698 -0.013825384 0.04163395
0.020432154 0.036522478 0.023751562 0.020067925 -0.0062371837 -0.009315278 -0.00060110394 0.08489824
0.03972405 -0.080521904 0.12164652 -0.015713708 0.085958466 -0.027819652 -0.031443458 -0.023191666
-0.032609496 0.019992448 0.0029246444 0.031689245 -0.0019972888 -0.053958226 0.08542346 -0.09980829
0.048314903 0.12946805 0.0073201484 0.05289866 -0.036244757 0.00078906177 -0.0062024062 0.1007764
-0.019090327 -0.047866933 0.10365608 -0.013761488 0.028794682 0.044257887 0.012184123 0.047685873
0.094372384 -0.020953374 -0.13058315 0.028437274 -0.051629677 0.068639755 -0.020775953 -0.06961282
-0.023926945 -0.077588975 -0.03803581 -0.057294857 0.053240523 -0.07639078 -0.021101402 -0.04184662
0.06860121 -0.016083475 -0.097257935 -0.038410675 -0.014136457 0.078241006 0.03170311 -0.0651894
0.005678342 0.0790174 0.06256982 0.036323976 -0.015707837 0.05033713 0.05245975 0.1351614
-0.09162751 0.085393116 0.18449508 0.037538085 0.048927747 -0.080050856 0.0016337113 -0.044229634
0.07591026 0.061708897 0.08162057 0.013825958 0.027958862 -0.10098751 0.07060216 0.12611404
-0.08260918 0.047814615 0.0006817055 0.04014769 -0.056213025 0.04469441 0.044434145 0.090334214
0.08967427 0.015921341 -0.019489903 0.053774614 -0.05716345 -0.018955277 -0.03592641 -0.0954355
-0.070200816 -0.009728863 -0.04221296 0.017359506 -0.022423435 0.020906467 0.010775122 0.037607215
0.032214396 0.097006924 -0.109304905 0.026108483 -0.08075968 -0.04684862 -0.046468105 -0.0064460263
0.10280263 -0.026328228 0.0042844936 0.026550906 0.13283947 0.0107813515 -0.031668533 -0.07090679
0.09084506 -0.013197723 0.021671971 -0.09978398 -0.08725439 -0.113983415 0.009980408 -0.112159304
-0.10152518 -0.036958657 0.007457703 -0.07643967 0.08762974 -0.08838062 0.012753609 -0.0053990013
-0.13662101 0.0672991 0.025307635 -0.019318065 0.028584592 0.014920607 0.0460599 0.01615079
-0.081197 0.06440005 -0.06196142 0.09609551 -0.02540276 -0.09649145 0.13730833 0.05134221
0.04471537 4.4098597e-06 0.057972953 0.0073259245 0.004280962 0.015346098 0.01547101 -0.025645263
0.10677064 -0.03951998 -0.02881654 0.052776404 0.049467508 0.08274108 -0.03606494 -0.08888114
0.008979717 -0.14593111 0.01018364 -0.06108229 0.0008597265 0.07111335 -0.058221247 -0.114493944

network_body._body_endoder.seq_layers.2.bias f4 [256]
00000000: 97ae 90ba e5c6 08bb ce23 bf3a b1b1 963a
00000010: 7d15 a2ba 064f 443c 69fe ea3b da01 07bb
00000020: c825 6bbb ffa6 da3b 33ba 893b 2be1 cc3a
00000030: 815b e1bb 39c0 3fbb b1d9 a83b 64fe a93b
00000040: c8ce 333a 394f 3b3c a3c9 a438 2ac9 b13a
00000050: 905b a0ba 2eee 9abb 6a9e 623a ad80 173c
00000060: b221 b8ba 8aba 893a a95a 893b e5f1 7bbb
00000070: 15db 06bb 8827 293c e94a a33b bd57 223c
00000080: 72c5 bd3b 30ab 6abb 471a a4bb 8571 653b
00000090: bdaf 513c 10e5 23ba b3a6 15b9 8e0b d7bb
000000a0: 2b61 d73b e1ad 7ebb 7912 733c a98f 153b
000000b0: 5ad4 c0bb 2dcf 943b 88ab 43bc b118 cd3b
000000c0: 235d 8fba 732e 80ba 7c95 e3ba 8f0d b4ba
000000d0: 0d5b 073c 3c79 4c3c 28c4 44ba 7e71 29bb
000000e0: 9678 8435 b180 ad3b 8ad2 5dba 3bb2 efbb
000000f0: 5796 543c e0a6 8d3b bb70 483b 5662 90bb
00000100: 4495 2f3c 34b9 393c 070f 143c af45 6c3b
00000110: 6da0 41ba 2431 0a3a 7a03 a23b 8fbd 0cbc
00000120: 955f 99ba c4e4 033a b8dd 7e3b 9f5b e8bb
00000130: 8a27 a2bb c4a4 133b 70a7 243c 1b5d 223c
00000140: 9a87 06bc 0eca 683b d3cc 8abb ccdb 86ba
00000150: c6ee 013b 7ca8 9b3b d5c7 ecba 5d96 09bc
00000160: 21c3 fbbb 3313 773c 8a50 1a3c 77e5 0d3a
00000170: 42f3 e23b 47f8 143c 1401 c13b 1f0e 96bb
00000180: b20b 85bb 39fe 273c 1b7f 6c3b 2f97 2cb8
00000190: 7039 ddba a6b2 a6ba ab41 083a cf4e f53b
000001a0: a25a b53b 9610 023c febc 2fbb c09f 0a3a
000001b0: d440 303b 85f3 bd3a 45f9 31bb 34b3 b639
000001c0: 109e 123c 7332 1fbb 8adc d339 4fed 143a
000001d0: 8f55 5e3b ec50 043c 774b 99ba 54d1 e13b
000001e0: ab41 dc3a dfe1 a7b8 632f a23a 9257 c2bb
000001f0: 4675 593b 3857 463c d94f d13a 55ad e2bb
00000200: 8234 d93b b0aa 613b 41d6 4fbb d390 553c
00000210: 7759 253c 2a36 923b c1b3 863c cf2d 213c
00000220: 7aba e93b 5c84 24ba 4e31 67bb 5fca 753b
00000230: 9b42 eeba d7b6 053c d755 a3bb 58ec 013a
00000240: cf70 14bb 20d3 933b 4cf1 c33b 81c0 e13b
00000250: 8b26 f53b b961 5dbb eb92 84b9 7315 c03b
00000260: 5f0d ab3a 4601 e5ba df0c 46bb 2d67 393b
00000270: 6d91 183c 9818 cbbb 4d06 b63a 0a75 91bb
00000280: 4b41 583b d839 253b e575 99bb d495 48bb
00000290: 3846 8bbb e4ac 84bb e98d 04bb c98b df3b
000002a0: d5c3 cebb 6d42 2b3c 0bc0 72b9 2220 8f3c
000002b0: a5a3 953c c7c5 043c 5f5b 5f3a c1d6 cc3b
000002c0: ad7d ab3b ab77 a03b 0978 a6ba e772 84bb
000002d0: 0f86 bdba b7c6 8d3b 2729 883a 78a1 ab3a
000002e0: 32da 4c3b 3a62 0b3b bfc3 fbbb 07e0 e3bb
000002f0: 5da5 a0bb 9151 183c addc 6bbb 8c0b 5a39
00000300: db0c 063c 65ab 1c3c 4fd1 593b 28fa d4ba
00000310: c1b0 783a 44ed ac3b 624c 89ba e36c edbb
00000320: 4473 d13a 0cfb 453b 2b99 87ba 66c1 8bbb
00000330: e080 aaba 8d8d 103b 207f 2dbb 61a8 6cbb
00000340: d713 3a3c 2a60 803c f848 1abc 36bc b43b
00000350: 9d62 58bb 2a36 143c d012 283a 35eb d03b
00000360: 687f 0e3c 9712 143a 93fa 0b3c 7128 d83b
00000370: b93a 333b e507 c9bb c8a7 68bb fdcd 53bb
00000380: 1051 393b 543e 24bc e40b ab3b c42f 74b9
00000390: 4881 1dba 8392 593b b7d7 603b 2146 87bb
000003a0: dfd2 4d3a bc98 593c 55df f1b8 c21b 423b
000003b0: 1425 0fba 476e 4d3b 8273 503c aa4d b7ba
000003c0: acf6 2a3a 6e5d 8d3c 6c11 79bc c83f a3bb
000003d0: 2a07 1ebb d5e3 ae3b e48b 033b ee83 a1bb
000003e0: f4ca 83ba cac4 813c dd18 163c b737 0c3b
000003f0: a38d cf3b bf04 053c f831 2cbb d775 843a
-0.001103836 -0.0020870504 0.0014582814 0.0011497048 -0.0012366023 0.011981731 0.0071714413 -0.002060047
-0.0035880674 0.0066727395 0.004203105 0.001563107 -0.006877363 -0.002925886 0.005152904 0.0051877964
0.0006859121 0.011432462 7.857687e-05 0.001356398 -0.0012234319 -0.0047281003 0.00086448214 0.009246987
-0.0014048128 0.0010507863 0.0041917157 -0.003844374 -0.002057736 0.010324366 0.004983295 0.009908614
0.0057913596 -0.0035807602 -0.0050080153 0.003501029 0.012798247 -0.00062520895 -0.00014271848 -0.0065626567
0.0065728626 -0.0038860964 0.014835947 0.0022821224 -0.0058846893 0.004541299 -0.011942752 0.006259047
-0.0010937791 -0.0009779468 -0.0017363275 -0.0013736951 0.008261454 0.012480076 -0.0007506036 -0.0025855
9.869862e-07 0.005294882 -0.0008461854 -0.007314948 0.012975297 0.0043228716 0.003058477 -0.004406254
0.01071674 0.01133566 0.009036786 0.0036052277 -0.0007386271 0.0005271605 0.004944262 -0.008590116
-0.0011701459 0.0005031342 0.003888948 -0.007091 -0.004948561 0.0022528628 0.010049686 0.009909893
-0.008211041 0.0035520825 -0.0042358427 -0.0010288893 0.0019826158 0.0047503095 -0.0018064926 -0.008397666
-0.0076831733 0.015080261 0.009418616 0.0005412916 0.0069259712 0.009092397 0.005890021 -0.00457932
-0.004060232 0.0102534825 0.0036086503 -4.1148796e-05 -0.001687808 -0.0012718036 0.00051977736 0.0074862014
0.005534486 0.007938525 -0.002681553 0.0005288087 0.002689411 0.001449213 -0.0027156633 0.00034847262
0.008948818 -0.0024291545 0.0004040937 0.00056811137 0.0033925509 0.008075934 -0.0011695464 0.006891409
0.0016804239 -8.005252e-05 0.0012373741 -0.0059308494 0.0033181473 0.0121057555 0.0015969231 -0.0069176354
0.006628574 0.0034434013 -0.0031713399 0.013035017 0.010092131 0.0044620233 0.016443135 0.009837582
0.0071328254 -0.00062758266 -0.003527719 0.0037504656 -0.0018177809 0.008161268 -0.004984598 0.00049561774
-0.0022650247 0.004511252 0.0059796926 0.0068894033 0.0074814013 -0.003378017 -0.00025286464 0.005861932
0.001305025 -0.0017471693 -0.0030220074 0.0028290257 0.009312016 -0.006198 0.0013887376 -0.004439001
0.0032997902 0.002521148 -0.0046832436 -0.0030606883 -0.004250314 -0.0040489305 -0.0020226187 0.0068220836
-0.006309966 0.010452849 -0.0002315046 0.017471377 0.018266508 0.008103794 0.000852039 0.0062511866
0.0052334876 0.004897078 -0.0012700568 -0.0040420177 -0.0014459508 0.004326667 0.0010388241 0.0013094386
0.0031257984 0.0021268264 -0.007683247 -0.0069541964 -0.0049025253 0.009296791 -0.0035989687 0.00020794402
0.008181776 0.009562348 0.003323633 -0.0016248869 0.00094867876 0.0052773077 -0.0010475034 -0.0072456463
0.0015979786 0.003020945 -0.001034533 -0.0042649982 -0.0013008378 0.0022057027 -0.0026473477 -0.0036111104
0.011357269 0.015670855 -0.009416811 0.0055156006 -0.0033017762 0.009046117 0.00064114947 0.006375695
0.008697368 0.0005648522 0.008543628 0.006596618 0.0027348234 -0.0061349743 -0.0035500396 -0.0032318824
0.0028277077 -0.010024626 0.0052199233 -0.00023287447 -0.0006008339 0.00331989 0.0034308264 -0.004128233
0.00078515516 0.013281044 -0.00011533374 0.0029618596 -0.0005460542 0.0031346248 0.012722852 -0.0013984938
0.00065217423 0.017256465 -0.015201908 -0.0049819686 -0.0024113157 0.0053372183 0.0020072395 -0.0049290573
-0.0010054992 0.015840907 0.009161201 0.0021395513 0.006334023 0.008118807 -0.00262749 0.001010592

network_body._body_endoder.seq_layers.4.weight f4 [256, 256]
00000000: 26e7 15bd c218 42bd 8170 13bd fe19 7dbd
00000010: 6977 ecbd afc4 7b3d a4f5 01bd c963 133c
00000020: 8ea0 51bd 7dbb bc3c a1e5 903c 75ef c0bd
00000030: da9f 1f3d 5dc1 f03c a10c 03be 3a64 2e3d
00000040: ccab e3b9 aafb 62bd f963 2c3d d724 f6bd
00000050: 3afe fdbc e734 03bd 7b4b a0bd 4bb9 89bb
00000060: d625 a83d f931 2bbd 0515 103e d73d d13c
00000070: b3dd aabd b6bc 67bd ddf3 a7bd d81b 25ba
00000080: 87d5 b03d 04b1 33bd f359 cdbd fa6c 6fbc
00000090: 5f09 3fbd b4b0 b7bc 52f8 ad3c b0c0 aabc
000000a0: 3225 05bc 49a9 cbbc d588 afbc 8ddc 583d
000000b0: d94d af3d d89e f2bc 9dec 0c3d dd20 783d
000000c0: 229b 98bd 63ce f0bd e901 323c 7f49 f7bd
000000d0: d9ae 153d dc6b 17bd fd9a d1bc e1d4 debb
000000e0: 734b 27bb fc0b 483d 1bae 49bd 0faa 193d
000000f0: d941 9cbb 9026 82bc e53f be3c 1617 fa3c
00000100: bf58 92bc e631 1abe 68ed 62bc 71ac 2bbc
00000110: d4c8 ff3d 5767 8abc 2300 1a3d aa2d 3b3c
00000120: 67f3 8e3d 8eba 0ebe 7997 b6bd 3897 0e3d
00000130: e031 abbd 1e9c 7f3d 8884 e3bc b608 a4bd
00000140: c26e 3fbc 1a97 b1bd 888c 3cbd f103 303c
00000150: 8b62 ca3c f036 91bd 5f4a 0ebd 70ff e9bd
00000160: 2173 ec3d 2072 503c c37d 803c 0e5f 833c
00000170: e1ee 4abd c1c6 9b3d d15e 1b3d dd06 273c
00000180: 6b4a 9e3c 52e4 5dbd 0654 023c 3cfa ae3d
00000190: e128 d13d aec7 57bc 32ce 4fbe 6ef9 e8bc
000001a0: d129 cc3d 9ee9 b0bd 4a8f 01bc 6dc9 f4bd
000001b0: 21f0 973a 953a 06bd 31a3 cabd f6c3 dabc
000001c0: faa1 17bc 20a4 48bd 992e 6d3d bd44 853b
000001d0: 9393 efbd 8a5e 853c bbbb 88bc f985 edbc
000001e0: 21f0 4f3d 70ed e73d 4495 14bd e28d 10bd
000001f0: 94f3 303d a447 80bd 0209 023e c5f3 97bc
00000200: 7f61 5dbd fcce c8bd 4662 39be f0c2 f7bd
00000210: da2b 6e3d f927 ffbc c13f e73b e000 833d
00000220: 6af0 2abc 225d da3d a830 dfbc 5c14 693c
00000230: 7aad 503d d67c 92bc 62ec 5b3c e59c 9a3d
00000240: 977a d7ba d357 70bb 081d f4bb 6471 493c
00000250: 3f46 383d 90b7 03bd cb0e d5bc 1d52 3dbb
00000260: 7b81 21bd cd36 9d3d 03ff 5e3c 8193 4b3d
00000270: 5afc 6c3d 7324 a7bd 7957 6e3c fd89 993c
00000280: 9819 f93d 960a 123c 18da b53d b3a3 b83d
00000290: ee39 7e3d f966 9a3d ffda 7e3c 289b efbb
000002a0: b138 cfbd 6d01 703d 8b5e a83b 6352 08be
000002b0: 6791 79bd f2a7 903d d23f b4bd aa74 a63d
000002c0: dde2 98bb 8156 0ebe f38d 163d c05f 9fbd
000002d0: a2c8 44bd 260f 86bc a569 84bd fc19 24bd
000002e0: fe78 563d 9477 68bc 3aa7 41bc 0dfe 29bc
000002f0: 003a 76bc 11b4 2bbd aa55 a93b e06b 243d
00000300: ce3b 0b3e a404 9abd 0b9c ae3c 4e72 933d
00000310: e202 8cbc afb2 003e 0907 393c b09c 0fbd
00000320: 0721 e83c 324a cfbc 6d72 2d3d 6ab4 34bc
00000330: c11e b23d 6bff d53c a4df d63d f5b4 7f3d
00000340: c43a 2abd 3de4 3a3d 1714 083d 89a6 e03c
00000350: 7dee 24bd cb31 4fbd 9db3 54bb 2837 50bd
00000360: 3b98 26bd 0dca 1fbd 1a89 edbc b308 893c
00000370: 23f3 9b3d a578 c43d d734 4dbd 199b 2b3e
00000380: 6bc1 e0bc 4726 d43d 9c40 943d 0f96 98bd
00000390: 1555 f7bd 7cfe c1bc eb1e 7f3d 87d9 62bc
000003a0: 3011 1c3e f64f 53bd 3054 283d 7473 cdbd
000003b0: b11c 413d 786d 413d 9d81 ae3d 469c 67b9
000003c0: b800 f03c 1221 f73d 3801 afbc 0f43 a23c
000003d0: 699a 0dbd 8067 acbd a46c de3d 2697 013d
000003e0: 6a9a 27bd 3f35 ff3c e891 083c 083d febd
000003f0: 572a aa3d 8edd 213c f8f2 9abd 6acb c43c
-0.036597393 -0.047386892 -0.035995964 -0.061792366 -0.11546213 0.06146687 -0.0317284 0.008995959
-0.051178508 0.02303862 0.01768762 -0.09420673 0.038970806 0.029389078 -0.12797786 0.042576052
-0.00043424813 -0.055415787 0.04208753 -0.120187454 -0.031005014 -0.032032873 -0.07826897 -0.004202997
0.08210342 -0.041795705 0.14070518 0.025542183 -0.08343067 -0.056576453 -0.0820081 -0.00062983995
0.08634477 -0.043869987 -0.10026922 -0.014613384 -0.046639796 -0.022423126 0.021236572 -0.020843834
-0.008126544 -0.024860995 -0.021427551 0.05294471 0.0855977 -0.029616758 0.03440534 0.060578216
-0.07451464 -0.11758115 0.010864713 -0.12074565 0.0365437 -0.036968097 -0.0255866 -0.0068002795
-0.002552715 0.048839554 -0.049238306 0.037515696 -0.004768592 -0.015887529 0.023223827 0.030528586
-0.017864583 -0.15058097 -0.013850547 -0.010478125 0.12489477 -0.01689498 0.037597787 0.011424461
0.06980019 -0.13938352 -0.0891561 0.034812182 -0.08359122 0.062404744 -0.027773157 -0.08009474
-0.011684122 -0.086713985 -0.04603246 0.010743127 0.024705192 -0.070905566 -0.034738895 -0.11425674
0.115453966 0.012722522 0.015684968 0.016036537 -0.04954422 0.07606269 0.03793222 0.010194507
0.019322595 -0.05417282 0.007954603 0.08543822 0.10212875 -0.013170166 -0.20293501 -0.02843925
0.09968913 -0.08638309 -0.007907698 -0.119524814 0.001159195 -0.032770712 -0.098944075 -0.02670477
-0.009254927 -0.048984647 0.057905767 0.004067032 -0.116980694 0.016280431 -0.01669108 -0.028994547
0.050766114 0.113245845 -0.036275163 -0.03529156 0.043201044 -0.06263664 0.12698749 -0.018548856
-0.054048058 -0.09805104 -0.18103895 -0.12097728 0.05814729 -0.03114699 0.0070571606 0.06396651
-0.010433296 0.10662295 -0.02724488 0.014226045 0.05094669 -0.017881792 0.013423057 0.075494565
-0.0016439733 -0.003667344 -0.00744975 0.012295101 0.044988867 -0.03215748 -0.02600803 -0.0028888055
-0.039430123 0.07676468 0.013610604 0.049701218 0.05785785 -0.08161249 0.014547222 0.018742556
0.12163085 0.008913657 0.08879489 0.09015598 0.062066965 0.07539172 0.015555142 -0.0073121972
-0.10118235 0.05859511 0.0051382235 -0.13312678 -0.060929682 0.07063283 -0.08801235 0.08127721
-0.004665716 -0.13900186 0.036756467 -0.07781935 -0.0480429 -0.016364645 -0.064654626 -0.040063843
0.05236148 -0.014188666 -0.011819655 -0.010375512 -0.015028477 -0.04191977 0.0051676827 0.04014194
0.13597032 -0.075204164 0.021314641 0.07199536 -0.017091218 0.12568162 0.011293181 -0.03506154
0.028336061 -0.025303934 0.042345453 -0.011029342 0.08697272 0.02612277 0.10491875 0.062428433
-0.04155995 0.04562782 0.033222284 0.02742316 -0.040266503 -0.050584596 -0.003245569 -0.05083385
-0.040672522 -0.03901105 -0.02899604 0.01672778 0.07614734 0.095933236 -0.05009922 0.16758384
-0.027435979 0.10358863 0.07238886 -0.074504964 -0.12076775 -0.023680918 0.062285345 -0.013845808
0.15240932 -0.05158993 0.041095912 -0.100317866 0.047146503 0.04722354 0.085208155 -0.00022088093
0.029297218 0.120668545 -0.021362886 0.019807367 -0.034571085 -0.084181786 0.10860565 0.031638287
-0.040918745 0.03115332 0.008335568 -0.124139845 0.08308857 0.009879483 -0.07565874 0.024022777

network_body._body_endoder.seq_layers.4.bias f4 [256]
00000000: 8c90 593b db6b 8ebb 351a 9dbb 6ec9 6d3c
00000010: 825c 9dbb 9b17 1f3c 01bd 86bb f08b deba
00000020: d01e 90ba fbff 94bb 0695 963b cf46 8a3b
00000030: 9d26 94bb 0009 2dbb 8b0a 063b aaec ce3a
00000040: 29d4 40bb cf19 f1ba 30df be3a 8389 c7bb
00000050: 0237 483b 28c0 003c 84ab a4bb 5176 5cbb
00000060: c280 b03b cdbf dd3b 0f6b f43b 5202 3f3c
00000070: b48b 1f3c ca1a b83a 0bfa 7a3c 95f6 e93b
00000080: 006c 69ba d1c4 143a 08a2 59bb e091 423c
00000090: 1e4a 6b3a 0e1f 473a 2b30 593b 9f3e 133c
000000a0: 7b6d 8dbb 9ac7 07bc a576 5a3c e104 bc39
000000b0: d13c 99bb 2ef6 c1ba b3be 84ba 67dc 643b
000000c0: 6ae1 683b 196a 113c 50c9 d43b f945 8739
000000d0: 8299 80bb b413 b4bb 3ede 61bb 925c e4bb
000000e0: b757 ae39 c56f b7ba 82d4 573c 1401 7dbb
000000f0: bbdb 2a3a 9248 b339 0008 e43b cdb7 cc39
00000100: 3ed2 83bb bbce aab9 d79c 253a fc27 683b
00000110: 0f73 48ba 0b58 633c 88d5 83bb 860d 503b
00000120: 70a8 913b 19c5 ab3b 07e1 80bb c34d 83bb
00000130: 5321 8b3b 0508 033c 0b8c e2b8 97f8 80ba
00000140: d736 a23b d611 90bb abf7 8839 e768 34ba
00000150: 979f c33b 860b 363c 3e31 973b 3fec 6c3c
00000160: 4305 a93b 3a43 57bb bf87 15bb 5e8d 45bb
00000170: c303 d03b acd9 023b 708f 923b ada6 b73b
00000180: 0e74 463c dc9e d53b f38e acbb 203d 2dbb
00000190: 8598 22bc f439 5ebb c7df 2dbc 92d1 d3ba
000001a0: d3ac 11bc cdf7 5fba 5962 4e39 5b37 b63b
000001b0: 734f e6ba b703 7fba 3beb 1eba 2b20 c0bb
000001c0: b1d8 283a 9aa8 773b ca75 7fbb 2214 3eba
000001d0: 5f52 343c 9d85 0ebb 2fc4 8fbb f89f 01bb
000001e0: f744 85ba 2a39 973b a2aa 13bc d0cb aeb9
000001f0: c0d0 e53a e825 873b 5127 05bc 08e4 b5bb
00000200: 4c35 173c d018 233c 2d9f 3ebb a38d 64b9
00000210: 2267 acbb 1d2c 463c e896 7bbb b7e5 c63b
00000220: b848 01bc e0e9 4439 0f4b 1f3a 101e 98bb
00000230: e304 ccba 4e51 8cbb 66db fcb9 029f c6ba
00000240: 43a0 8dbb 939f 413a ad2b e83b 8ede 23bc
00000250: 645e a8bb 9b4d c2b7 9e63 cb39 2575 faba
00000260: 387f 6a3b 9a95 ba3b 7690 9639 2604 d23a
00000270: e41f 82bb 0578 40b9 6ac2 533b 2b62 9bbb
00000280: b979 7e3c 82a7 82bb c7ac 793a 6866 93bb
00000290: 06ba 95bb 597a 223b 0636 b639 bd67 cd39
000002a0: a825 033a 9a82 5d3b b9a0 fd38 50bc aa3b
000002b0: 8d4d 763c ae19 c23b 630b b13c 4b89 9dbb
000002c0: 95c6 473c 6e2d 133c 20e9 91bb df74 22bb
000002d0: f787 113c ca36 1c3c 12c1 0ebc 5ca1 213c
000002e0: 55ae f3b9 cd49 7bbb 26bc 4a3c 51f6 ae3c
000002f0: 614a ccbb 0493 54ba 7717 eeba b37f eebb
00000300: f302 84bb e585 403c 8735 323c 715a 64bb
00000310: 645a 1c3b 441d fdba 806c 1f3b 0eb9 66bb
00000320: b1ba f1ba 9ef1 f8ba 6551 ed3b 7354 003b
00000330: 2ba0 c0bb f78f 5bbb 66ca 2ab9 5ae6 963b
00000340: a3a2 ccbb 72b5 eeba f127 44bc ed42 a0bb
00000350: 9004 873b 3396 11b7 9fb4 583b ad86 593b
00000360: 0b7c 113c 8134 5d3c 717d bc3b 8a70 093b
00000370: 7011 08bc 0e34 0f3b 8b53 3ebc 7968 b23b
00000380: 397e f6bb 76cf b4bb 12b3 193c 07a0 603b
00000390: 494c 83bb cefa 1b3b 3493 593b 4b52 8e39
000003a0: 614c ee3b 5eed 733b 0eff 3ebc 96e9 0c3c
000003b0: aeb8 3f3c d0ec 423c 981e 6aba da37 843a
000003c0: dc66 e43b c6e6 b3b9 5cf0 0f3c c715 2cbb
000003d0: 7f03 dc3b f20a 1fbb 780d 97bb 11eb 9abb
000003e0: 710e d73b b194 693a 5e0a 053b fa81 82bb
000003f0: fd41 fdba bf04 22bb 364e 90bb 267d a0bb
0.003319773 -0.0043463535 -0.004794384 0.014513357 -0.0048022876 0.009710218 -0.0041118865 -0.001697896
-0.0010995511 -0.004547117 0.0045954017 0.004219867 -0.0045212046 -0.002640307 0.0020453061 0.0015787084
-0.0029423332 -0.0018394532 0.0014562365 -0.0060893907 0.0030550365 0.007858314 -0.005025329 -0.0033639858
0.005386443 0.006767249 0.0074590514 0.011658268 0.009737898 0.001404607 0.015318404 0.0071399906
-0.0008904338 0.000567508 -0.003320815 0.0118756 0.0008975583 0.0007595875 0.0033140283 0.008987098
-0.0043160296 -0.008287335 0.013333951 0.0003586179 -0.0046764393 -0.0014798099 -0.0010127634 0.003492141
0.0035534748 0.008875393 0.006493725 0.0002580134 -0.0039245496 -0.005495513 -0.0034464742 -0.006969043
0.0003325322 -0.0013995102 0.013173224 -0.003860538 0.0006517728 0.0003419561 0.0069589615 0.00039046854
-0.0040228656 -0.00032578953 0.00063176214 0.0035424223 -0.00076465396 0.013875972 -0.0040232576 0.0031746342
0.004445128 0.0052420017 -0.0039330753 -0.0040070727 0.004245916 0.0079975175 -0.00010802605 -0.000983971
0.004950385 -0.0043966575 0.00026124468 -0.0006882087 0.0059699523 0.011111146 0.0046140244 0.014460622
0.005158098 -0.0032846467 -0.0022816507 -0.0030144076 0.0063481047 0.0019966168 0.0044726655 0.005604586
0.0121126305 0.0065191817 -0.0052660643 -0.0026434138 -0.009924059 -0.0033909054 -0.010612435 -0.0016160479
-0.008891302 -0.00085437 0.00019682328 0.005560798 -0.0017571285 -0.00097280316 -0.0006062274 -0.0058632097
0.0006440981 0.0037789703 -0.003898012 -0.0007250925 0.011005967 -0.002174712 -0.0043874006 -0.0019779187
-0.0010167648 0.004614969 -0.00901285 -0.00033339718 0.0017533526 0.004124392 -0.00812705 -0.005550865
0.009229016 0.009954646 -0.0029086575 -0.00021796538 -0.005261318 0.012095478 -0.0038389508 0.0060698646
-0.007890873 0.00018779142 0.0006076553 -0.0046422556 -0.0015565421 -0.004282153 -0.0004822865 -0.0015153589
-0.004322083 0.0007386144 0.0070852847 -0.010001792 -0.0051382054 -2.316274e-05 0.00038793398 -0.0019108398
0.0035781395 0.0056941034 0.0002871786 0.0016022965 -0.003971087 -0.00018355258 0.0032311925 -0.004741927
0.015531951 -0.0039872536 0.0009524342 -0.0044982918 -0.004569295 0.0024792163 0.00034753996 0.00039177938
0.00050028646 0.0033799768 0.00012093917 0.005210437 0.015033138 0.0059234714 0.021611875 -0.0048076264
0.012193342 0.008982999 -0.0044528395 -0.00247889 0.008882514 0.009534547 -0.008713024 0.009865131
-0.0004647846 -0.003834355 0.01237396 0.021357687 -0.0062344526 -0.0008109065 -0.0018164952 -0.0072784065
-0.004028672 0.011750673 0.01087702 -0.0034843946 0.0023857588 -0.001931109 0.0024326146 -0.0035205516
-0.0018442479 -0.0018992906 0.007242369 0.0019581586 -0.0058784685 -0.0033502558 -0.00016287863 0.0046050968
-0.0062449737 -0.0018212034 -0.011972413 -0.0048907907 0.004120417 -8.6776445e-06 0.0033066643 0.0033191845
0.008879672 0.013501287 0.0057522585 0.002097162 -0.008304939 0.0021851095 -0.011616598 0.005444583
-0.007522371 -0.0055178953 0.009381073 0.0034275071 -0.0040068966 0.0023800614 0.0033199312 0.00027145664
0.0072722887 0.003722034 -0.011657489 0.008600613 0.011701746 0.011897281 -0.00089309504 0.0010087446
0.0069702696 -0.0003431348 0.0087853335 -0.0026258097 0.006714284 -0.0024267999 -0.00460976 -0.004727729
0.006563001 0.00089104014 0.0020300369 -0.0039827796 -0.0019322034 -0.0024722067 -0.0044038547 -0.0048977314

action_model._discrete_distribution.branches.0.weight f4 [10, 256]
00000000: 9f9d 32bb 0c30 dd3b c105 46bb e283 11bb
00000010: a260 043a ea8f 9dbb 2afb b43b 2742 e9bb
00000020: 61b4 fe3b 6f39 ad3a be42 ac3b ad55 2cbb
00000030: 217f 043c 79d8 933c 9932 18bc e8e9 15bc
00000040: 3186 153c ca8b 133a 2b6b a03a 6afc 203c
00000050: 7aab f8bb 4858 79bc 3fd0 a2bb bf03 e43b
00000060: 69e2 e7bb 466f fdba 25b8 8b3c a183 b8bc
00000070: 1e3d 633b 1f16 523b 0a5a 8bbc 6f62 0cbb
00000080: 29c0 08b9 a3fd 423b 9c4c 6e3c 612e 87bb
00000090: 5cb8 2cb7 1db5 823b 74b3 033b 05f6 97bb
000000a0: a3e1 b8bb 143c 413c 655d ccba f992 703c
000000b0: 0c76 053b d669 c1bb 8dd1 19bc 888f f53a
000000c0: c0eb 47bb 1519 c6bb 41c2 76bc f1a8 f23b
000000d0: 5d88 0fbc 3392 f43a 7e19 f43a ee95 38ba
000000e0: bf73 a4b9 bdd6 9b3a e9d4 ebbb 9f45 133c
000000f0: dee4 ff3b 8c76 a63b edee 33bc 9635 493a
00000100: db5a b8ba f6f7 dbba 5391 fbbb da33 01bc
00000110: 4988 c1bb 551f a23a 2258 fcba 5ec5 f7bb
00000120: bd47 81bc 3c77 a3bb 5b34 0cba 87b6 a3bb
00000130: 91ad faba 3e4a ecba 5ec9 e73a a05d d73a
00000140: ee8d b13a 613f a7bb 7c0a 44bc 28d0 2ebc
00000150: 81b2 36bc 0565 13bb 88ec 0b3a 6b3d 103c
00000160: ff50 ef3b 13b7 1c3c a7bd de3a 2b40 8eb9
00000170: 9f29 94bb 9cf2 96bc 039b 8a3a e7d6 86bb
00000180: ac92 c7bb 1e56 34bc 6bbc 1fbc fa01 debb
00000190: 5f4a 4dbc 7f8c 953b 9993 33bb 66bf b9bb
000001a0: 3471 e7ba 3a8f dc3b 13b2 2838 c07b b33b
000001b0: 7830 c1ba ad8d 3fbb 3dd8 dc3b aef0 e3bb
000001c0: cd39 d7bb 0979 463c ce7d 413c 73e4 d13b
000001d0: c35c 80bb 03bd 533c 6ffd 753b 0aba 6d3b
000001e0: 6f6b 643c b0f2 1e3c 151e 373c 8583 9e3b
000001f0: fd7f 1fbc 6759 5ebb e7d9 ce3b 2015 f93b
00000200: 3ce0 43bc ed5c 28bc 591c 63ba 790d d3bb
00000210: 94cd 45bb a4f6 d13b c930 903b 3ac5 b4bc
00000220: 07de 30bb be47 5f3b 861e d73b 23c4 f5ba
00000230: 1229 123c 3253 a3bb 18f8 93bb cdc4 e7ba
00000240: 6248 4e3c 4515 883b 9475 8fbb 3b54 013b
00000250: 1939 c63b 7ffa ae3b 2ca4 b4bb 7352 e23b
00000260: 599c 38bc f1eb 093b 95bd c2bb 2291 923b
00000270: ba22 98bb 891e 1ebc fc55 6c3a 081c 223b
00000280: ca63 bebc 6181 aa3b eb6e 03bb acca 063c
00000290: 7ab6 2f3b b4d5 ae39 d0b3 c5bb 333a e9ba
000002a0: 31cc 33ba 1369 9fb9 946f eabb bf72 00bc
000002b0: 8f5c 01bc b2b6 e139 515d fdbb f93b 0b3c
000002c0: 7438 9dbc 4e81 a1bb 469a 62bb 5ad0 ecbb
000002d0: 817e 92bb 16a6 3fbb e934 2d3a abeb 10bc
000002e0: 4efe 19bb 11cd 0ebc 7af5 033b 828d 8ebc
000002f0: 0e28 543c c17a 9aba 4a66 013c a6c8 95bb
00000300: b135 fe3b 9edd afbb d3dd e2bb e57e 033c
00000310: e6b5 f93b 2a4d 98bb 31ab 12bb 96ee fe3a
00000320: 0df2 cabb 5c59 61bc fdbc 83bb 8714 283c
00000330: 4305 e1bb 44c1 96bb ea9b e339 0080 f43b
00000340: 1c45 60ba bde6 0c3c 67b1 7c3b 8b6c 42bb
00000350: 6fd8 8fbb 345a 17bc 9006 ddba 9dde 03bc
00000360: 506f d8bb 2b2d 46bc 6ab3 72bb fade cf3a
00000370: 18c9 453c 2312 5dbb 84a0 ccbb 5822 f7bb
00000380: 3dc9 deba 82d4 7a3b 250d 28bc f724 a5bb
00000390: 9c30 4e3c b5f1 473c e488 87bc c193 7fbb
000003a0: e565 a6bb 2f21 1dbb 5273 d1bb 14f3 af39
000003b0: 09c2 fcbb 6233 a3ba 6576 91bb f958 033c
000003c0: d086 eabb e22d 40ba 4c0b 12bc ed4f 4fbc
000003d0: 008d ca3b 85d8 0d3c c8a3 02bc 26d7 aebb
000003e0: 8aa7 c1bb 58eb 2b3c 18f6 c5ba bd50 093b
000003f0: a5bd 73bb 79ae 9bba 6f84 86ba a6d0 713a
-0.0027254594 0.0067501124 -0.0030215832 -0.0022203852 0.00050498 -0.0048084157 0.005523105 -0.0071184817
0.0077729677 0.0013215969 0.0052569797 -0.0026296184 0.0080869505 0.018047558 -0.009289407 -0.009150006
0.009126232 0.0005628435 0.001223897 0.009825805 -0.007588801 -0.015218802 -0.0049686725 0.0069584544
-0.0070765507 -0.001933553 0.01705558 -0.022523703 0.003467388 0.0032056642 -0.017010707 -0.0021420976
-0.00013041556 0.002975323 0.014544632 -0.004125402 -1.0294923e-05 0.0039888755 0.0020095976 -0.004637482
-0.0056421324 0.011794109 -0.0015591799 0.0146834785 0.002036455 -0.005902509 -0.00938834 0.0018734792
-0.0030505508 -0.0060454705 -0.015060962 0.0074053933 -0.008760539 0.0018659293 0.001862332 -0.0007041384
-0.00031366755 0.0011889559 -0.0071970117 0.008988767 0.0078092655 0.00508005 -0.010982257 0.00076755264
-0.0014065163 -0.0016782272 -0.007677236 -0.0078858975 -0.005906139 0.0012368957 -0.001925234 -0.00756137
-0.015781278 -0.004988579 -0.0005348378 -0.004996124 -0.0019125213 -0.0018027497 0.0017683913 0.0016431101
0.0013546327 -0.005103991 -0.01196539 -0.0106697455 -0.011150957 -0.0022490632 0.0005337675 0.008803706
0.0073033567 0.009565133 0.0016993777 -0.0002713216 -0.004521563 -0.018426232 0.0010574762 -0.004114974
-0.0060904827 -0.01100686 -0.009749512 -0.006775138 -0.0125299385 0.0045638676 -0.0027401207 -0.0056685684
-0.0017657639 0.006730941 4.0220166e-05 0.0054773986 -0.0014739176 -0.0029228732 0.006739645 -0.0069561815
-0.0065681697 0.012113818 0.011809779 0.006405407 -0.003917308 0.012923482 0.0037535091 0.0036274218
0.01394163 0.009701416 0.011176606 0.0048374557 -0.009735105 -0.00339278 0.006312597 0.0076013952
-0.011955317 -0.0102760615 -0.0008663587 -0.006440815 -0.0030182349 0.0064075757 0.004400347 -0.022066701
-0.0026987807 0.0034069861 0.006564918 -0.001875047 0.008920925 -0.004984283 -0.004515659 -0.0017682553
0.0125905 0.004152926 -0.00437803 0.0019734043 0.006049287 0.00533992 -0.005512735 0.0069068014
-0.011267745 0.0021045173 -0.00594301 0.0044728676 -0.0046428116 -0.009650835 0.0009015498 0.0024735946
-0.023240943 0.0052034114 -0.0020055126 0.008227032 0.0026811645 0.00033347087 -0.006033398 -0.0017793834
-0.0006858735 -0.0003040513 -0.0071544144 -0.007839858 -0.007895603 0.00043051463 -0.0077320714 0.008498185
-0.019191958 -0.0049287444 -0.0034576817 -0.007226986 -0.004470647 -0.0029243282 0.00066073105 -0.00884525
-0.0023497525 -0.008715884 0.002013533 -0.01740146 0.012949003 -0.0011785851 0.007897923 -0.0045710383
0.0077578654 -0.005366995 -0.006923416 0.0080258595 0.007620561 -0.0046478705 -0.002237987 0.0019449766
-0.0061934055 -0.013754215 -0.004020332 0.0102588 -0.0068670823 -0.004600676 0.0004341298 0.007461548
-0.000855522 0.008599934 0.0038557888 -0.0029666747 -0.0043898146 -0.009237815 -0.0016862918 -0.008048681
-0.0066050664 -0.01209573 -0.0037033209 0.0015859299 0.01207187 -0.0033732734 -0.006244721 -0.007541936
-0.001699723 0.0038273637 -0.01025704 -0.005039807 0.012584832 0.012203624 -0.016544767 -0.003899798
-0.0050780647 -0.0023976078 -0.006391921 0.00033559708 -0.0077135605 -0.0012451226 -0.0044391626 0.008016818
-0.007157184 -0.0007331056 -0.008913826 -0.012653333 0.0061813593 0.008657579 -0.007973619 -0.0053357063
-0.005909865 0.010493122 -0.0015103249 0.0020952665 -0.0037191894 -0.0011877558 -0.0010262857 0.00092245115

action_model._discrete_distribution.branches.0.bias f4 [10]
00000000: 5882 7aba ed23 09bc adbb 87ba c0b0 0b3b
00000010: eddc 2e3c a1c9 de3b 0bf3 e4ba 3ac7 dfba
00000020: 28d5 a7bb 4105 f3bb
-0.0009556166 -0.008370382 -0.0010355614 0.0021315068 0.01067279 0.0067989384 -0.0017467452 -0.0017072924
-0.0051218458 -0.007416398
