Python/generator_model.pth (torch, 834639 bytes, 17 tensors)

actor_fc1.weight f4 [256, 16]
00000000: 1184 e53d e3b9 603e 538a 533e 56e4 9cbd
00000010: a7dd 083e 44bf 73bd 9737 28be 6336 0c3d
00000020: 2093 87be 778a 1bbd ef7d 6fbe 10be 2a3d
00000030: 5e50 533c b507 9b3e f938 f8bd 427b d1bd
00000040: 0828 07be c199 5abc bf84 3a3e 8671 bcbd
00000050: c1cb 5d3e 8e3b d2bd 91ac cc3d 1f45 5b3e
00000060: c0de 113e 1234 293e 1715 32be 9a07 ec3d
00000070: 51b1 793e f5c7 843e 7820 36bc fe3c 5bbe
00000080: 32c2 e7bb a91a 853b ccb8 1f3d 6089 a6bd
00000090: cfdf 5fbe 1691 69be 4aa1 febd b6b9 1dbe
000000a0: 05e8 353e 78e5 1a3d 0440 2fbe 255f c4bd
000000b0: 6c07 573e 2814 4cbd 9f88 ab3d dee4 8a3c
000000c0: e69f 9b3d ea45 743e 32d0 1b3d 28f5 10bb
000000d0: f351 173e cefc 503c c1ac 6a3e 74ab 3d3e
000000e0: 6d18 fbbd 257a 67bd 709f 6abe 9747 0b3d
000000f0: da66 563e 7ecc b13b b9c4 e2ba 48a9 793c
00000100: 6a06 c23d 455e a43d cc7f c5bb f27c 213e
00000110: 66f7 ba3d 8dbd d53d cef1 e03d 4e2b 913d
00000120: c864 98be 0652 053e 563d 4e3e c3f4 73be
00000130: 21ee 3b3d f52b 813e 838c ef3d c1c2 d23d
00000140: 9df7 bebd 3dcd aabd d4f5 843e 67a2 89bc
00000150: ebba 0a3e c590 5ebe a6aa 2fbe 6947 503e
00000160: e474 353d 4e34 1c3e db5f 2cbe 581b 7e3d
00000170: f6d9 df3c 39fe 83bd b33c 76be 8dbd 9ebd
00000180: 84a7 63be 5389 c53c cbcd 8b3e ea1b fd3d
00000190: b803 c03d ab4a 07bd 5dfe 243e 8cc6 673e
000001a0: 0093 433e 92ba 0e3d bef7 063e dbbc 363d
000001b0: 9841 c2bd 1722 bdbd 4c61 833d 8635 86bd
000001c0: d034 623e c060 01be 7da8 c93c 190d 6f3e
000001d0: 1061 533e cb9c 1f3d 4f67 15be 3b4f f7bd
000001e0: 8522 e8bd ec1d 553e c2b7 023e 9082 57bd
000001f0: 8d73 1a3e 9e74 80bd 60f8 2fbe 091e d5bd
00000200: f8ca 89be 3321 42bd 24c3 553d 6862 85be
00000210: 4462 28bc 686e 1abe 3aa8 35be e5ef e03d
00000220: 16e0 853e 3ff1 8dbe 43c5 5bbe e504 b93d
00000230: 048d 7f3e 8f8c b43d db0f a7bc bf6d 77be
00000240: 0074 b8bd d1b1 29be 4f6c bfbd 6941 60be
00000250: 0305 b33c 87c6 44be 0c86 6f3c 2790 783d
00000260: bbe1 a5bd e81c a0bd c734 4b3e 5c0a d0bd
00000270: 8975 433e 6313 2b3e a1e4 5d3e a04a 10be
00000280: 8a64 01be 34a3 503e 9f45 ae3d e6fe 8abc
00000290: f968 4dbd 6160 8abe c236 003e 9b3f 6d3d
000002a0: b753 f43d caa1 593e 396c bc3d 03ff 593e
000002b0: 4df3 69be aa4e a23d a780 21be a706 52bd
000002c0: e6d6 0f3e 5982 75bd ec39 5bbe 2370 963c
000002d0: 15a6 d73d 7525 163e ee8d 4a3d dda7 20bd
000002e0: e490 ae3e 550c d33d 628f 50be 19e6 37ba
000002f0: 36cd 093d 3538 aa3c 0505 fabd 6ba6 e639
00000300: ae15 adbd fd4e 6abe 988f 09be 3dff 27be
00000310: 0809 313e 331f 4b3e 69ea 8ebd 5102 1b3e
00000320: 2436 773d 60a8 3abe 8c1d 64be 631b f33d
00000330: 94ea 04be a449 473e 2263 09bd c36d 63be
00000340: 9b8b a3bc 7597 05be ea8b 89bd 40ec e73d
00000350: af48 1f3e d800 553e c919 cf3d 61ab bb3b
00000360: 0494 7fbe 0b6e 423e a31d 773e 01be 793d
00000370: 19e3 98bb a67d 70be 30fc b8be 2691 e4bd
00000380: 11a8 01be ec81 53be d6f0 703e 39b2 6a3d
00000390: 526e 253e 0f43 483e ac06 13be 6e11 4bbc
000003a0: 7027 5bbe c87a fc3c 92c4 183d 9d58 18be
000003b0: 7894 bbbb db34 c53d 42a4 57be 4f77 853c
000003c0: ac41 3bbe 4a3c d23d dce2 50be 0844 31be
000003d0: bc73 2fbe 7258 b1bd b4fb 5f3d 15ef b53c
000003e0: 4693 c0bd e844 673e f42f 5abc c113 febd
000003f0: e64f dbbd ac19 c4bc 3338 d63d 316c 163e
0.1120683 0.2194591 0.20658235 -0.07660739 0.13365804 -0.059508577 -0.16427456 0.034231555
-0.26479435 -0.037973847 -0.23387884 0.041685164 0.012897579 0.30279317 -0.12120242 -0.10228588
-0.13198864 -0.013342322 0.18214701 -0.092013404 0.21659757 -0.102652654 0.09993852 0.21413086
0.14245129 0.1652377 -0.17390858 0.115248874 0.24384047 0.25933805 -0.01111614 -0.21409985
-0.0070727104 0.004062016 0.038994595 -0.08131671 -0.2186272 -0.22809252 -0.12433107 -0.15402874
0.1776429 0.037816495 -0.17114264 -0.0958846 0.20998925 -0.04982391 0.08375668 0.016954836
0.075988576 0.23854795 0.038040347 -0.002211878 0.14777355 0.012755586 0.22917463 0.18522435
-0.12260518 -0.05651297 -0.22912383 0.03400382 0.20937672 0.0054259887 -0.001730106 0.015238114
0.0947388 0.08025793 -0.0060271975 0.15770319 0.09129219 0.104365446 0.109836206 0.07088338
-0.2976439 0.1301957 0.20140585 -0.23823838 0.045881394 0.2522885 0.11696722 0.102910526
-0.09324572 -0.08339927 0.25968802 -0.016801072 0.13547866 -0.21734913 -0.17154941 0.20339741
0.04430093 0.15254328 -0.16833441 0.062037796 0.027325612 -0.064449735 -0.24046592 -0.07750998
-0.22231871 0.024113333 0.27305445 0.1235884 0.09375709 -0.033030193 0.16112657 0.22634333
0.19099045 0.034845896 0.13180444 0.0446137 -0.09485167 -0.09235018 0.06415042 -0.065531775
0.22090459 -0.12634563 0.024616474 0.2334484 0.20642495 0.03896789 -0.1459019 -0.12075659
-0.11334709 0.20812196 0.1276541 -0.05261475 0.15083142 -0.06272243 -0.17184591 -0.104061194
-0.26912665 -0.047394942 0.052188054 -0.2605164 -0.010277335 -0.15081179 -0.17739955 0.10983256
0.26147527 -0.2772312 -0.21461968 0.09034137 0.24956137 0.08815872 -0.020393303 -0.24162959
-0.090065 -0.16571738 -0.0934683 -0.21899952 0.021852976 -0.19216357 0.014619362 0.06068435
-0.08099695 -0.078180134 0.19844352 -0.10158226 0.19087805 0.16706614 0.21669246 -0.14090967
-0.12636009 0.20374757 0.08509373 -0.016967248 -0.050148938 -0.27026656 0.12520888 0.057921987
0.1193003 0.21253124 0.09200329 0.21288686 -0.22846718 0.0792516 -0.15771733 -0.051275875
0.14046821 -0.059938762 -0.21408814 0.018364018 0.105297245 0.14662726 0.04945176 -0.039222587
0.34094918 0.103050865 -0.20367196 -0.0007015183 0.03364297 0.020778755 -0.12207989 0.0004399301
-0.08451401 -0.22881694 -0.13433683 -0.1640596 0.17288601 0.1983612 -0.06978304 0.15137602
0.060354367 -0.18228292 -0.22276896 0.11870458 -0.1298011 0.19461685 -0.033541806 -0.2220984
-0.01996403 -0.13046058 -0.067161396 0.11324358 0.1555507 0.20801103 0.1011234 0.005727217
-0.24958807 0.1898729 0.241324 0.060972217 -0.004665744 -0.23485431 -0.36129904 -0.11160497
-0.12661768 -0.2065503 0.23529372 0.057298873 0.16155365 0.19556831 -0.14358014 -0.012394292
-0.21401763 0.030820265 0.03729684 -0.14877553 -0.005724486 0.09629222 -0.21058753 0.016292242
-0.1828677 0.102654055 -0.2039904 -0.17311108 -0.17133993 -0.08659448 0.054683402 0.02220873
-0.0940309 0.2258488 -0.013317097 -0.124061115 -0.10708599 -0.023938023 0.10459938 0.14689709

actor_fc1.bias f4 [256]
00000000: 3ce3 14be 0803 5f3e bf35 443e 84eb 7abc
00000010: f21f 3a3e e92e fe3d 1760 d43d be54 1c3e
00000020: 32ab fbbb f10d bf3c b787 0e3e cb39 e73d
00000030: deca 48be 2ccc 6a3e b61f 583e bc62 923c
00000040: 79ac f4bd 2b2d 833d 8f0a 2f3d 4142 133e
00000050: c647 54bd 92af ea3c c60d 49be 464a 343e
00000060: f42f 613e 264a 543c e0a5 813d a2b0 7cbe
00000070: 68eb 283e 8de6 86bc a2dd 543d 16ff 1b3e
00000080: 2cc8 c03d 0752 b3bd d760 e5bc e93d b5bd
00000090: 304f b13c 7754 96bb 422f c03d 66ed bb3d
000000a0: b7c4 a33d a154 043e e234 83bc 6179 97bd
000000b0: dfb7 9d3d e17c 20be a881 61be cf4f fdbd
000000c0: de7a a3bd f3d6 363e 7a8b 47be 329f d83d
000000d0: e0eb 923d 2483 9abc 70e6 883e a163 0f3e
000000e0: a42f 40be eb3a fc3c aa89 14bd 55b8 07bd
000000f0: bd7c 00be 7983 cdbc bc8c 6fbe fd45 753e
00000100: df82 833d 7524 f1bd 0709 6dbe 3350 fa3d
00000110: c3a4 fb3d 19ec 2b3e c03e 34be 39a8 8abe
00000120: 53bc 11be d6b7 9e3d 8ddc a7bd 8f52 0a3e
00000130: 1b79 06bd 8341 ecbd dfe4 7c3d 8513 00be
00000140: 6b73 e63d ad27 833e 11b1 bdbd c183 363e
00000150: 127f 9e3c 3ef7 06bd 99cb 41be 7d59 513e
00000160: b1e4 fcbd c188 6b3e 1d2c 743e c095 e53d
00000170: b084 923e 75ed 133e d13c f83d c91e 51be
00000180: 3677 57bc 4301 363c 50f3 85bd 66c2 113e
00000190: 7f2d 06be 305f 44be 3029 753e bf01 3b3e
000001a0: 5434 0bbe 6fef 8fba d4f8 96bd eed4 cb3d
000001b0: 5941 8ebd 6561 46be 53c8 eb3d 25dd da3d
000001c0: 1f2d c6bd 4986 873e 3079 4abc 168d 413e
000001d0: cacb 233e d3d3 6a3d 2215 20be b8b9 53be
000001e0: 247a c03d 173a ae3d 55b8 a83d 3d38 ee3d
000001f0: 2d15 68bb a847 5dbe 0f7c b2bd 4dbf 643e
00000200: 0b67 27be 9bed 163d 3316 723e 8753 063e
00000210: dfab 653e 8d64 2f3e 4778 cabd 9ddd 303e
00000220: 6d05 f43c 924c f13d f35d cdbc 61db 1fbe
00000230: 0c17 3dbe 93f9 493e 0750 febb ef62 b63d
00000240: 3a4d 4a3e 4cd9 bdbd 9166 1dbe a139 09be
00000250: 28fc 303e e685 0c3e 63ad cc3d 9511 a23b
00000260: a270 d3bd 7413 39be 187c 003e 9a00 333e
00000270: b982 28bd 6c66 0d3d 5f6d ecbd 3b3d 6d3e
00000280: f68b 3ebe f4ba 053d acf1 fe3d ec0e 22bd
00000290: 6f76 a7bd 0740 ac3d 8d28 863d 406c efbd
000002a0: 936c 48be a0d5 0e3e 943d 79bd a170 b6bd
000002b0: 2043 d9bc f6fe e9bd e60e 9e3d 4811 2dbe
000002c0: 7c64 ea3d 3935 2d3e f51e a7bd 7df9 febd
000002d0: 4c5a f9bd 151d 133e 147e 96bb 27ba 683e
000002e0: 51ca b73d 7244 32be 34c7 51be 899c 89bd
000002f0: d960 83be 4879 1ebe e66f 92bd 72e4 593d
00000300: 4e0a 2dbe 7f66 1fbe a01b eabd c18c 7fbd
00000310: 9950 a1ba 50f0 803e 0734 7dbe cb53 af3c
00000320: ea2a c5bd 261f 9ebe f46e 83be b67f 0f3e
00000330: 3383 803d b6a0 15be 5abf 99bd fd80 963d
00000340: 44e0 2d3e 749e 573e dc8a 413e 74bd 303d
00000350: dc9a 3ebe 11d4 fb3b e4e5 4b3d 764b 2f3e
00000360: db19 ec3c 17b6 43be fff8 42bc a5ee 82bd
00000370: fa93 8dbd 992d 713b 8d5c b63d 8ea9 26bd
00000380: e674 03be f488 0dbe 45b9 123e 39dd 45be
00000390: 554f b83d ff22 cabc 003d 80be f525 403d
000003a0: ab5e 03be 5914 73be 6abc 9a3d ae7b 23bd
000003b0: e2f8 8fbd 4132 6dbe 4ae9 7f3e 3200 d3bd
000003c0: 01ea 223e 5579 7e3e 1c50 033e 3c8d 563e
000003d0: 83ad 8f3e 34f1 533e 5801 fabd 3c1b 64bd
000003e0: 8147 073e 0f99 40be 4651 61bc c698 6cbe
000003f0: 2f7e 33be 428e c6bd 5a41 0c3d ea30 6ebe
-0.14539808 0.217785 0.19161128 -0.01531494 0.18176249 0.12411291 0.1036989 0.15266702
-0.00768032 0.023322077 0.13918959 0.1129032 -0.19608638 0.22929448 0.21105847 0.017869346
-0.11946959 0.064050995 0.04273468 0.14380743 -0.05182626 0.028648172 -0.1963416 0.17606458
0.21990949 0.0129571315 0.06330466 -0.24676755 0.1649605 -0.016467357 0.051969178 0.15234026
0.0941318 -0.0875588 -0.028000278 -0.08849699 0.021644205 -0.0045877057 0.09384014 0.091761395
0.07996505 0.12922908 -0.016016427 -0.07396198 0.07701086 -0.15672638 -0.22022116 -0.12368738
-0.079824194 0.17855434 -0.194868 0.10577239 0.07173896 -0.01886136 0.2673831 0.14002849
-0.18768173 0.030789813 -0.0362641 -0.033134777 -0.12547584 -0.025087105 -0.2339353 0.2395248
0.06421446 -0.11774532 -0.23147975 0.12222328 0.12287285 0.16789283 -0.17602062 -0.2708147
-0.14231996 0.07749908 -0.081963636 0.13508056 -0.03283034 -0.11535933 0.061741706 -0.12507446
0.11252483 0.25616208 -0.09262288 0.17823698 0.019347701 -0.032950632 -0.18925323 0.20444293
-0.12348307 0.23001386 0.23844953 0.11210203 0.28616858 0.14446051 0.12120975 -0.204219
-0.013150981 0.011108699 -0.06540549 0.14234313 -0.13103293 -0.19176936 0.23941493 0.18262385
-0.1359418 -0.0010981391 -0.07371679 0.099527225 -0.06946058 -0.1937309 0.11512818 0.10686711
-0.09676575 0.2646964 -0.012357995 0.18901476 0.15995708 0.057330918 -0.15633062 -0.20676315
0.093982965 0.085071735 0.082382835 0.1163182 -0.0035413012 -0.21609366 -0.087150685 0.223386
-0.16347902 0.036847692 0.23641281 0.131178 0.22428845 0.17128201 -0.09886222 0.17272039
0.029787743 0.11782183 -0.025069213 -0.1561103 -0.18465823 0.19724111 -0.007761005 0.08905589
0.19756022 -0.09269962 -0.15371157 -0.1340089 0.1728369 0.13722953 0.099940084 0.0049459436
-0.103242174 -0.18073827 0.12547338 0.17480698 -0.04114029 0.034521505 -0.115442984 0.23167889
-0.18608078 0.032648996 0.12448439 -0.03956501 -0.08176886 0.0841065 0.06550703 -0.11690569
-0.19572668 0.13948679 -0.06084974 -0.08908201 -0.026521266 -0.11425583 0.077176854 -0.16901124
0.11444947 0.16914834 -0.081602015 -0.1244993 -0.12175426 0.14366563 -0.0045926664 0.22727261
0.08974136 -0.17408922 -0.20486146 -0.0671931 -0.25659826 -0.15475953 -0.07150249 0.053196378
-0.16898462 -0.15566443 -0.1143105 -0.062390093 -0.0012307345 0.25183344 -0.24726878 0.02140226
-0.09627326 -0.3088314 -0.25670588 0.14013562 0.06275024 -0.14612088 -0.075072005 0.07348821
0.16980082 0.21056539 0.18900627 0.043149427 -0.18613762 0.0076851924 0.049779788 0.1711863
0.028820923 -0.1911243 -0.011900186 -0.06393174 -0.0691299 0.003680086 0.089043714 -0.040689044
-0.12837562 -0.13821775 0.14328487 -0.19322671 0.089995064 -0.02467489 -0.2504654 0.0469112
-0.12829082 -0.23738231 0.075554684 -0.039912872 -0.070298925 -0.23163702 0.24991336 -0.10302772
0.15909578 0.24850972 0.12823528 0.20952314 0.28062066 0.2069748 -0.122072875 -0.055690035
0.1321087 -0.18808387 -0.013752287 -0.23105153 -0.17528604 -0.09695102 0.03424201 -0.23260847

actor_fc2.weight f4 [256, 256]
00000000: 3c79 5abd ed1c 39bd 15bb b73c c6fb 3f3d
00000010: 887f 1e3b cc3d 47bd 19ec c33c 9f6c bc3c
00000020: 0866 203d 167c 6f3b be89 0b39 a96e 75bd
00000030: dfee c9bc 8127 b23b 195f d63c 0a90 54bd
00000040: a95e 97bc 8b3c 343d 54d7 11bc fbf0 963d
00000050: 1035 1c3d f2ae b83c 70cf 6f3c 5140 41bd
00000060: b560 91bc 9808 053d 444d 8d3c a41b ce3c
00000070: 2d60 123d c18c 8c3d ffde 6abd b1a4 383d
00000080: a9f7 c83c d3e7 b2bd fe10 843c 7066 32ba
00000090: 3400 5bbd bd0c 86bb 72e3 2d3d a440 973c
000000a0: fc39 85ba 5542 c2bc b141 8bbd 2d6e 203d
000000b0: 470d 1dbd d783 4d3d 02b2 92bc c4c5 923d
000000c0: af56 d83b 3d45 783d ca89 1aba 662a 843d
000000d0: 09e5 c9bc 2c03 1abd 4f8b ef3c 5ce2 49bb
000000e0: ad2e e1bc eded 573d 5191 a2bd 41f3 293c
000000f0: f89a 323c 6190 4f3d 5ed0 01bd 6200 05bd
00000100: c9c8 5b3d 913e 813c ed4a b73c e862 31bd
00000110: 2fe0 463c 8fba 55bd 5d32 b03c ef43 c33b
00000120: b313 853c 333a edbc adb1 9b3d 91a1 e73c
00000130: cccf 0cbd ee24 95bd 84be cfbc 28b3 043d
00000140: bd04 8fbc fd87 b4bd 3a2b 29bd 53c8 99bc
00000150: 89ce 1bbc 110f 15bd 9d52 56bd f680 6cbd
00000160: 7a3e d23c 30f1 b3bc 55da f33c 146c 03bd
00000170: 47b0 ee39 25ce 94bc 1c55 243d 50da 31bc
00000180: 186c 8abd 8529 b53c 65ff 733d f45e 55bd
00000190: 5f40 f6bc e44e 3c3d 042f 32bd 5e60 1c3d
000001a0: 89ca a93d 34b5 553d f9f1 693c 61bf 86bd
000001b0: 5ccd 603c 72f2 c2bb 2e69 923d 5f69 773c
000001c0: 4549 3bbd 0b15 28bd 55f8 94bc b007 fbbc
000001d0: fdf5 813c 8254 c2bc 73b4 2b3d 43dd 9dbd
000001e0: a781 16bd d32f d53b 9cd2 8e3d dfa9 39bc
000001f0: d73c b3bc 5125 47bd b0c8 233d 1129 b2bb
00000200: 0859 da3c 9953 11bc dc00 873d 432f 8ebd
00000210: 8b10 b0bc c9f3 f23b 9556 debc b918 873d
00000220: 72dc 3b3d 6928 53bd 101f 8abd 3b66 86bd
00000230: 0c7f a83c c542 2b3d 238d 443d 2fe8 7dbd
00000240: db77 2fbc b38b 99bc 0d8e 853d 1b4d b8bc
00000250: a802 51bd 3633 853d cf91 d63c 3396 fd3c
00000260: cee0 17bd 5288 e5bc 1560 7d3b d0f9 bb3b
00000270: 5737 45bd 1c18 10bd d5e1 b4bc 24af 9cbc
00000280: 7ac0 533c 64f7 64bc b6a5 983d e30c 553d
00000290: 701b 523d a92b 1ebc 49da 3bbc 3d83 34bd
000002a0: 7270 81bd 8d65 29bc 2484 3a3d 319f bebc
000002b0: 1190 0a3c 736f 783d 50aa 41bb a5bf f13b
000002c0: a9a8 6abd 677d 17bd 23f0 c8bc 7546 bfbc
000002d0: 82ec 3fbd 38b0 2a3d cdc3 5bbd 2dc6 303d
000002e0: 47f3 55bd 8110 5bbd e805 853d 9250 363d
000002f0: 0b5d 673d 9b5c 78bd c7c3 7c3c a607 cb3c
00000300: 70f9 2fbd 6383 85bd 9aef f1bc 179c 393c
00000310: f173 3bbd d4fa d5bb db2a 6b3d 9ddd 0a3d
00000320: d219 da3c 9091 5dbd 9754 553d 9905 2fbc
00000330: 04c1 45bd b119 cb3c 2db5 313d ed7a f0bb
00000340: 8307 943d 1b32 883c 5a95 85bd 6122 24bd
00000350: 28f5 573d dc2d bc3b 9004 b83c 4ece 043d
00000360: 6c72 19bd 9f44 653d 970a 6dbd 4918 4f3d
00000370: 6e97 123d f751 343d ae26 d13c 1afd 533d
00000380: 949d 94bd 292f a5bb 56aa 6b3d 23a1 5c3d
00000390: a551 613c 6265 183d d81f 933c 6fc1 de3c
000003a0: 9bb0 933c c6cf 5dbd 3552 843d e18a c8bc
000003b0: 058b 743d 0a07 b63a 13a0 10bd 5896 fabb
000003c0: 7165 f23c 130d 433d 3799 cbbb 9085 5e3d
000003d0: 638b 4e3c 81f4 43bb ec0d 3eba ad47 903d
000003e0: b6c1 753b 97e4 e3bc c3f5 3abd a464 b0bb
000003f0: 3882 e13c 2c5c f9bc f290 88bc 66b4 4bbd
-0.053338274 -0.0451936 0.022428075 0.04687097 0.0024184901 -0.04864292 0.023916291 0.023001013
0.039159805 0.0036542467 0.00013307386 -0.059919987 -0.024650035 0.005436838 0.026168393 -0.05189518
-0.018477755 0.04400305 -0.008901436 0.07370182 0.03813654 0.022544358 0.014636859 -0.047180478
-0.017746309 0.0324789 0.017248757 0.025159664 0.03573625 0.06862784 -0.057341572 0.045078937
0.024532156 -0.08735623 0.016121384 -0.00068054255 -0.05346699 -0.004090874 0.042453237 0.01846344
-0.0010164375 -0.02371327 -0.06799639 0.03916757 -0.03834274 0.05017456 -0.017907146 0.07166627
0.0066021304 0.060612906 -0.0005895166 0.06453399 -0.024645345 -0.03760068 0.029241232 -0.0030805087
-0.027488077 0.052717138 -0.07937873 0.010372938 0.010901205 0.0506748 -0.031692855 -0.03247107
0.05365828 0.015776904 0.022374595 -0.043307215 0.0121384105 -0.05217987 0.02150839 0.005959026
0.016244745 -0.028958416 0.07602248 0.028275283 -0.034377858 -0.072824344 -0.0253594 0.03239742
-0.017458314 -0.08815 -0.04130099 -0.01877228 -0.009509691 -0.03639132 -0.05232488 -0.057740174
0.025664557 -0.021965593 0.029767195 -0.032085493 0.00045526234 -0.018164704 0.04012023 -0.010855272
-0.067588985 0.022114525 0.059569735 -0.052092507 -0.030059991 0.045973673 -0.04350187 0.03817784
0.08290584 0.052174762 0.014278882 -0.065794714 0.0137208365 -0.005949312 0.07148968 0.015100806
-0.045724172 -0.041035693 -0.01818482 -0.030643314 0.015864367 -0.023721937 0.041920137 -0.07708218
-0.03674474 0.006505945 0.06973764 -0.011332004 -0.021879597 -0.048619572 0.039986312 -0.0054370244
0.026653782 -0.008870029 0.06591961 -0.06942608 -0.021492263 0.0074143154 -0.027140895 0.06596512
0.04586453 -0.05155221 -0.06744206 -0.06562468 0.020568393 0.041811723 0.04798616 -0.061989006
-0.010709728 -0.018743372 0.06521235 -0.022497704 -0.051027924 0.06503908 0.026192574 0.03095541
-0.037079625 -0.028019104 0.0038662006 0.005736567 -0.04814848 -0.035179242 -0.022080341 -0.019126482
0.012924308 -0.013974998 0.07453482 0.052014243 0.051295698 -0.009653964 -0.011465617 -0.04407047
-0.06320275 -0.010339153 0.045536175 -0.023269268 0.0084572 0.06065316 -0.0029550977 0.007377582
-0.057289753 -0.036984827 -0.024528569 -0.023349026 -0.04685641 0.04167196 -0.053653527 0.043157745
-0.05223396 -0.053482536 0.06495267 0.04451043 0.056485217 -0.06063519 0.015427536 0.02478392
-0.04296249 -0.06519201 -0.029533196 0.011328719 -0.045764867 -0.006530145 0.057413917 0.033902753
0.02662364 -0.054093897 0.052082624 -0.010682487 -0.048279777 0.024792524 0.043385673 -0.0073388726
0.07227995 0.016625455 -0.06522627 -0.04007185 0.052724034 0.0057427716 0.022463113 0.03242331
-0.037462637 0.055973645 -0.057871427 0.05056027 0.035788946 0.04402348 0.02553114 0.05175505
-0.07256618 -0.0050410223 0.057535492 0.05386461 0.013752376 0.03720606 0.01795952 0.027191846
0.018028548 -0.054153226 0.06460992 -0.024480285 0.05970289 0.0013887596 -0.03530891 -0.007647317
0.029589387 0.04761989 -0.006213333 0.054326594 0.012606475 -0.0029900374 -0.00072499993 0.07044921
0.0037499494 -0.027818961 -0.045644533 -0.005383091 0.027527913 -0.030439459 -0.016670678 -0.04973259

actor_fc2.bias f4 [256]
00000000: 2aa9 73bb 6909 803d 814f 13bd 4db7 1e3d
00000010: 450f 2fbc 1e55 96bd 803b 5cbd 1d47 b6bb
00000020: 7d09 673d b919 ce3b ee22 353d 93c7 3e3d
00000030: df6f dfbc d0b3 8b3a deb7 a33c dda0 333c
00000040: ff67 90bb 99a9 103d 97d9 243d fb1b 03bd
00000050: 4f81 8f3c 91fc 3b3d b52e 92bb b94a 8fbd
00000060: 7e0d 49bd dc64 1d3d f484 5a3d e5c9 99b9
00000070: eda9 ffbb 616e cbbc 6989 5abd 243a e8bc
00000080: 9f58 033d 54ad dabb e2fe 193c f3bf 333d
00000090: 3f72 6e3d cfec 22bb 2064 533d a8cd f5bc
000000a0: 4bff 1dbd ec1d a83c ed36 34bd fcca 67bd
000000b0: ce73 943c 80b2 d13c 11a1 61bd 8723 4dbb
000000c0: 5abf 143d 7889 f43c 79cd 88bc c8ad 9eba
000000d0: 8f4b 1b3d fadb 353d 9d95 cf3c 2f82 523d
000000e0: c183 d83c eee0 61bd afcd 45bd a3c7 24bd
000000f0: 3134 9d3c 28e2 8abd 561d ccbc 1e5f f3bc
00000100: d983 23bb ff85 82bd 8e82 8eb9 88ed c2bc
00000110: beba 453d c433 f8bc 7208 d4bb 2968 29bc
00000120: 7d87 58bd 6924 17bd 52f0 02bd ad77 f43b
00000130: 9710 5d3d 1e37 553d 06fb 8dbc d078 1d3d
00000140: ce4d 093c bc7b f9bc 5c4b 863c 8abe 183d
00000150: 6b14 513d 858f eb3c 6c02 fb3a c421 353d
00000160: b9ef 6c3d f76b 6abd db7e 43bd 1881 6d3d
00000170: 6195 773c e864 c13c 3484 09bd 406f 2c3d
00000180: 0945 463d 1474 c03c 7d5c 85bd 6ffc 023d
00000190: df00 c33c 5965 fd3c 2c4f a4bb 2c51 17bb
000001a0: 5573 0abd 1959 1b3d fd57 7b3c d7b0 62bd
000001b0: 0a19 1cbc bb75 7fbd e310 dd3c e721 4dbb
000001c0: 4918 12bd 7b02 4a3d c526 fdbc b156 d43c
000001d0: 61a3 03bd 487c 923c 5c0c 8c3c 40dd 413d
000001e0: a015 143c c507 5e3d 2f8e 613d 1416 a53c
000001f0: afd8 273d bd84 cd3b 15e7 0fbc b64f 8ebd
00000200: 7200 7fbd 8e6c 0f3d 895f 273d 38b4 cabb
00000210: aa7d f8bb 3df5 a739 d3af 76bd 58b5 4c3d
00000220: 0aad 1b3b 6bc4 65bd 32d3 4abd 5061 b1bc
00000230: 476b 36bd 6826 3fbd acbf 6dbd 1d20 813c
00000240: ecb7 85bc 5f18 273d 217c 31bc 518c 79bd
00000250: 7307 21bd 918e 433d 99d5 413d 3166 853d
00000260: 297a 053d ad1a 73bc a38a 5f3b a56a 58bc
00000270: d203 51bd 881e cfbc 1607 4dbd 946e 703c
00000280: 086b 8c3c 85d6 263d 3287 d13b d160 58bd
00000290: 0cd1 3dbc 6bf9 24bc 7680 10bc b2cc b33b
000002a0: d2a3 cc3c 72bf c6bc ae18 8cbd 06d9 363d
000002b0: 95f5 acbc f500 fd3c bab6 923c 3bae 893d
000002c0: a87f b9bc a693 aabc 1962 f2bc aeb8 153c
000002d0: a7b9 afb8 cb9a 7fbd ae7f e4bc 7507 ac3c
000002e0: 368a babc 1e4e 4a3d 5c90 603d 2d17 ea3c
000002f0: dce2 903d a93f 15bd ca83 5cbd 6368 62bc
00000300: f1eb 9fbb dc85 48bd cb91 f4bc 2b56 d6bc
00000310: 365e 47bd 7830 bf3c d0c6 083b a4c5 23bd
00000320: 4ec8 a93b 9d6b fd3c 85b7 2abd 1624 3b3c
00000330: e653 69bc 5469 50bd d2bf 113d 6755 933c
00000340: f94e 3a3d f563 5ebc b83c 7b3d c58e 8d3b
00000350: eba9 35bd 3a0b 533c 0487 5b3d 3709 213d
00000360: e72a ad3c 088f e23c b7bd 0a3d 1a16 423c
00000370: 2584 103c 4f3e 37bd 2610 843c 3ab4 58bd
00000380: 1b28 c93c 5f01 28bd 01a1 c93c ab91 1bbd
00000390: 3224 05bd d036 26bd baf8 3d3c 900f ff3a
000003a0: e8f9 49bd 0022 a8bc 2833 a33b b281 703d
000003b0: 03f8 a5bc a6f9 60bd cf22 913d 5c10 a33c
000003c0: 2352 a83b 5b16 06bd 8e81 f03c 9d93 893d
000003d0: c310 ec3c 8e9d f3bc 5c59 48bd dcca 0d3d
000003e0: 53b7 b03c b22c f03c 96ee 813d 1bd5 a73c
000003f0: 07f7 efbb a02e 6a3c dfc0 d6bc 77dc 24bd
-0.0037179687 0.06251795 -0.035964493 0.038749028 -0.010684793 -0.073404536 -0.05376768 -0.0055626766
0.056405533 0.0062896875 0.044222765 0.046577048 -0.027275024 0.0010658447 0.019985136 0.010963646
-0.0044069286 0.03531799 0.040246572 -0.032009106 0.017517714 0.045895163 -0.0044611343 -0.06996674
-0.049085133 0.038426265 0.05334945 -0.00029332857 -0.007802239 -0.024832906 -0.0533537 -0.028348036
0.032066938 -0.0066734944 0.009399148 0.04388423 0.058214422 -0.0024860387 0.05160916 -0.030005291
-0.038573544 0.02052208 -0.043997694 -0.056590065 0.018121626 0.02559781 -0.055085246 -0.0031301694
0.0363153 0.029850706 -0.01669954 -0.0012106234 0.037913855 0.04439924 0.025339896 0.051393684
0.026430013 -0.05514615 -0.04829186 -0.04022945 0.019189926 -0.06781417 -0.024916332 -0.029708441
-0.0024950413 -0.06373214 -0.0002718162 -0.023794904 0.048273794 -0.030298121 -0.0064707333 -0.010339775
-0.052863587 -0.036899958 -0.03196747 0.0074605555 0.0539709 0.052054517 -0.017331611 0.038445294
0.0083803665 -0.030454509 0.016393356 0.037291087 0.051044863 0.028754959 0.0019150502 0.044221655
0.057845805 -0.05723187 -0.0477284 0.05798444 0.015111298 0.023607686 -0.033573344 0.042098284
0.04840568 0.02349285 -0.06511781 0.03197902 0.023804126 0.030932115 -0.005014321 -0.0023089154
-0.033801395 0.037926767 0.015340802 -0.05534443 -0.009527454 -0.062368136 0.026985591 -0.0031300725
-0.03566769 0.04931877 -0.030902276 0.025920244 -0.032138232 0.017881528 0.017095737 0.04733014
0.009038359 0.05420663 0.055067237 0.02015213 0.04097813 0.006271927 -0.008783122 -0.069487974
-0.062256284 0.035015635 0.040862594 -0.0061860345 -0.0075833397 0.0003203544 -0.060226273 0.04997763
0.0023754262 -0.056095522 -0.049517818 -0.021652848 -0.0445359 -0.046667486 -0.05804412 0.015762383
-0.016323052 0.040794726 -0.010832817 -0.06092483 -0.039313745 0.047743384 0.047322843 0.06513632
0.032587204 -0.014837903 0.0034109734 -0.01320902 -0.051029034 -0.025283113 -0.050055586 0.014674801
0.01714088 0.040731926 0.0063942904 -0.052826706 -0.011585485 -0.0100692315 -0.00881969 0.005487048
0.02498046 -0.02426121 -0.06840645 0.044640563 -0.021113196 0.030884245 0.017909396 0.06722685
-0.022643879 -0.020822357 -0.029587792 0.009138269 -8.379231e-05 -0.06240348 -0.027892914 0.02099965
-0.022770982 0.049390905 0.05482517 0.028575504 0.0707452 -0.036437664 -0.05383662 -0.013818833
-0.0048804213 -0.048955783 -0.029854676 -0.026164135 -0.04867383 0.023338541 0.0020870455 -0.039983407
0.005181349 0.030935103 -0.041678924 0.011422178 -0.014241194 -0.0508817 0.035583325 0.017985059
0.04548547 -0.013573636 0.061337203 0.004319998 -0.0443515 0.012881095 0.053595558 0.03931543
0.021138621 0.027656093 0.033872332 0.01184609 0.008820568 -0.044737156 0.016120981 -0.052906252
0.024555257 -0.041016933 0.024612905 -0.037980717 -0.03250522 -0.040579617 0.011594946 0.0019459594
-0.049310595 -0.020524025 0.0049804635 0.058717437 -0.020259863 -0.054925583 0.07086717 0.019905262
0.0051367446 -0.032736164 0.029358651 0.06717608 0.028816586 -0.029738214 -0.048913345 0.03461729
0.02157179 0.029318187 0.06344335 0.020487359 -0.007323149 0.014293343 -0.026215015 -0.040249314

actor_fc3.weight f4 [128, 256]
00000000: 268b 25bc abbc 523d 3efb d83c cb04 9c3c
00000010: a8d1 38bd 23b8 c13c 0b23 893c f9a2 003d
00000020: d3a3 74bd 8e7a 28bd 8ce1 fcbc b518 ce3c
00000030: 73f2 21bd b1a5 8cbb cb6d 29bc a424 f6b9
00000040: 1cbf 263d 68f2 9abd b718 46bb 5819 42bd
00000050: 89ec 1f3d 3a1e 47bb 4c99 69bd ee73 16bc
00000060: 5e0d c8bc 90e9 8a3c 93b9 20bd 5476 67ba
00000070: 7997 f9bc 0f98 aebd ca21 b8bc 5ed6 8dbc
00000080: da9b 85bc 2168 0b3d 49fe 38bd b134 30bd
00000090: 09d9 493d 0db2 8a3c aba6 363c cb16 c8bc
000000a0: a3ef 66bb 6f1f 723d bb9a 58bd 53a3 003d
000000b0: d99e 113d 485c 443d 1892 28bd c8fa 6c3c
000000c0: 5174 a4bc 4d69 883d eb95 2d3d e796 80bc
000000d0: 9122 683d 384b febc f440 24bd f1bf 803b
000000e0: 13f3 073d f708 bebc c10e 923c b3b1 2c3c
000000f0: 8b50 1e3d 61d1 11bd b78d 00bb 2216 4bba
00000100: 6a26 37bd d8fa 693d de15 fabd 399b d43d
00000110: 02bd a33d bae0 693d c9b1 e9bc 3883 cdbc
00000120: c9e6 473c 2673 933c d846 803d bf87 2a3d
00000130: 9b0f 72bd 4828 aebc bdd9 02bd 59c8 503d
00000140: 7f17 7abc 9409 143d 309f 88bd edc7 513d
00000150: afa7 1fbd c988 7d3d 7fb8 3c3d 0694 cdbb
00000160: 9670 56bc cd2c 493d 0fc1 5f3d ea6d 853c
00000170: 32d1 e4bc cbc7 82bd e9d3 cc3c facd b1bc
00000180: 395e e9bc 61a0 a93c 06d6 28bd f6d8 dbbc
00000190: 1ed9 4e3d 18a4 bf3c 28aa cdbd 443c 273d
000001a0: d053 083d 6315 183b fbdc d33c 5854 913d
000001b0: ad51 5abd c670 2a3c dd10 6cbc f69c e33d
000001c0: de71 05bd 18ef bb3d 01c7 163d cbb9 733b
000001d0: a111 1cbd 4ced 543d 6031 4d3d c6d2 573b
000001e0: 7b70 7e3d eea1 4cbd 4eba 84bc 3e7a 1e3c
000001f0: 041d 9a3c 9bfc 743d 7a1e b7bc ce12 733c
00000200: 7d28 863c 502a 8fbc ae94 a2bd 86eb 4abb
00000210: 2c70 e93c a632 b3bc 7c8d 5ebd a24d 1f3d
00000220: 3c95 3cbd ed77 cabc d681 f7bb c59b 8fbd
00000230: d46d af3c 7f55 2abd a0e3 e2bc f519 57bc
00000240: 432b d03c e03e 973d ceca 9f3b f4f7 c139
00000250: 46b0 24bd 819e ca3c 2809 ccbb e1ba 413c
00000260: 4934 083d 6dba d33c f72e 073d db18 ae3c
00000270: 7f4e 403c 5a51 fe3b e883 d8bc 8ade 383d
00000280: 6af7 c73d 99b1 b8bc 3e29 81b9 d7a2 62bd
00000290: 963f c03c 612e 2abc 4b59 88bb ed55 2f3b
000002a0: c1f3 21bc e5c1 3fbd 3bb4 083d 66cb e7bb
000002b0: 5f25 f5bc df3b 0f3d c718 453d 9bb4 65bc
000002c0: 846f 35bd 0b79 3f3d ec7d 5b3d d161 bf3c
000002d0: d7d3 383c 3b2d 073c 1a0a bebc 89bc 1e3d
000002e0: e0c4 3b3c 0338 a93b fb25 bdbb 0870 81bd
000002f0: a5d9 593d 6038 e23c a3a9 493d f99b 6cbd
00000300: d7c9 ef3c 4199 0e3d 4da3 d53d 0357 40bd
00000310: 383b 343d 0f3b d83b 6a14 d4bc 6319 943d
00000320: dac9 ef3a b8b7 73bd 8ef0 fa3b 80a1 94bc
00000330: 669a 67bc cc76 adbc 3c4a 4e3d 083a 533d
00000340: 12d4 1e3d c79d 97bc 47c5 2f3d 0743 3e3d
00000350: eb99 39bd 7952 a7bc 5740 3abd a93f 9fbb
00000360: 2488 92bc 367e a63c 804d a6bd 318d 19bd
00000370: 8ea4 5fbd 61f6 02bd 058a d3ba 3b74 b0bc
00000380: b5d4 313d 74da 51bc a6c8 053d 7a6d 643d
00000390: db30 0f3d 4352 633d 9374 833b 3bfd 6fba
000003a0: 9f9c 0cbd 5d1c ef3c 403b 3e3d e156 3f3d
000003b0: 0fed 303d 5db1 da3b a9ce 20bb 5aaf d03c
000003c0: e427 743c 1357 443d bc5b 5d3d 0b19 e53c
000003d0: e403 053d 6a12 3abd 0865 053c 7c9d c63c
000003e0: bc84 45bc b59f 0bbd 0ed0 7cbb a149 403d
000003f0: 21f1 34bd 7d03 47bd cadd 353d 11d6 913d
-0.010103976 0.05144946 0.02648699 0.019045254 -0.04512182 0.023647374 0.016740343 0.031405423
-0.059726547 -0.041132502 -0.030869268 0.025158266 -0.03953786 -0.004292213 -0.010341118 -0.00046948076
0.0407096 -0.075657666 -0.0030227134 -0.04738745 0.039043937 -0.0030383007 -0.05703096 -0.009182913
-0.024420436 0.016957074 -0.039239477 -0.0008829583 -0.030467736 -0.085250966 -0.02247705 -0.017314132
-0.016309667 0.034034852 -0.04516438 -0.043019 0.049279246 0.016930604 0.011148135 -0.024424931
-0.003523805 0.05911201 -0.052881937 0.031405758 0.03555188 0.04793957 -0.04115495 0.014464088
-0.020074995 0.066607095 0.0423793 -0.015696956 0.05667359 -0.031041726 -0.040101007 0.003929131
0.033190798 -0.023197634 0.0178293 0.010540414 0.03865103 -0.03560007 -0.0019615719 -0.00077471335
-0.04471437 0.05712399 -0.12211202 0.10381169 0.07995035 0.05709908 -0.028527157 -0.025086984
0.01220102 0.017999243 0.062635124 0.041633364 -0.059096914 -0.021259442 -0.031945933 0.050972316
-0.015264391 0.036141947 -0.066709876 0.051216055 -0.038978275 0.061898027 0.046074387 -0.0062737493
-0.013088366 0.04911499 0.054627474 0.016287763 -0.027931783 -0.06385764 0.02500339 -0.021704663
-0.028487312 0.020706357 -0.041219734 -0.026836853 0.050500028 0.023393676 -0.1004222 0.04082896
0.033283055 0.0023206107 0.025862208 0.070961654 -0.05330055 0.010402864 -0.014408317 0.11113922
-0.032579295 0.09176463 0.03681088 0.0037189599 -0.03810275 0.051984116 0.050095916 0.0032932027
0.06211899 -0.049959116 -0.016202118 0.0096726995 0.018812664 0.059811216 -0.0223534 0.014836026
0.016376728 -0.01747623 -0.07938515 -0.0030963137 0.02849587 -0.021874737 -0.05433415 0.038892396
-0.04604076 -0.024715388 -0.0075533194 -0.070121326 0.021414675 -0.04158544 -0.02769643 -0.013128747
0.025411254 0.07385039 0.004876471 0.00036996568 -0.04020717 0.024733784 -0.0062266774 0.011824341
0.033252988 0.02584573 0.033003774 0.021252086 0.011737465 0.0077611627 -0.026430085 0.045134105
0.09763987 -0.022545623 -0.00024635525 -0.055331077 0.02346782 -0.010387034 -0.004161035 0.0026754097
-0.009884776 -0.04681577 0.033375006 -0.0070738075 -0.029925046 0.034969207 0.048119333 -0.0140201105
-0.044295803 0.046746295 0.053586885 0.023362072 0.011280975 0.00825053 -0.023198176 0.03875402
0.011460513 0.005164148 -0.00577235 -0.063201964 0.053186078 0.027614772 0.049234044 -0.057765935
0.02927105 0.034814123 0.10431538 -0.04695798 0.044001788 0.006598837 -0.02588864 0.07231405
0.0018294409 -0.05950138 0.007658071 -0.018143415 -0.014135933 -0.02117481 0.050363764 0.051569015
0.038776465 -0.018507851 0.042912748 0.04645064 -0.045312803 -0.020425068 -0.045471516 -0.004859884
-0.017887183 0.020323854 -0.08120251 -0.037488166 -0.05460029 -0.031973246 -0.0016139155 -0.021539798
0.043415744 -0.012808431 0.032662056 0.055768467 0.0349587 0.055498373 0.0040116995 -0.0009154861
-0.034329053 0.02918833 0.046443224 0.046713714 0.043194827 0.0066739754 -0.0024537242 0.02547424
0.014902089 0.047934603 0.054042563 0.027966043 0.032474414 -0.045427717 0.0081417635 0.024245016
-0.012055572 -0.034087855 -0.0038576159 0.046945218 -0.04417527 -0.04858731 0.044400968 0.07120908

actor_fc3.bias f4 [128]
00000000: c6c7 91bd 6cfa 993d 8e8e b13c bb87 dc3c
00000010: d371 80bc f980 363d b80d 913d a6db ffbb
00000020: f6f9 043d 601b 87bd 0dcf 5fba b072 343d
00000030: 0678 f8bc 2051 6abc 858e 5dbd c759 97bd
00000040: ffd4 0abd dba9 7abd dcf5 4a3d 28c3 943b
00000050: 697a 343c 031f bdba 5df5 7cbd 3f4f 1abd
00000060: ce1d d3bc 1650 31bd ab12 40bc 76ef 543d
00000070: 823a 4dbd 911e 033c e31f a43c 6b4b e2bc
00000080: 083c 35bd 5573 293c 3930 d1bb f92e 8c3d
00000090: 333e 2b3c dd11 d23c 38d8 10bd 8afa 333c
000000a0: f7d8 13bd d758 78bd a894 27bd 5218 863d
000000b0: 4c03 883d 166d 01bd 11e9 9cbd de28 3cbd
000000c0: 74d4 99bd 51ee 153d c7fb 673d 3494 32bd
000000d0: 1025 6e3d 41c9 153d 1655 dd3c 9f31 3a3d
000000e0: 69be c63c 0097 2dbd cb7b 05bd bc1d 913d
000000f0: 44dc 21bd 00e0 2bbd 0c95 b9bc c1b5 6abd
00000100: de24 8a3d 190d 44bd 501e 193d 161e 64bd
00000110: 3238 debc 5fee 2ebd 2148 7fbd 5a32 c63c
00000120: 39b3 30bd 58d0 58bd 2e04 7e3d f037 183c
00000130: 80a0 d2bc fb1c 653d 3bd9 d0bc 72a0 59bd
00000140: 60ef 763d 4b20 c63c 70a2 86bd 3409 db3c
00000150: ec7f e83b 2e7d 913c cf72 153d 5861 30bd
00000160: 0fb3 6dbd 3486 a03d 58ec b3bb d4db 543c
00000170: 587f 473d cf32 37bd bd49 63bd 79ce 1c3d
00000180: dd4b 19bd efa8 763c 2bab 2fbd 3bd0 19bd
00000190: f2d2 3fbd 8ad8 8e3b 0b85 d23c f59a 64bc
000001a0: 292e f7bc f264 28bd b4d4 d0bc 2aaa 9b3d
000001b0: c1b8 3cbd 87e6 97bd 91e8 74bd c8ce 7aba
000001c0: 76b1 da3b 84ac 38bd a37b f93c 052e 133d
000001d0: 686f 0cbd 4ac2 24bd 9a29 91bd 5cae 1ebd
000001e0: d5ee 523d 0592 003d 967f 603c 114b 443c
000001f0: 2c41 7cbd 0feb 053d 0569 02bc 374b b0bc
-0.07118182 0.07518467 0.02167442 0.02692019 -0.015679276 0.04455659 0.07082695 -0.0078081666
0.032464944 -0.06597018 -0.0008537628 0.044054687 -0.03033067 -0.014301568 -0.054090995 -0.073901705
-0.033894535 -0.061197143 0.049550876 0.004539866 0.011015513 -0.0014428798 -0.061757434 -0.03767323
-0.025771048 -0.043289267 -0.011723201 0.05198618 -0.050104626 0.008002893 0.020034736 -0.027623853
-0.044246703 0.010342439 -0.0063839224 0.06844897 0.010451841 0.025643284 -0.035362452 0.010985026
-0.036095586 -0.0606316 -0.040913254 0.065476075 0.06641254 -0.031598173 -0.076616414 -0.04593741
-0.07511225 0.03660423 0.056636598 -0.04359837 0.058140814 0.036568884 0.027018111 0.04545748
0.024260717 -0.042380333 -0.03258876 0.070857495 -0.039516702 -0.04196167 -0.022654079 -0.05730224
0.06745313 -0.047864053 0.037382424 -0.055692755 -0.027126405 -0.042707797 -0.062324647 0.024193931
-0.04313967 -0.052933067 0.062015705 0.00929068 -0.025711298 0.05593584 -0.025494209 -0.05313153
0.06028688 0.02418532 -0.06573951 0.026737787 0.0070953276 0.017759886 0.036486443 -0.043061584
-0.05803209 0.07838097 -0.005490821 0.012991864 0.04870543 -0.04472619 -0.055490244 0.038282845
-0.037425864 0.015054925 -0.042887848 -0.0375521 -0.046832033 0.0043593096 0.025698205 -0.01395296
-0.030173378 -0.041111894 -0.02549205 0.076008156 -0.046074633 -0.074170165 -0.059792105 -0.0009567556
0.006673987 -0.0450864 0.030454462 0.03593256 -0.034285933 -0.04022435 -0.07088013 -0.0387405
0.0514973 0.031389255 0.013702294 0.011980788 -0.06158559 0.032694872 -0.007959609 -0.02152024

actor_mu.weight f4 [4, 128]
00000000: f89d ee3c 3339 78bc c5c9 183d c145 083d
00000010: c9da dd3c 36b2 f4bc 5324 0fbd b6d8 b6bc
00000020: 7f11 bb3b d64a e53c 2812 debc 1415 c83c
00000030: 76b1 da3c e819 fabb 575b b13c b23a 183d
00000040: a770 68bc c92b 063d 949a ab3b 0c3f dbbc
00000050: 0b35 f13c efdd 3abd 0157 0d3d 6ddc 023c
00000060: 590c 43bb a3db a6bc af49 d63b a997 febb
00000070: 0df6 5b3b bddf 0ebc 96b8 833b f345 f3bb
00000080: 60be 7ebb f25e 1a3b 89f5 68ba e81b f63c
00000090: 0806 223d 90a0 16bd 2050 69bc df7b 11bc
000000a0: 917f 8b3c 8214 683c 6f64 333b 7be7 8d3a
000000b0: 7177 023d ea46 fbbc 9fcf 203d bdde ac3b
000000c0: 1698 be3c 3595 323d 693e 00bc 1640 08bd
000000d0: f471 e43c edbc aabb 4270 633c 3094 aebc
000000e0: 57b1 04bd f870 d9bc 53a6 1abb ec43 35bd
000000f0: 2918 1dbb 53be 84bc 141d 04bd bb40 373c
00000100: 7bb6 ff3b 0cb0 fb3b b8b7 eeba 15f7 983a
00000110: 77ef e7bb c50d 213d 321a 113d bd5a ae3c
00000120: 6d26 5a3c 31bd 6cbc 5521 5a3c 32c4 f6bc
00000130: cd0c 903b 9084 dbbb 2b68 37bb c67c ffbb
00000140: fdce 01bd a982 093b 478e ff3c 9bb0 50bc
00000150: ae01 eb3c a87b 25bd 7ab5 c8bb 8593 853c
00000160: abaa 02bc 8de7 a7bc d4d4 453d 0000 a5bc
00000170: 1b6b eabc f7d0 b93c 614f 0bbc cf1f 9a3a
00000180: 8134 24bc 8848 0abc b30c ca3c ed59 513d
00000190: 4743 0f3d 48e0 b93b 0590 093c 43e9 23bd
000001a0: e397 9dbc c8a0 b73c 8130 2d3d 908f 65bc
000001b0: d403 5abb a0f4 473d 46e9 e1bb 0969 803c
000001c0: b247 bcbb 1212 9e3c f3d3 323c 5ea6 ce3c
000001d0: e117 43bd d493 3f3c 9e3c a53c facd ec3b
000001e0: 739a d63c 870f f03b 5c79 743c e6ec a6bc
000001f0: a0a7 10bd b5d7 72bc 0743 84bc e316 39b8
00000200: 442a 073d 02ec fbba 1627 753c 94be c83b
00000210: 5366 183d 1f3d 03bd 88a6 01bc d9a5 c03b
00000220: 93f5 9bbc 232a 0dbc 1b0d b6bb 8d67 8f3c
00000230: 0ca3 6a3c 4a10 c53c 49b4 593c 0bcd 4abb
00000240: b723 a0bc 610b ff3c 328f 073b 7eee 08bd
00000250: 567d f23c 70c5 f2ba 8109 c73b ae89 69bc
00000260: b233 debb 6792 043c beb9 a5bc 6dbc 64bc
00000270: 04b6 06bc 7b9d a83c 1cbc a4bc 6a84 243c
00000280: f622 d739 e5a8 82bc bcc3 57bc 81e6 2c3d
00000290: 8bd0 f53a ee1e 15bc 6ac7 a93b 743d a53c
000002a0: a488 debb fabf c939 9fc2 01bc b212 a8bc
000002b0: e15d 283c eda4 a4bc fbe4 0cba ac47 a5bc
000002c0: d3e3 e13a 6607 da3b c56e a13c 5118 66ba
000002d0: 50d7 0c3d 8d04 c23c dd6c acbb 7192 b6bc
000002e0: d271 38bc 76a6 8ebb f3a1 333b 8026 4cbb
000002f0: 9cdd 2abc 19e8 c23c d44f f8bc 3b02 6a3b
00000300: 6619 84bc 4b17 56bc 13c0 333d 3d1a 863c
00000310: 9c1e b03c c76f 0f3c 5b92 0c3b f75f 353d
00000320: e07c aebc b829 08bd 69c4 acbc c8fe 253b
00000330: 123e 3e3c 7c05 11bd 9e8c 813c 5c39 d03c
00000340: 3e24 f6bc 8bf8 a6bc b457 2f3c b83d 953c
00000350: 77b1 bf3c 550a c4bb 4d84 a03c 67f1 1c3d
00000360: 9e59 bb3c 46f2 d6bb 26cb 8c3b f0ad 83bc
00000370: fedd eb39 f6ce 2b3c f9f2 8b3c 15fd 47bc
00000380: 3bc8 92bc c287 c03c eeec d33c 4f5e 8e3b
00000390: 4541 263c 9e34 c9bc 1de7 aebc 0ac6 d93a
000003a0: 9a5d e03b 5360 d93c d9db 733b 080f bf3b
000003b0: 243b 893c e72a 053c 78b9 893c 818b 86bc
000003c0: 006b 9c3c 0a6c 29bc 432d a4bc e04a 1c3d
000003d0: a71a 25bc 97a8 7cbc 8262 3c3c d1e4 a9bc
000003e0: 9ce9 183d c43d bbbc bfa0 f13b 03e6 d9bc
000003f0: f656 a4bc 1353 973c 9069 7e3c 863b b93c
0.02912806 -0.015150356 0.037301797 0.033269648 0.027081864 -0.029870134 -0.03494675 -0.022320133
0.005708873 0.027989786 -0.027108267 0.024424113 0.026695948 -0.007632483 0.02165 0.03716535
-0.014187015 0.0327566 0.005236933 -0.026763462 0.029444238 -0.04562181 0.0345068 0.007987124
-0.0029761998 -0.020368403 0.0065395455 -0.007769544 0.0033563406 -0.008720336 0.004019807 -0.00742411
-0.0038870797 0.0023555127 -0.0008886685 0.030042604 0.039556533 -0.036774218 -0.014240295 -0.008879631
0.017028602 0.014165046 0.0027373096 0.0010826433 0.03185219 -0.030673463 0.039260503 0.005275576
0.02326588 0.043599326 -0.00782738 -0.033264242 0.027886368 -0.00521051 0.013881745 -0.021310896
-0.032395687 -0.026543126 -0.0023597672 -0.04425423 -0.00239707 -0.016204035 -0.032254294 0.011184867
0.007803736 0.0076808985 -0.0018212711 0.0011670316 -0.007078107 0.039319772 0.035425372 0.021283502
0.0133148255 -0.014449404 0.013313611 -0.03012285 0.004396057 -0.0066991523 -0.0027985673 -0.0077968566
-0.03169154 0.002098242 0.031195773 -0.0127374185 0.028687324 -0.04040113 -0.0061251493 0.016305694
-0.007975261 -0.020496154 0.04829867 -0.020141602 -0.028615525 0.02268265 -0.008502812 0.0011758747
-0.0100222835 -0.008440144 0.024664259 0.05111115 0.03497627 0.0056724884 0.008396153 -0.040017378
-0.019237464 0.022415534 0.042282585 -0.014011279 -0.0033266442 0.048817277 -0.0068942634 0.015675085
-0.0057458514 0.019295726 0.01091479 0.025225814 -0.047630195 0.01169296 0.020170506 0.0072267028
0.026196694 0.0073260698 0.014921512 -0.020376634 -0.03531611 -0.014821936 -0.016145242 -4.4128752e-05
0.032999292 -0.0019220116 0.014962932 0.0061262343 0.03720696 -0.03204071 -0.007913239 0.0058791456
-0.019037997 -0.008616003 -0.0055557615 0.017505432 0.0143211 0.024055619 0.013287612 -0.003094497
-0.01954828 0.031133356 0.0020684716 -0.03343057 0.02960078 -0.0018521976 0.006074131 -0.014254017
-0.006781065 0.008091546 -0.02023017 -0.01396094 -0.008222107 0.020582905 -0.020109229 0.010041336
0.00041034044 -0.015949676 -0.013169225 0.042212013 0.0018754167 -0.0091016125 0.0051812427 0.020170905
-0.006791191 0.0003848074 -0.007919936 -0.020516727 0.010276289 -0.020098174 -0.0005374697 -0.020175777
0.0017234035 0.006653714 0.01970614 -0.0008777427 0.034385026 0.02368381 -0.005262001 -0.022286626
-0.011257606 -0.00435334 0.0027409762 -0.0031150877 -0.010428812 0.023792313 -0.030311503 0.0035706896
-0.016125392 -0.013067077 0.043884348 0.016369933 0.02149897 0.008754677 0.002144954 0.044280972
-0.02129978 -0.03324291 -0.02108975 0.0025328863 0.011611478 -0.03540562 0.015814122 0.025417976
-0.030046578 -0.020382186 0.010702062 0.018217906 0.023400052 -0.005982677 0.019594336 0.038316157
0.022869881 -0.006559643 0.004296678 -0.01607415 0.0004498809 0.010486355 0.017083632 -0.012206336
-0.017917743 0.023502234 0.025869813 0.0043447386 0.010147397 -0.024561223 -0.021350438 0.0016614806
0.0068470957 0.026535189 0.0037209897 0.0058306493 0.016751833 0.0081279045 0.016812071 -0.016423943
0.01909399 -0.0103407 -0.020041114 0.038157344 -0.010077155 -0.015421054 0.0114980955 -0.020738991
0.037332162 -0.0228566 0.0073738988 -0.026598936 -0.020060997 0.01847223 0.015528098 0.02261139

actor_mu.bias f4 [4]
00000000: 3dfb e83b 62b7 673d 5688 d9bc f4f8 37bd
0.007110028 0.05657137 -0.026554268 -0.044915155

actor_sigma.weight f4 [4, 128]
00000000: a4fd 0d3d 42fc 153d 5a71 47bd 58fc dd3c
00000010: f459 a4bd 4155 1bbd 00bf f1b9 c0b7 d2bb
00000020: b646 15bd 0083 80b9 6caf ab3c c1b3 38bd
00000030: 074f 8b3d 5b60 963d 7c97 afbc c6d8 163d
00000040: 5abd 54bd 781b 583c 128d 91bd 9e7b 7c3d
00000050: 3441 a9bc 314d 14bd 587a 3cbc cc06 9d3c
00000060: 0039 d33b 0071 fc3c 5ccd bc3c faa3 573d
00000070: 8db1 b23d 6972 a23d a056 bb3c 0296 193d
00000080: 1c13 2bbd 1b13 a9bd 5669 98bd 425a 02bd
00000090: 1d15 8f3d c05e 85bb 2856 41bc 061a f6bc
000000a0: e3cb a73d d02e ecbb 3303 903d 00a5 d339
000000b0: 621c 91bd 80ac b3bb 22ab 3bbd b84e a1bd
000000c0: e160 b1bd 5899 1dbc 4876 56bc 00cf e73c
000000d0: d2f3 86bd b36c ae3d 901f fe3c 23d1 963d
000000e0: 7014 2a3c d8ca 9abc b03a 203c 1fe6 82bd
000000f0: 48da d0bc 316a 823d 302a e33c 70c8 f33b
00000100: 5f5a 8fbd f4eb 90bc 7839 e93c 1a70 89bd
00000110: 7600 5a3d e0d9 52bc 80b3 1abb 869b 3a3d
00000120: 6c42 013d d085 47bd ba4d 5fbd 9353 963d
00000130: 6728 8bbd 81f1 21bd fc77 a63c 009f 6a3a
00000140: 86e0 773d 80ce 3f3c 7898 093c e844 73bd
00000150: 20be 3dbb 4019 d63a ac73 103d 0bbf 873d
00000160: 57c1 24bd 8e9d 4f3d 1eaf 013d 883a 9b3c
00000170: 2023 fabb 6b8e b33d c0a8 e8ba a6b6 183d
00000180: a4fb 6abd b96e b33d 349a 993c 263f 4f3d
00000190: 0615 29bd ef15 b33d 909c 033d d807 c1bc
000001a0: de7f 54bd 9866 55bc 7002 a93b b848 fe3c
000001b0: 64de cc3c 5842 7abc d038 d23b ce58 7d3d
000001c0: f002 873b 60e9 2f3b 404a 163c 00e5 243c
000001d0: a5a3 8d3d 3767 893d f266 743d c099 73bb
000001e0: d2b4 653d e047 723b 9b8c 883d 8878 e83c
000001f0: 16e7 7a3d 10dc 86bc 8053 533c 1bcd 5bbd
00000200: a050 d1bb f0d6 3ebc ffd5 a53d 40f1 6bbb
00000210: fbd5 2cbd 54f0 a7bc b083 883c 5978 9a3d
00000220: e0fd 93bc 4986 a23d 2440 94bc 61df ae3d
00000230: b00a 43bd 72fd 7abd ea28 76bd d893 2bbc
00000240: 2633 313d 8e54 8ebd fe78 5a3d 2e01 acbd
00000250: f8b7 06bc 40a4 fd3a bb0e 8a3d c3e8 923d
00000260: d020 cdbb acdf 5ebd 621f e7bc f7e5 a03d
00000270: b461 f93c 126b 563d 68f3 443c ca77 9ebd
00000280: 3a1f 213d 0af0 693d 0054 193a 4fd6 33bd
00000290: 22d8 233d d26d 213d 5a26 353d 6a0d 5c3d
000002a0: ddda 54bd 8263 333d 7a2a 733d caf3 4e3d
000002b0: eece 603d 0ac5 86bd 3c72 8d3c 785c 7abd
000002c0: c64b 323d 00ef 623c 2bc0 933d a31d 823d
000002d0: a897 c43c 343e a1bd da68 753d 3f57 a43d
000002e0: 12e8 293d 001a ef3a e8ea 85bd dd5c 9e3d
000002f0: e240 27bd cd0f ae3d 8109 913d 38fc 0b3c
00000300: 154a 80bd 40cd 2d3c 9023 1c3c 0f8c 27bd
00000310: aa4f 6c3d 9541 acbd 0018 6a3a 82db 1f3d
00000320: 0021 923c a6b6 713d fc6f bd3c 0605 93bd
00000330: b227 f6bc 9635 7d3d d331 913d 16bd 173d
00000340: 5a17 5b3d b961 b33d 1cc7 93bd cb9a a33d
00000350: 9859 813c ca40 5a3d 7081 ea3b 4f60 4cbd
00000360: 0dcc 973d b874 1e3c f079 8e3c 4577 873d
00000370: 24e2 8fbd 080f 1fbd 5437 c2bc 4268 3b3d
00000380: 6cde bfbc 8039 583b 9f86 973d da4c 723d
00000390: 96e9 413d 10dd 92bc e9bb 7fbd b3b6 833d
000003a0: 28bb 003c b040 463c 24f7 55bd ce2f 783d
000003b0: cdb4 8a3d 5196 28bd d742 05bd c0e9 5abb
000003c0: 60fb d13b 5089 05bc 7679 19bd 96b3 423d
000003d0: 5757 863d c777 933d e22b aebd f748 843d
000003e0: 7057 943c 70aa a03b b8ee a83c 7db2 8c3d
000003f0: c06c f23c 56ae 683d 9070 a8bd e69d 113d
0.03466572 0.036617525 -0.048692085 0.027097866 -0.0802497 -0.0379231 -0.00046109408 -0.006430596
-0.03644439 -0.00024511665 0.020957671 -0.0450933 0.06802183 0.07342597 -0.021434538 0.036827825
-0.051938392 0.013190143 -0.07106985 0.061641328 -0.020660974 -0.036206428 -0.011503778 0.01916828
0.006446004 0.030815601 0.023047142 0.052646615 0.087252714 0.07931978 0.022868454 0.037496574
-0.04176627 -0.08255597 -0.07441966 -0.031824358 0.06986449 -0.004070133 -0.011800326 -0.030041706
0.08193185 -0.007207729 0.0703186 0.0004036799 -0.07085492 -0.00548321 -0.0458175 -0.078763425
-0.08661056 -0.0096190795 -0.013089724 0.028296947 -0.06589474 0.085168265 0.03102091 0.073641084
0.010380849 -0.018895552 0.009779617 -0.06391548 -0.02549471 0.06367911 0.027730078 0.0074396655
-0.06999659 -0.017690636 0.028469786 -0.06710835 0.053223096 -0.012869328 -0.0023605525 0.045558475
0.031557485 -0.048711598 -0.054517485 0.07340159 -0.067948155 -0.039536957 0.020320885 0.00089500844
0.060516857 0.011706948 0.008398168 -0.059391886 -0.0028952435 0.0016334429 0.035266563 0.066282354
-0.040223446 0.050687365 0.031661145 0.018948808 -0.0076335818 0.087673984 -0.0017750487 0.037283562
-0.05736889 0.08761353 0.018750288 0.050597332 -0.041279815 0.08744418 0.03213173 -0.02356331
-0.051879756 -0.013024949 0.0051577613 0.031040534 0.025008388 -0.015274607 0.006415464 0.06185227
0.004120223 0.0026841983 0.009172976 0.0100643635 0.06915978 0.0670914 0.05966849 -0.00371705
0.056080647 0.003696911 0.06667443 0.028377786 0.061255537 -0.016462356 0.012898326 -0.0536624
-0.006387785 -0.011647925 0.08097457 -0.003600195 -0.042196255 -0.02050034 0.016664356 0.07542486
-0.018065393 0.07935769 -0.01809699 0.085387 -0.047617614 -0.06127686 -0.060097612 -0.01047226
0.04326167 -0.06949721 0.053338043 -0.083986625 -0.0082225725 0.0019351318 0.06741091 0.07173302
-0.006260015 -0.05441253 -0.028213207 0.07856362 0.030442096 0.052348204 0.012020923 -0.07737692
0.03933642 0.057113685 0.0005849004 -0.043905552 0.040001042 0.039411373 0.044226028 0.05372373
-0.051966537 0.04379607 0.05936668 0.050525464 0.054884844 -0.06580551 0.017266385 -0.06112334
0.043529294 0.013850927 0.072143875 0.06353309 0.023998097 -0.078731924 0.059914447 0.08024453
0.041481085 0.0018242002 -0.065389454 0.07732556 -0.04083336 0.084991075 0.07081891 0.00854402
-0.0626413 0.010608017 0.009529963 -0.040905055 0.05769316 -0.08410946 0.0008929968 0.0390277
0.017838001 0.059012078 0.023124687 -0.071786925 -0.030048225 0.06181868 0.07089581 0.03704556
0.053489067 0.087588735 -0.072157115 0.07988509 0.015789792 0.053284444 0.0071565434 -0.049896535
0.074119665 0.009671383 0.017392129 0.06614546 -0.07025555 -0.038832694 -0.023708023 0.045753725
-0.023421489 0.0032993257 0.07398724 0.059155323 0.047341906 -0.017927676 -0.062435064 0.064313315
0.0078571215 0.012100384 -0.052237645 0.060592465 0.06772766 -0.041158978 -0.032534447 -0.0033403486
0.00640814 -0.008150414 -0.03746935 0.047534548 0.065596275 0.0720058 -0.08504464 0.064592294
0.0181081 0.0049031302 0.020621642 0.068699814 0.029592872 0.056806885 -0.082245946 0.035550974

actor_sigma.bias f4 [4]
00000000: 6a01 1f3d 7b48 84bd c635 b4bd 2410 8cbc
0.038819708 -0.06459137 -0.08799319 -0.01709754
