Python/generator_model.pth (torch, 834639 bytes, 17 tensors)

actor_fc1.weight f4 [256, 16]
000000 d6 12 a4 3d a7 75 97 3c 6c e2 03 be 9b 16 f0 3d
       0.08011405 0.018488718 -0.12879342 0.11723062
000010 9a 6f 0f 3d 0e c9 32 3e 93 a1 35 be b7 a6 d0 bd
       0.03501854 0.17459509 -0.17737417 -0.10188048
000020 a9 7a 0b be 17 71 8c be 9b 98 cf bd 10 de 4f 3e
       -0.1362101 -0.2743003 -0.10136529 0.20299554
000030 0b a5 8d bc 5e 5c f3 bd 4d 67 85 be a8 2a 3c 3e
       -0.017290613 -0.11882852 -0.26055375 0.18375647
000040 69 32 31 3e 46 5c 5b 3e 22 e6 6a 3d 69 1a 3b 3e
       0.17304386 0.21421918 0.057348378 0.18271793
000050 fa 0b 6c 3e d3 a1 b1 bd 4e b0 db bc 68 78 20 3e
       0.23051444 -0.08673444 -0.026817467 0.15670931
000060 db 31 5f 3e d1 8a 71 3e 44 5e 81 3d 46 ef 38 3e
       0.21796362 0.2358811 0.06316808 0.18060026
000070 46 25 3f be e5 a3 19 be 36 e0 90 bd f5 bf 23 bd
       -0.18666562 -0.15003927 -0.07074015 -0.039977986
000080 d2 1a 33 3e 88 85 62 be 82 9b 3d bd ff 8c 26 3e
       0.174907 -0.2212125 -0.046290882 0.16264723
000090 a8 54 e0 3d d2 81 29 be 9f f7 19 be 49 40 2c be
       0.10953647 -0.16553429 -0.15035866 -0.16821398
0000a0 2a 09 e0 bd 59 1a ca bd 43 c8 f1 3d 2f 69 d5 3d
       -0.10939248 -0.09868307 0.11805775 0.10420453
0000b0 83 55 e0 bc 8d c9 43 bc 62 1e 7b be bf 68 38 3e
       -0.027384525 -0.011949909 -0.24523309 0.18008707
0000c0 9d 25 95 be 9b d1 e2 bd 87 8b 63 be ee 37 0f 3d
       -0.2913026 -0.11075135 -0.22221194 0.034965448
0000d0 37 9a 87 3e 93 3d e1 bd 92 5c 32 be e7 31 2e 3d
       0.26484844 -0.109980725 -0.17418125 0.04252806
0000e0 9f e7 80 be 46 81 61 3e a8 94 19 be 7e 49 55 3e
       -0.25176713 0.2202197 -0.14998114 0.20828816
0000f0 7a 49 57 3e 69 91 ee bd f7 45 f5 bd 6d 0e 20 3d
       0.21024123 -0.116488285 -0.11976235 0.039076257
000100 e2 76 05 bd 79 c4 ff bc 5d b4 7f be 5c 95 61 be
       -0.03258408 -0.031221615 -0.24971147 -0.22029632
000110 9f 18 25 3d 0e a0 0c bd c1 a1 d2 3d 77 d2 41 be
       0.040306684 -0.034332328 0.10284758 -0.18927942
000120 3d 48 61 3d 25 47 2d 3d 28 cf 71 bc 52 f9 a8 3d
       0.055000532 0.042304177 -0.014758863 0.08250679
000130 20 63 1c 3e 8c fb 41 bc f0 dc 07 bb 5a 4e 62 be
       0.15272188 -0.011839759 -0.0020731054 -0.22100201
000140 47 e6 3e 3c ef 43 6e 3d 05 0c 73 3e ff d7 a3 bd
       0.011651582 0.058170255 0.23735054 -0.08000182
000150 3b c9 df bd 31 54 52 3e 38 5a 1c 3e fe e8 54 3e
       -0.109270535 0.20539929 0.1526879 0.20792004
000160 d2 30 4f 3d 5c d6 67 3e 94 1a 21 3e 3c ed 5e be
       0.050583668 0.22640365 0.15732795 -0.21770185
000170 34 5d 5b 3e 8c 54 60 3d dd 8b 41 3e 8e 15 c5 bd
       0.21422273 0.05476813 0.1890101 -0.09623252
000180 58 6a e7 bd b6 07 b5 3d b8 c4 60 3c 81 cd 8c be
       -0.1129958 0.08839361 0.013718776 -0.27500537
000190 22 56 98 bc e4 04 fe 3d 85 7e 60 3e 04 3e 6d be
       -0.018595759 0.124032766 0.21923263 -0.23168188
0001a0 44 17 49 be 79 5f 71 3e 15 18 bf 3d bb 08 01 3e
       -0.19637781 0.23571576 0.09330765 0.12600987
0001b0 4f 7b bc 3d 8b f3 5b be a6 ed 49 3e e7 25 5a 3e
       0.09203207 -0.21479623 0.19719562 0.21303521
0001c0 6c 46 3a be 78 12 23 bd 2a 9f 49 be f6 47 56 be
       -0.18190926 -0.039812535 -0.19689623 -0.20925888
0001d0 dd 05 31 3d 76 d8 f3 bd 77 1f 4b be 0c df a8 bd
       0.043218482 -0.11906521 -0.19836222 -0.08245668
0001e0 7b 2c 9c bc b1 25 17 be 66 1d 41 3c 1d 9f 1d 3e
       -0.019064179 -0.14760472 0.011786794 0.15392728
0001f0 11 fa 3d 3e bb 58 6f be ad 4b 18 3e 63 06 87 be
       0.18552424 -0.23373692 0.14872618 -0.2637206
000200 61 e8 41 be d2 12 e8 3c 88 90 f9 bd c2 fa 34 be
       -0.18936302 0.028329287 -0.1218577 -0.17673782
000210 93 0e d3 3d 20 45 65 be e5 c8 ac 3c 83 cf c2 bd
       0.10305514 -0.2238965 0.021091888 -0.09512236
000220 2a 88 63 be 1c 7d 68 bd b6 dc 21 3b ae d6 aa 3d
       -0.22219911 -0.05675994 0.0024698204 0.08341728
000230 f8 e5 16 be 04 7d da 3d 86 18 f2 bd 44 58 f8 3d
       -0.14736164 0.10668376 -0.11821084 0.1212621
000240 cb e4 90 3c bb da 9c 3d 8e 79 14 be 31 f1 ff bd
       0.017687222 0.07658907 -0.14499494 -0.124971755
000250 61 fb c6 bc e8 90 3f 3e 4f a3 ff bc 81 72 68 be
       -0.024289789 0.18707621 -0.031205801 -0.2269993
000260 b7 b9 7e bd 92 7d 89 3d d9 aa cd 3d da a1 3e 3d
       -0.06218883 0.06713404 0.10042352 0.046541072
000270 20 6f 60 3d 3e 75 5c 3e ae 10 12 3e f0 a4 e8 bc
       0.054793477 0.215291 0.14264175 -0.02839896
000280 38 12 83 3e a7 f7 04 3e e7 af 31 3e 7b b3 84 3e
       0.25599837 0.12985097 0.17352258 0.25918183
000290 c6 78 5b 3e d7 6d 4b be c5 96 70 be 8b bb 80 bd
       0.2143279 -0.1986612 -0.23495014 -0.06285771
0002a0 45 d2 b4 3d e7 5e 3c 3e 9c db f8 3c ee 35 63 be
       0.08829168 0.18395577 0.030378155 -0.22188541
0002b0 3a 55 18 3e c0 b0 82 bd 0d 52 9b 3d 93 1d a2 3d
       0.14876261 -0.06381369 0.07584009 0.07915797
0002c0 f9 ff 10 3d 02 13 a3 bd a4 94 82 bd e8 02 38 3d
       0.035400365 -0.0796261 -0.06376007 0.044924647
0002d0 af 4a 7a bd 11 48 bf bd 36 2a 37 be 8b 1c e2 3d
       -0.06110638 -0.093399175 -0.17887196 0.110406004
0002e0 07 33 80 3c 5a d3 8c be 68 1a ee 3d b4 00 88 3e
       0.015649332 -0.27504998 0.1162613 0.26563036
0002f0 e7 ec 8f 3e 4c b5 0d 3e e1 dd e8 bd de 54 a7 3d
       0.2811043 0.1383869 -0.11370445 0.08170484
000300 33 b4 df bc b1 fb 09 3d 31 1a 79 be 1c c1 5f 3c
       -0.027307605 0.033687297 -0.24326397 0.013656881
000310 94 72 7b be 3b d8 4d 3b 6f 50 38 be b8 58 14 be
       -0.24555427 0.00314094 -0.17999433 -0.14486969
000320 53 0a 43 be c3 56 6a 3e 46 53 b6 bd 4e e1 9e bd
       -0.19046907 0.2288466 -0.08902602 -0.07757817
000330 f8 8b a7 3b ba bc 51 3e 46 49 7b 3a 79 f6 3a bd
       0.005113121 0.2048215 0.0009585809 -0.04564521
000340 ef 5c a2 bc bd a8 27 be 31 c3 e3 3d a8 09 f9 3d
       -0.019819705 -0.16372962 0.11121214 0.12160045
000350 ab 66 69 be 90 c3 bf bd 09 b8 56 3d 1c 53 2b 3d
       -0.22793071 -0.093634725 0.052421603 0.041827306
000360 58 08 22 bd be 5c c0 bc a8 b1 1e be 24 2b 86 3e
       -0.03955874 -0.023481723 -0.15497458 0.2620479
000370 05 47 bb bd 57 87 6d be cb d7 c7 bd a9 6e 90 bd
       -0.09144405 -0.2319616 -0.09757956 -0.07052357
000380 f6 b9 dc 3d 8c 21 20 3e ea 9e d1 bd d3 e5 5a 3e
       0.10777657 0.15637797 -0.102353886 0.21376733
000390 dc b1 5c be 73 86 6f be a0 f1 56 be 3c 20 38 be
       -0.21552223 -0.23391132 -0.2099061 -0.17981046
0003a0 d2 b1 18 be c9 1f 9f 3d 8f 65 65 3e 25 58 c0 bd
       -0.14911583 0.077697344 0.22402023 -0.09391812
0003b0 4f 20 f9 3d c0 38 5d be 9e 20 a1 bd 19 88 74 3d
       0.121643655 -0.2160368 -0.07867549 0.059700105
0003c0 d0 7c 76 3e f4 1a dc bc 33 14 82 3d 01 35 60 be
       0.2407105 -0.026868321 0.06351509 -0.2189522
0003d0 2e ac 33 be eb 74 fa bd 9e 42 0a be ff 74 46 3e
       -0.1754615 -0.122293316 -0.13501975 0.19380568
0003e0 e6 0d 6a be 5e 57 1d 3e 48 1c c5 bd be 09 23 bd
       -0.22856864 0.15365359 -0.09624535 -0.039804213
0003f0 5f d4 46 3e 4c c9 8b bd 80 3d 07 3e 58 f2 30 3e
       0.1941695 -0.06825504 0.13207054 0.17279947

actor_fc1.bias f4 [256]
000000 d9 04 83 3e ad ef 26 be 0f 1e 1d 3d 28 e2 4b 3e
       0.25589636 -0.16302367 0.038358744 0.1991049
000010 e2 dc 39 3e ed 0d 2e be 62 e7 46 3e cc f2 82 3e
       0.18150666 -0.169975 0.19424203 0.25575864
000020 90 01 31 bd ab 12 52 bc 4e 9a ce bd 84 26 4d 3e
       -0.04321438 -0.012821834 -0.10088025 0.20034224
000030 a1 25 e2 bd 4e 59 cf bd 30 76 d4 3d a0 df 5b bd
       -0.110423334 -0.101244554 0.10374105 -0.053680062
000040 fa 0a 0c be ad 8c 23 be 74 64 97 3d 9f 06 49 3c
       -0.13676062 -0.15971632 0.07392207 0.012269645
000050 5d 30 5f 3e 28 68 bb bd 05 d6 30 3e 68 c6 26 bc
       0.21795793 -0.091507256 0.17269142 -0.01017914
000060 c9 9f a7 bd 9d 5d 74 3c eb 75 c2 3d 54 eb da bd
       -0.081847735 0.014914897 0.09495147 -0.106894165
000070 f0 f2 b4 3d 08 17 5c bd 2c 62 4c 3e 4a 11 14 3e
       0.08835399 -0.0537329 0.19959325 0.1445972
000080 a9 20 b9 3c c5 8d 30 3d b0 04 7b be ad 5b 6d be
       0.022598581 0.043103952 -0.24513507 -0.23179503
000090 c2 06 5e be 71 da cc bd 95 fa d4 3d 3d fb 96 bd
       -0.21682265 -0.10002602 0.10399357 -0.07372139
0000a0 0b 2d 26 be 9b c7 ee bd a6 c7 5e 3e b4 32 5b 3e
       -0.1622812 -0.116591655 0.21755847 0.2140606
0000b0 19 c5 ab 3c 53 88 7d be 6a 5f d6 bd 30 09 21 be
       0.020968007 -0.24759035 -0.104674175 -0.15726161
0000c0 7b 4a 4d 3e f6 b1 bf bd 7f 45 67 be 53 30 8b 3c
       0.20047943 -0.09360115 -0.22585104 0.016990816
0000d0 f5 fb 59 be 21 93 ed bc dc d2 af 3d c9 4c 6a be
       -0.2128752 -0.02900082 0.0858514 -0.22880854
0000e0 36 fe 81 3e a4 13 09 3c 77 66 84 bd 33 02 cc bd
       0.2538926 0.008366499 -0.06464856 -0.09961357
0000f0 29 ce 04 bd b8 66 42 3c 6e 4f 46 bd 56 21 35 3e
       -0.032423172 0.01186531 -0.048415594 0.17688498
000100 33 6a 1d be f3 1e 41 3e 15 cd f5 bd f2 f7 28 3e
       -0.15372543 0.18859462 -0.12002007 0.16500834
000110 08 e7 cb bd 7f 66 b2 3d cd 5a 22 3e 9c 59 76 3e
       -0.09956175 0.08710956 0.1585495 0.24057621
000120 64 e2 8b 3d 2f 3e 3f be 87 ff 0a be 75 fb 0c 3e
       0.0683029 -0.18676065 -0.13574038 0.13767798
000130 55 36 32 3e bd 08 39 3e 4f 0b eb bd 36 65 7c 3e
       0.17403539 0.1806974 -0.11476766 0.24647984
000140 0f dc ec bd 4a 1a 7c 3e 94 cb aa 3c 80 77 12 be
       -0.1156541 0.24619403 0.020849027 -0.14303398
000150 e0 9f 73 3e f3 c4 b4 bd 5f 49 c2 3c bf cb 03 be
       0.23791456 -0.088266276 0.023716627 -0.12870692
000160 61 f0 9f 3d d1 b1 65 be cf 00 37 3d 64 50 ec bd
       0.078095205 -0.22431113 0.044678506 -0.11538771
000170 09 e1 cf bd a3 78 16 3e c3 54 24 3e 82 db fb bd
       -0.10150344 0.14694457 0.16047959 -0.12297727
000180 7f 22 7f 3d e6 3f 4e be e9 de 70 be c4 2d f0 b7
       0.062288757 -0.20141563 -0.23522533 -2.863154e-05
000190 8b 44 41 3e df 17 71 be bb cd 22 be 68 a4 05 be
       0.18873803 -0.23544262 -0.15898792 -0.13050997
0001a0 9f 85 6d 3c b5 f3 52 3e de 84 0c be dd 05 f3 bd
       0.01449719 0.2060078 -0.1372256 -0.11866353
0001b0 d8 9b 22 3e c8 c6 8c 3b ae 0d 86 3d b4 e4 80 3e
       0.15879762 0.0042961575 0.06545578 0.25174487
0001c0 7f 7c 54 bd df 64 f8 3d a9 62 93 bd b0 7c 47 3e
       -0.05187654 0.12128615 -0.07196552 0.19481158
0001d0 0d 70 43 be a2 f6 f0 bd 54 eb 7b be bd 73 54 3e
       -0.19085713 -0.117657915 -0.2460149 0.20747276
0001e0 d6 5d 0c 3e ca b8 81 be 32 5c 4e be dd 52 8e 3d
       0.1370767 -0.25336295 -0.20152357 0.06949399
0001f0 bb 70 15 3e 8e e4 4c 3e 13 61 a4 3d 23 77 b0 bd
       0.14593785 0.20009062 0.08026328 -0.086164735
000200 8f b7 f9 bd b3 f1 1b bd 34 2f b4 bd ae e2 89 3d
       -0.12193214 -0.0380723 -0.08798066 0.06732689
000210 1e f6 c4 bc ce 51 54 be 04 99 ce 3d 92 7f 67 3e
       -0.02404314 -0.20734331 0.10087779 0.22607258
000220 bd 4d 9f bd db 67 7c be 76 c4 57 bd 4a da 46 be
       -0.07778499 -0.24648993 -0.052677594 -0.19419208
000230 09 fa 18 3e 0e 38 f9 3d 00 f6 44 be 3e 52 6c 3e
       0.14939131 0.12168895 -0.19234467 0.23078248
000240 b9 07 85 3d 71 c6 01 be a4 8c 06 3d ce 23 03 be
       0.064956136 -0.12673356 0.03284897 -0.12806627
000250 38 db 58 be 14 42 75 3e ed 27 ad 3a 3d 76 6c be
       -0.21177375 0.23950988 0.0013210751 -0.2309198
000260 a9 ba d8 3d 95 f0 be 3d 0a 46 b7 bd 32 a5 89 bd
       0.105824776 0.09323231 -0.08948906 -0.06720962
000270 fd 0c 71 3e cd 51 24 be ee c8 7b 3e 97 f6 97 3b
       0.23540111 -0.1604683 0.24588367 0.00463755
000280 38 23 21 be f4 a8 31 be fc c6 16 bd bb f1 5e bd
       -0.15736091 -0.17349607 -0.03681086 -0.05442975
000290 5e 52 4d 3d f5 21 03 be 27 09 1b be 8b 95 01 3e
       0.05012738 -0.12805922 -0.1514021 0.12654702
0002a0 9b 27 04 3e 87 45 1b bd 97 45 0b be c7 04 1d 3e
       0.12905733 -0.037908103 -0.13600765 0.15333854
0002b0 0c 36 6e 3d af e1 de 3d 9b 19 f6 3d 07 7f fe 3d
       0.058157012 0.108828895 0.120166026 0.12426572
0002c0 45 0e 4a be 38 c3 11 be b0 fb bc 3d c7 fa 64 be
       -0.19732006 -0.14234626 0.09227693 -0.22361289
0002d0 36 a8 fa bd 24 9c 84 3e c6 45 19 be 46 2c 1e be
       -0.12239115 0.25900376 -0.14968023 -0.15446576
0002e0 b0 ec 9e 3d 16 e3 89 3e d3 dc 77 bd 96 92 5e 3e
       0.07759988 0.26931065 -0.06051333 0.21735606
0002f0 23 1b cc 3c 40 c1 c1 bb c3 ab a2 3d 1a 2b 66 3e
       0.024915284 -0.00591293 0.07942917 0.2247738
000300 59 fb 88 3d 37 32 a9 bc 4a b9 12 3c 54 92 69 bd
       0.06688566 -0.020653827 0.008955309 -0.057024315
000310 5a d9 3e bc 65 53 5e be ec 32 04 be f1 94 85 bd
       -0.0116485 -0.217115 -0.1291005 -0.06522549
000320 6d 2f f2 bc b3 c3 3a 3e 72 d7 75 be fe b8 29 3e
       -0.02956363 0.18238716 -0.24007967 0.16574475
000330 60 4f 35 be 50 e1 0f 3e 68 3f b4 3c 24 2a 0a be
       -0.1770606 0.14050794 0.02200289 -0.13492638
000340 99 dc ac 3d 84 da 95 3d 4d 1d 82 3b d0 10 70 be
       0.08440513 0.07317069 0.003970778 -0.23443913
000350 d4 7d 1b bc bc 5e a8 bc 69 e1 f4 bd f8 64 7c 3c
       -0.009490449 -0.020552985 -0.11957056 0.015404932
000360 df bc ad 3c 28 fb 68 be 4c 7e 0d 3e b5 bf 1d 3e
       0.021208225 -0.22752059 0.1381771 0.15405162
000370 fa 60 ed bc ee 3b 2d 3e 92 50 4a 3e 24 b9 91 bd
       -0.028976906 0.16917393 0.19757298 -0.07115391
000380 44 0f 79 3d e4 85 f1 bd f4 08 80 3e 42 99 8a bc
       0.060805574 -0.11793116 0.2500683 -0.016918782
000390 b6 4c 38 3e 67 e8 69 3e f2 50 59 3e 11 fb 07 be
       0.17998013 0.2284256 0.21222284 -0.13279368
0003a0 53 fd 33 3d 4d 1c 2a be 6d 27 0b 3e 3c e4 2b be
       0.04394276 -0.16612358 0.13589258 -0.16786283
0003b0 65 97 7e 3d c4 3c 7b bd 39 61 6f be 3b bf 04 3e
       0.0621561 -0.061337247 -0.23376931 0.12963574
0003c0 c4 1a 1b be c3 02 94 bc ff c3 09 3e 5d 01 28 be
       -0.15146929 -0.018067723 0.13453673 -0.1640677
0003d0 25 1f fd 3c 41 c6 14 3e 58 22 6b 3d 7c ff 1d be
       0.03089864 0.14528753 0.0574058 -0.15429491
0003e0 f8 44 24 3e f6 b8 04 3e a3 98 98 bd 06 f3 c1 bc
       0.16041934 0.12961182 -0.07450988 -0.023675453
0003f0 32 40 de bd 1e 9a f8 bd 6e c3 8b bd 31 21 1f be
       -0.10852088 -0.121387705 -0.06824385 -0.15540005

actor_fc2.weight f4 [256, 256]
000000 33 b5 75 3d 3e 3b 46 3c c2 a0 19 3c a3 c4 0a bc
       0.05998726 0.012099085 0.009376707 -0.008469733
000010 2f aa 6b 39 6c c5 4e bd d5 d7 a5 3c 34 4b 97 3b
       0.00022474745 -0.050481245 0.020244518 0.004617119
000020 56 7f 80 bd 17 bd 02 bd ab 37 d4 bc 48 50 6e bd
       -0.062742874 -0.03191861 -0.02590545 -0.05818203
000030 64 a8 e0 3c bd 6c 27 bd 1f 9f 4f 3d 6b 04 28 3c
       0.027424045 -0.040875185 0.05068886 0.01025496
000040 1c 91 03 bd b3 da 69 3d ff b9 88 3b da e8 53 bd
       -0.03212081 0.057093333 0.004172563 -0.051735736
000050 b6 43 ab bc 94 02 f7 3c 46 d6 64 bd b1 25 c4 bc
       -0.02090631 0.030152597 -0.05586841 -0.023943754
000060 48 cb 58 3d 85 c2 20 3d 3b 52 f6 3b 7e 6d fe 3c
       0.05292824 0.03924801 0.007517127 0.03105807
000070 26 09 8a 3d 24 e4 b0 ba 5d fc 00 bd 69 00 b6 bc
       0.06740026 -0.0013495726 -0.031490672 -0.022216992
000080 df 3b 81 bc 58 47 e5 bc c8 5b 34 3d a5 9a 7f 3d
       -0.01577562 -0.02798812 0.044032842 0.06240334
000090 5d 62 db 3c 6b 71 62 bd 5f d8 85 bc 67 f8 50 bd
       0.026780302 -0.055283945 -0.016338525 -0.051018145
0000a0 9d 2c e2 bc 9e 39 47 bd 33 11 87 bd 7e 3d f5 3c
       -0.027609164 -0.048638932 -0.06595077 0.029936548
0000b0 63 17 3c 3d c5 6e 7a 3d f3 a2 64 3d 07 03 83 3d
       0.04592074 0.061140794 0.055819463 0.06397062
0000c0 c3 d3 3b bc 72 66 fb 3c ae e0 53 bd 97 05 f3 bc
       -0.011464062 0.030688498 -0.051727943 -0.029665751
0000d0 88 ef a1 bd ce 79 14 bc 10 d5 d0 3c 10 49 bc bd
       -0.07907015 -0.009062244 0.025492221 -0.09193623
0000e0 5b 88 cb 3c 7b 09 0e bd bf 4b 96 bc b2 1a 14 3d
       0.024845293 -0.03467701 -0.018346665 0.03615827
0000f0 92 61 6a bd 70 e6 10 3d 57 a7 3d ba 68 c6 60 bc
       -0.057221957 0.035376012 -0.00072347134 -0.013719179
000100 22 6c 26 3d 39 a1 ee 3c 58 e9 0a bd 0b 21 2f bd
       0.040630467 0.029129611 -0.03391394 -0.04275612
000110 25 74 e6 3b db 6e f6 3c bd 99 be bc 32 d8 7b 3d
       0.0070328885 0.030082157 -0.023266668 0.061485477
000120 80 d2 50 bd 89 08 18 bd 58 1d 13 bc 11 02 b6 bc
       -0.050982 -0.037117515 -0.008979164 -0.022217782
000130 0f ee b1 3a 2c f6 3f bd fc 86 b3 bc 41 13 3a bc
       0.0013574975 -0.046865627 -0.021914952 -0.01135713
000140 1c 3e 22 bb 84 55 ce bc 8f 39 05 3d 42 a6 fe bc
       -0.0024756258 -0.025187261 0.032525595 -0.031085137
000150 cc 7a 60 3c 9d 21 f7 3c c0 a3 89 3c 21 b4 29 bd
       0.013701152 0.030167395 0.016801715 -0.04143155
000160 34 a4 47 3b d7 9b f9 3c 4e 1a 46 bc 8e 1d 6a 3d
       0.0030462863 0.030469818 -0.012091232 0.05715709
000170 c9 34 78 3c 9d f1 a4 bc 91 21 cb 3c 91 c4 3e bd
       0.015149304 -0.020134741 0.02479628 -0.04657418
000180 3c 39 95 ba 8a ae 50 3d 3b 52 f4 3c 91 90 67 bd
       -0.0011384855 0.050947703 0.029824367 -0.056534354
000190 15 8c 74 bd bb eb 7c bb a5 70 a3 bc 4d e8 f6 3b
       -0.059703905 -0.0038592655 -0.019951174 0.0075350166
0001a0 00 26 80 3b bb 64 6a bc d0 4c 2f bd b7 1f f6 3c
       0.00391078 -0.014306243 -0.042797863 0.03004442
0001b0 29 ed dc 3b a6 ec 82 bd 4b 34 ed bc 78 80 0f 3d
       0.006742139 -0.06392793 -0.0289556 0.035034627
0001c0 25 59 6e 3d 6d 22 84 3c 83 7b 67 3d ba 53 31 bd
       0.058190484 0.016129697 0.056514274 -0.04329274
0001d0 15 b6 45 bc bd 8e 56 3d a4 77 54 3c 79 d3 20 bc
       -0.0120673375 0.05238222 0.012967978 -0.009816044
0001e0 c8 04 25 3c ab 6c b6 bd 38 10 54 3d 88 13 2c 3d
       0.010071941 -0.089074455 0.05177328 0.042010814
0001f0 85 9b 22 3b f0 8e 2d 3d 55 f9 d5 bc 38 98 1b bc
       0.0024811935 0.042372644 -0.026119867 -0.009496741
000200 d0 eb 80 bc 73 ec 11 bd 39 06 2c 3d 22 e3 34 bd
       -0.015737444 -0.035625886 0.041998122 -0.044161923
000210 04 9f ae b8 67 5f 44 bd 9a 29 4d bc 9c e0 14 3d
       -8.3265855e-05 -0.047942545 -0.012522126 0.036347017
000220 4d 32 07 3d 36 d7 c1 3b 34 67 0d 3d 5a 7f 0e bd
       0.033006955 0.0059155477 0.03452225 -0.03478942
000230 bb 6e 72 3d 46 4b 5b bb e9 e0 70 3d bf 41 51 bd
       0.059187632 -0.0033461615 0.05880824 -0.05108809
000240 1b 67 d2 bc 36 13 f2 bc cc 1e 28 bd fd 45 e8 bb
       -0.02568393 -0.029550176 -0.041044995 -0.0070884214
000250 42 47 2b 3d ee a2 11 bc 19 87 1f bd dd 87 58 3d
       0.041816004 -0.008888943 -0.0389472 0.052863944
000260 8d d7 65 3d ac 3e 86 3d 62 25 e1 3c 38 70 08 bb
       0.05611377 0.065549225 0.027483646 -0.002081884
000270 41 ca 1d bd c3 4d 30 bc c3 1a 3d bd e0 f3 45 3d
       -0.038522962 -0.010760727 -0.0461681 0.04832828
000280 70 e3 66 bd 1a 92 55 bd 47 0f 82 3c e9 fe 8c bb
       -0.056369245 -0.052141286 0.015876425 -0.0043028486
000290 42 b5 08 bd 27 72 a5 3a cc a4 46 3d 5a 94 29 bd
       -0.033375986 0.0012622521 0.048497006 -0.041401245
0002a0 0c 07 4b bd d4 67 72 3c 91 e6 1d bd 08 9f aa bc
       -0.049567267 0.014795262 -0.038549963 -0.020827785
0002b0 54 17 4e bd 44 5a 1a ba a7 37 1a bc 51 0d 16 3d
       -0.050315216 -0.00058880844 -0.009412683 0.036633793
0002c0 84 29 fa bc a3 c0 46 bd 5d 6a 59 ba 92 bc 3e 3a
       -0.030537374 -0.048523556 -0.00082937424 0.0007276024
0002d0 51 a8 7f 3d 69 a5 bb 3c ce 57 69 3b a6 fa 2c bc
       0.06241638 0.022906022 0.0035605314 -0.010557806
0002e0 2c 70 44 3d 38 d7 0e 3d 82 42 06 3c 62 de 8c bc
       0.047958538 0.034873217 0.008194568 -0.017195884
0002f0 4d 40 c5 3c 5c 0b e0 bc 52 67 f7 3c 95 43 cb bc
       0.024078513 -0.027349167 0.030200634 -0.024812499
000300 1b a1 08 3d ad 70 c4 3a 7b 4f 2a 3c 07 3b 0a bd
       0.033356767 0.0014987193 0.010394926 -0.0337477
000310 6f e9 09 bd 94 83 64 bd d9 eb 8d bd 97 5a c4 3c
       -0.033669885 -0.055789545 -0.0692975 0.023968978
000320 4e 07 8b bd 04 96 6f 3d eb 2d e1 bc b5 26 61 bd
       -0.06788503 0.058492675 -0.027487716 -0.054968555
000330 11 f5 34 bd 2c 57 1d bd f1 f5 30 3d 9e 71 7e 3d
       -0.044179026 -0.03841321 0.043203298 0.062120073
000340 a3 12 8c 3c 9e c4 21 bd 13 04 23 3d 31 d8 bb bb
       0.01709873 -0.03949415 0.039798807 -0.005732559
000350 7a c9 2c 3d 0f 20 a2 3c ca 86 c0 3c e3 24 22 bd
       0.04218433 0.019790677 0.023501772 -0.03958596
000360 5f b4 74 3c 02 6c 5e 3d e1 3d 97 3b 29 d9 01 3c
       0.014935582 0.054302223 0.004615531 0.00792531
000370 9f d0 29 bb d4 22 29 bd 05 d1 86 bc cc 78 2f 3d
       -0.0025911701 -0.04129298 -0.01645709 0.04283981
000380 1d 7d 90 3d 3b a6 f9 3c 33 6e c0 3c ad b0 83 bd
       0.070551135 0.030474773 0.023490047 -0.064301826
000390 e9 98 9d bd c3 69 3b bd bd 91 2c 3d 56 9e 4e 3c
       -0.07695181 -0.04575516 0.042131174 0.012610992
0003a0 55 3a 69 3b 9e 96 60 bd 10 be 78 3d fc 2d ac bc
       0.0035587747 -0.05483114 0.060728133 -0.02101802
0003b0 fb d5 60 3b 51 3c 79 bd 66 0f 11 3c ef 0c e4 bc
       0.003430723 -0.060848538 0.008853769 -0.027838198
0003c0 4b af 30 bd 0f 93 a4 bc 8f 85 99 3c 8f 12 fc bc
       -0.043135922 -0.020089654 0.018740444 -0.030770568
0003d0 e8 96 43 3d d0 dd 05 3c 87 3a 80 3c 2c 5a c0 bc
       0.047751337 0.00817056 0.015652908 -0.023480497
0003e0 dd c0 24 bd f4 a6 ba bc ea ee e5 bc d5 c2 66 bd
       -0.04022299 -0.022784688 -0.028068025 -0.05633815
0003f0 52 cb 3d bd bf 88 72 3d 0d d3 78 3d ea 56 33 3d
       -0.04633648 0.059212442 0.06074815 0.04378406

actor_fc2.bias f4 [256]
000000 57 34 bf bc 59 14 29 bd 0b 2e c9 bc 5c 16 40 bd
       -0.023340387 -0.04127917 -0.024558088 -0.046896324
000010 77 5e 3f 3d 94 1f 42 bd 95 99 cd 3c 8c 13 56 bd
       0.046720948 -0.047393396 0.025097648 -0.052264735
000020 9d 35 7d bc db ee 28 3d 15 d1 5e bc 23 2e 55 bd
       -0.015454677 0.041243415 -0.013599654 -0.052045953
000030 ae 13 a8 3c 45 2b 62 bd a2 10 4d 3d d7 7f 55 bd
       0.020517197 -0.055217046 0.05006469 -0.05212387
000040 33 81 b2 bb 4f 68 4c bd 3f 77 88 3c df da c3 3a
       -0.0054475307 -0.049904164 0.016658423 0.0014942548
000050 95 0f 42 3d 1c 27 d4 bc 3b 53 62 bd e7 fd 5f bd
       0.04737814 -0.025897555 -0.055255156 -0.0546855
000060 8c 45 0d bd 49 be 77 3d d7 7b 15 3d 27 53 be 3b
       -0.034490153 0.060484204 0.036495056 0.0058082524
000070 30 a5 75 3d ec 5e 0e bd ea 31 46 3d 2a 7d bd 3c
       0.05997199 -0.034758493 0.048387446 0.023130972
000080 0f 8d 08 bc 42 62 40 bc 1c 41 38 bd 46 60 5d 3d
       -0.008334412 -0.0117421765 -0.04498397 0.05404689
000090 9c 53 8a bc 04 53 f0 3c 08 9a 79 3d 51 92 54 3b
       -0.016885571 0.02933646 0.06093791 0.0032435844
0000a0 f0 73 46 3d 90 ab 5c 3c e2 de 97 3c 2d f3 0e 3d
       0.04845041 0.013468638 0.018538896 0.03489988
0000b0 7c 00 f7 bc 4d 6a 0c bc 27 42 4a bd 63 32 fd 3c
       -0.030151598 -0.008570266 -0.049379494 0.030907815
0000c0 fe 5d 63 bd 5f d6 57 3c 4c c2 23 bd f9 c2 9d 3c
       -0.05550956 0.013173669 -0.039980218 0.01925801
0000d0 87 8a df 3c d0 a5 6d 3d d7 3a 75 3d c3 b2 b4 bc
       0.027287735 0.05801946 0.059870567 -0.022057896
0000e0 0a 46 71 3d 2d 8e 67 3c cd de 1b bd 11 05 26 3c
       0.058904685 0.014133018 -0.038054276 0.010133044
0000f0 59 d9 80 3c 7a 5a 5b 3d e3 55 2c 3c 8f 54 a8 3c
       0.01572864 0.053553082 0.010518524 0.020548133
000100 f5 0b eb 3b 00 70 b3 3c 3a 34 38 bd d3 9b 45 bd
       0.0071730562 0.021903992 -0.044971682 -0.04824431
000110 31 e6 91 3c c2 9c ea 3c 44 ff 91 bc 16 94 55 bb
       0.01780996 0.028639201 -0.017821915 -0.0032589487
000120 10 d6 6c 3d ae 8c 82 bc 09 2f ac bc 0e ed e0 bc
       0.057821333 -0.015936222 -0.021018522 -0.027456786
000130 f0 72 6a 3d 48 ba 41 3d 51 69 91 3c 11 a1 8a 3a
       0.05723852 0.047296792 0.017750414 0.0010576566
000140 4f 34 f3 ba 31 c4 66 3d 33 90 5e bd 56 6e 56 3d
       -0.0018555018 0.056339446 -0.054336738 0.05235132
000150 78 08 36 3d 05 0e 22 3d ba e1 4d bd 99 07 1f bd
       0.04444167 0.03956415 -0.050264098 -0.038825605
000160 9a 40 cc bc 56 b7 3f 3d fd 53 0a 3d 69 93 53 3d
       -0.024933148 0.046805702 0.033771504 0.051654253
000170 be c9 17 3d ef 4d 28 bd 50 b7 b0 bc f4 27 ff bc
       0.03705763 -0.04108995 -0.021571785 -0.03114698
000180 7f 46 81 bc ec d9 25 3c 16 18 17 3d 15 13 5e bd
       -0.015780685 0.010122757 0.036888205 -0.054217417
000190 71 f1 64 3d f3 a0 4d bd 69 f7 72 bd e8 3f 12 bd
       0.05589432 -0.05020232 -0.05931798 -0.035705477
0001a0 3b 95 21 bd 08 6d 44 3d 98 22 81 ba 20 69 ce 3a
       -0.039448958 0.047955543 -0.0009852229 0.0015747882
0001b0 82 fd 06 bd 1d 1e 8c 3b e2 6e 14 bd f0 b3 8e 3c
       -0.032956608 0.0042760507 -0.03623856 0.017419785
0001c0 44 c4 36 3d 9a 00 35 3d 83 ba f8 3c 14 68 87 3d
       0.044620767 0.044190027 0.030362373 0.06611648
0001d0 38 56 2e 3d 0e ea 90 bd 11 1e 3e 3d 32 d2 01 bb
       0.042562693 -0.070758924 0.046415392 -0.0019809124
0001e0 dc 46 3c 3d db ce 4f bd ca 9a a6 3c a9 f3 28 3d
       0.045966014 -0.050734382 0.020337481 0.041247997
0001f0 05 15 73 bd 89 d4 6e 3d d6 0e de bb e6 5b 02 3d
       -0.059346218 0.058308158 -0.006776671 0.031825922
000200 8a cb 27 bd 2b f7 1f 3d e9 b8 20 3d 9a 43 9f bb
       -0.040965594 0.039054077 0.039238844 -0.0048603537
000210 78 3a 68 bd e5 2f 47 bc 59 1f 19 3d 8c 41 ee bc
       -0.056696385 -0.012157415 0.03738341 -0.02908399
000220 cb 54 80 3d d0 c4 d9 3c 82 c8 a2 bc db 17 11 3d
       0.06266173 0.026583105 -0.019871 0.03542314
000230 b6 d5 03 bc eb 28 0d 3c 43 f5 a0 3c b7 1a 85 bd
       -0.008046558 0.008615713 0.0196482 -0.06499236
000240 95 ad d5 bc bd 37 f6 bc 5c ce ff bb ea c0 8f bd
       -0.026083747 -0.030055875 -0.0078065824 -0.07019217
000250 4e e1 74 3d cc d2 ac 3c 43 6d 29 3c 83 4f 43 3d
       0.05978518 0.02109661 0.010340991 0.04768325
000260 f2 d6 11 3d 45 1a 55 3d 8f 25 3f 3d 13 3f 58 bd
       0.03560538 0.052027006 0.046666678 -0.052794527
000270 1f ee 46 3d c3 d4 6c bd 8b 2a 42 3d 24 d0 3a bd
       0.048566934 -0.057820093 0.047403853 -0.045608655
000280 64 0e 47 bb 6d 1c 78 3d cd da 50 bd b2 61 90 3d
       -0.0030373568 0.060573984 -0.050989915 0.07049884
000290 3e fc 0e bc 0a 72 d4 3c 0e ad f7 3c b3 91 81 ba
       -0.008727131 0.025933284 0.030233886 -0.0009885341
0002a0 a0 40 81 bc 26 d7 7c bd e6 0f 40 3c 28 11 1c 3d
       -0.015777886 -0.06172862 0.0117225405 0.0381023
0002b0 0a f2 14 3b e9 a3 a2 bc 79 c3 1e bd ee 28 f9 3c
       0.0022727274 -0.01985355 -0.038760636 0.030415025
0002c0 d2 3b 3f bc 11 d8 3d 3d 37 8e 41 3b c9 77 43 3d
       -0.011671977 0.046348635 0.002953423 0.047721658
0002d0 6a 2b 42 3d 0a 90 2d 3d 94 a2 30 3b 44 0e 11 3d
       0.047404684 0.042373694 0.0026952373 0.035413995
0002e0 69 2f f9 3c e5 a5 70 3d 3d 41 6e bd fe 69 14 3c
       0.030418115 0.05875196 -0.058167685 0.009058474
0002f0 ef bf 4c b9 ff f9 56 3d e4 0f 8c ba 74 30 41 3c
       -0.00019526457 0.05248451 -0.0010685888 0.011791337
000300 42 4e 38 3d d7 ca aa 3c fd 0f 7a 3c 81 23 40 3d
       0.044996507 0.020848675 0.015262601 0.04690886
000310 87 a5 0b 3d 79 06 1c bd e6 6c 72 bd 96 7e e8 3c
       0.034093406 -0.03809211 -0.059185885 0.028380673
000320 fb 6f 4a 3d 6f ef b8 3c de f7 63 bc a8 49 2f bd
       0.0494232 0.022575108 -0.013914077 -0.042794853
000330 87 77 62 3c 08 4d 1e bd ba 4d 99 3b de 40 97 bc
       0.013822443 -0.03864768 0.004678455 -0.018463548
000340 57 1b 4f 3d aa 77 5a 3d 27 c4 20 3d 1f c4 04 bc
       0.050563183 0.053336777 0.039249565 -0.0081034
000350 da 64 56 3d 27 0d 50 3d a2 1d ce 3c 1b ad e8 3b
       0.052342273 0.050793793 0.025160614 0.007100714
000360 78 a3 0e bd 81 c6 b3 3c 37 f9 fe bc 9c fd 4c bd
       -0.034823865 0.02194524 -0.031124694 -0.05004655
000370 e8 61 73 bd 2e 99 4f bd 84 38 06 bd 51 76 b2 ba
       -0.059419543 -0.050683193 -0.03276874 -0.0013615583
000380 48 b5 34 3d e7 ca 06 3c 3c 6a af bc fe 92 17 bd
       0.044118196 0.008227087 -0.021412961 -0.037005417
000390 9a a9 9c 3c 1a be d2 bc 49 bb 4c 3d 2c 84 de 3c
       0.019123841 -0.025725413 0.049983297 0.027162634
0003a0 14 40 50 3a 15 11 09 bd 67 26 42 bd 44 d8 da 3c
       0.00079441187 -0.033463556 -0.047399905 0.026714452
0003b0 75 72 77 3d c3 0c 83 3c b3 c0 f5 3c 02 33 28 3d
       0.06041189 0.015997296 0.029999113 0.04106427
0003c0 76 cf 35 3d 5e fa 4b bd 87 a4 53 3d c2 d7 06 3d
       0.044387303 -0.049799316 0.051670577 0.032920606
0003d0 d5 27 1e 3d 30 da 53 bc 04 83 60 3c bc c1 ed 3c
       0.038612206 -0.012930438 0.013703112 0.029023044
0003e0 d9 b2 34 bd 40 8b fd bc de 73 17 3d aa fa 2d 3d
       -0.044115875 -0.030950189 0.036975734 0.04247538
0003f0 6c 91 4c bd 32 d1 4f bd d7 c1 0c 3d ab a4 ee 3c
       -0.049943373 -0.050736614 0.034364548 0.029131254

actor_fc3.weight f4 [128, 256]
000000 a4 4b c3 3c 06 9e ac 3c 9f 84 76 3d 64 ff b8 3c
       0.02383978 0.021071445 0.06018507 0.022582717
000010 5f 0a 38 3c a2 23 69 bd 12 76 31 bc 95 29 62 bd
       0.011232941 -0.056918748 -0.010831373 -0.055215437
000020 96 cf 13 3d e1 b3 03 3d 69 9d 27 3d 1e f2 64 bd
       0.03608664 0.032153968 0.040921602 -0.055894963
000030 e3 89 9a bd fb 67 96 bb 6d a0 9a 3d fb 35 3b 3c
       -0.07545831 -0.004590032 0.0755013 0.011426444
000040 ea 3b 2e 3d ee b0 56 bd fe 66 99 bd 4a cb cb 3c
       0.042537607 -0.052414827 -0.07490347 0.02487721
000050 1a 41 87 bb 0c a2 e2 3c 9c f0 87 3c 14 f3 52 3d
       -0.0041276338 0.02766516 0.016594224 0.05150135
000060 ef 2e ce 3c 1b 88 86 3c 23 59 b7 bc ec f8 15 3d
       0.025168864 0.016422322 -0.02238137 0.036614344
000070 15 0a 25 bc 2a eb 5d 3d dd 53 70 bc fa 1a 42 3d
       -0.0100732045 0.054179348 -0.014668432 0.047389008
000080 b2 e4 2c bd 24 c1 d7 3b d5 31 ed bc 3f 82 b8 3c
       -0.04221029 0.0065843035 -0.028954426 0.022523044
000090 de 46 25 bd bb 7a bd bc ea 39 0a 3d c6 40 0b bd
       -0.040350787 -0.023129812 0.033746637 -0.03399732
0000a0 1b 5e 21 bd 3d 92 5a bc 51 e4 92 3c 79 09 0a 3b
       -0.039396387 -0.01334053 0.017931135 0.0021062775
0000b0 28 88 3b bd 2c 2c 47 bd c7 ed 00 3d 0b 07 4b 3c
       -0.045784146 -0.04862611 0.031476762 0.012391816
0000c0 f0 42 7c 3c 23 54 33 3d ae 33 df bc 1b 06 d4 3c
       0.0153968185 0.04378141 -0.027246322 0.025881818
0000d0 92 1d 6a bd cd 36 7f bd d2 e7 60 3d e4 9e 2d bd
       -0.057157107 -0.06230812 0.05490858 -0.042387858
0000e0 82 12 e0 3c bf 56 be bb 5b fd d3 bc 28 ac 54 3d
       0.027352575 -0.005808681 -0.025877645 0.051921993
0000f0 64 cc 4f 3d df 19 a0 bc f2 13 78 3d 12 12 0d bd
       0.05073203 -0.019543586 0.060565896 -0.03444106
000100 f5 f7 8a 3d 77 55 56 3c 17 c2 ca 3b 70 6b 09 bd
       0.06785575 0.0130819 0.006187688 -0.033549726
000110 22 1d 8d 3d ac 62 d2 3b fd ba 2f 3d 23 59 c5 3c
       0.06890322 0.006420454 0.042902935 0.024090355
000120 32 a4 ae bb 89 2b 0a 3c 70 0c 27 3d 97 96 ca 3c
       -0.005329632 0.008433231 0.040783346 0.02473001
000130 9c 29 b1 bb 80 d4 d1 3c 6d 23 08 bd c9 91 98 bd
       -0.0054065716 0.025614023 -0.03323691 -0.07449681
000140 17 f3 cb 3a 66 8b 08 3b 68 3c 96 bc b0 59 17 bd
       0.0015560117 0.002083504 -0.01833935 -0.036950767
000150 4f 44 ea bc 48 d5 7e bd de 84 4c 3b 80 58 3a 3d
       -0.028597025 -0.06221512 0.0031207125 0.045494556
000160 62 a8 22 3d c6 2f 43 3d 83 ff 4f 3b 36 2e 11 3d
       0.039711364 0.047652982 0.003173799 0.03544446
000170 2a ba 27 38 c8 02 51 bd 03 f8 7b 3c f1 1d 89 3c
       3.998928e-05 -0.051028043 0.015378955 0.01673791
000180 c3 12 c8 3c a0 cd cf 3b ff 10 b6 bc ad 07 c5 bc
       0.024423009 0.006341651 -0.022224901 -0.024051512
000190 cb b1 1c 3d c0 e7 17 bc 20 bb 97 3b ec 78 9c bc
       0.038255494 -0.009271562 0.0046304613 -0.019100629
0001a0 7c 53 20 3d 1b 3a da 3b 32 c8 06 bd 85 0e b6 3c
       0.039142117 0.0066597587 -0.032905765 0.02222372
0001b0 ac c1 d6 3c e7 29 0f bc b7 b7 3e bb 66 b0 93 3c
       0.026215397 -0.008738018 -0.0029101202 0.01802845
0001c0 7a b3 b7 bb 35 e2 60 3d c8 11 c4 b6 1d d9 4d bd
       -0.005606112 0.054903228 -5.843325e-06 -0.050255883
0001d0 9f 06 67 bd 2d 0d 92 3c a3 94 0d 3b 36 b8 5e bd
       -0.0564028 0.017828548 0.0021603487 -0.054374896
0001e0 13 04 54 3d 46 63 2a bc ae 25 88 3c 60 c4 8f bb
       0.051761698 -0.010399645 0.01661953 -0.0043874234
0001f0 20 28 9d bd 51 57 7d 3d 6c 9e a8 3d 39 89 05 3d
       -0.07673669 0.06185085 0.082333416 0.03260157
000200 ec 90 55 3d d6 22 bf bc 2c 60 86 bd 52 3d ee bc
       0.05214016 -0.02333204 -0.06561312 -0.029081974
000210 74 95 25 bd 5c 99 90 bd c9 da 7c bc 6c 27 5b 3d
       -0.040425733 -0.07060501 -0.015433022 0.053504393
000220 0c 7e 59 bd 49 75 21 bc 0a 21 8d 3d 43 2a f9 bc
       -0.053098723 -0.009854623 0.06891067 -0.03041566
000230 63 8f 16 bd ba 40 12 3d a9 d4 56 3d 34 18 b7 bc
       -0.036757838 0.03570626 0.052448902 -0.022350408
000240 6f 0a dd bc f5 9c 89 bc b8 92 d3 bc 68 eb 06 3d
       -0.026982514 -0.016798476 -0.025826797 0.032939345
000250 2d 5d 20 bd be 8a 10 bc 42 1e 5e 3c 14 88 86 bd
       -0.03915136 -0.008822141 0.013557019 -0.065689236
000260 ea d0 cd bc 16 83 68 bd ca c6 32 3b c1 91 c5 bc
       -0.025124032 -0.05676564 0.0027279132 -0.024117352
000270 89 f2 73 3d 9c 29 10 3c 85 f9 9a bc f2 ef 2e bd
       0.05955747 0.008798983 -0.018917808 -0.0427093
000280 01 ab 35 3d 54 5c 7b bd 2f 0d 41 3d 40 df 6c bc
       0.044352535 -0.061367348 0.047131713 -0.014457524
000290 d6 46 1b 3d 49 9c c2 bc 65 fe 13 3d 56 63 be 3c
       0.03790935 -0.023756163 0.03613128 0.023240726
0002a0 1e 33 6e bd c8 63 00 bd dd 0a 0f 3d 6d 95 50 bd
       -0.058154218 -0.03134516 0.03492247 -0.050923754
0002b0 59 33 81 bd 44 d0 2d 3d dc 59 64 3d f9 18 1f bc
       -0.06308622 0.042434946 0.05574976 -0.009710544
0002c0 9e 0e 94 bc 55 d0 5b 3d f5 07 db 3c 91 b6 51 bd
       -0.018073376 0.053665478 0.026737193 -0.0511995
0002d0 1e 36 d6 bc 9a 91 32 bd 25 e7 2a bd 42 d1 59 3d
       -0.026148852 -0.043595888 -0.041724343 0.05317808
0002e0 cf 4d e1 bb 36 29 8e bb e2 66 a9 3c 6a e8 92 3a
       -0.0068757306 -0.004338409 0.020678941 0.0011208181
0002f0 c9 a0 0e 3d a0 fb 09 3d 47 73 52 bd 43 77 43 bd
       0.034821305 0.033687234 -0.05137947 -0.04772116
000300 83 49 b7 3c 39 de 61 3d fe dd 6b 3c 89 89 c7 3c
       0.02237392 0.05514357 0.014396189 0.024357574
000310 0f f5 1d 3d eb 3d cb 3c 26 dd 00 bd cc 08 32 bc
       0.038563784 0.024809798 -0.031460904 -0.010866355
000320 f7 1a ab bd 0a 83 ac 3c 36 e2 0f bd b6 13 05 3d
       -0.083547525 0.021058578 -0.03512784 0.0324895
000330 db dd 15 bd 51 21 4b 3c 5c 55 ba bc 0c b9 f8 3c
       -0.03658853 0.01239808 -0.02274578 0.030361675
000340 e6 4d 42 b8 89 af 4d bd 82 9a 52 bc c9 a7 b7 bc
       -4.6325753e-05 -0.05021623 -0.01285422 -0.022418873
000350 ee 57 16 bb a5 7a 75 3d 87 f7 8c 3c f8 1a 1b bd
       -0.0022940594 0.059931416 0.017207874 -0.037867516
000360 6e 57 3f bd db fd e8 3c e5 ec 35 bd e1 ed ca 3b
       -0.04671424 0.02844136 -0.044415373 0.006192908
000370 f0 01 58 bd 28 25 56 3c d9 43 84 bd 07 40 08 3b
       -0.052736223 0.013070382 -0.064582534 0.0020790116
000380 03 cb f4 bc ac b9 07 bd 16 f9 49 bd af 9b ee 3c
       -0.02988196 -0.033136055 -0.049309812 0.02912697
000390 b6 a5 96 3b 0f 53 09 3d dc 19 27 3c 21 4d a8 bc
       0.004597391 0.033526476 0.010199036 -0.02054459
0003a0 c2 98 8a 3c 90 5c 8d bd 20 a4 3a bd 56 b9 94 bd
       0.016918544 -0.069024205 -0.045566678 -0.072619125
0003b0 f7 fe b3 bc 8c 94 9e bb 6c ca 70 bd 6d 8c 7d bd
       -0.021972163 -0.0048394855 -0.058786795 -0.0619015
0003c0 dc f3 74 bd 10 a5 40 bd 11 6c 56 3d c5 dd d5 bc
       -0.059802875 -0.047032416 0.052349154 -0.026106725
0003d0 0a 38 d5 bc f6 44 e7 bc 21 29 6f 3c 9b 13 1f ba
       -0.026027698 -0.028231125 0.014597208 -0.000606829
0003e0 d8 68 2d 3c 89 c7 35 3d 4c b3 93 3b 90 9f 65 bc
       0.010584079 0.044379745 0.004507458 -0.014015093
0003f0 81 8e ba bc 2b 4d c3 bc 24 46 b6 3c 65 57 ee 3c
       -0.02277303 -0.023840507 0.022250243 0.029094407

actor_fc3.bias f4 [128]
000000 64 cc 45 3d 54 77 2a bd 54 5b 55 bd 38 d2 f7 3b
       0.048290625 -0.041617706 -0.05208905 0.007562902
000010 e3 9c bf bc 53 9c de 3c 5a 30 85 3d b3 16 2a bd
       -0.02339024 0.02717415 0.06503363 -0.041525554
000020 62 47 74 bd b7 62 80 3d 92 05 dd bc f4 81 89 bc
       -0.05963839 0.06268828 -0.026980195 -0.0167856
000030 aa 94 31 bd 20 5a 01 bd 36 d4 68 bb cb c1 9a bc
       -0.043354668 -0.03158009 -0.0035526878 -0.018891236
000040 f9 a7 17 3d 6d 1a ee 3c cc 3f 24 bd a8 95 d1 bb
       0.037025426 0.029065335 -0.040099904 -0.0063960142
000050 a1 60 54 3d 88 03 43 3c 97 27 2b 3d 01 a1 55 bd
       0.051849965 0.011902697 0.041785803 -0.0521555
000060 b0 e3 ee 3c f0 6e 94 bc 33 47 0f 3d 87 bc 07 bd
       0.029161304 -0.018119305 0.03498001 -0.033138778
000070 e0 e7 68 3c 72 d8 4d bc 1e bb c3 bb f0 5a 78 bb
       0.01421544 -0.012563812 -0.005973234 -0.0037896
000080 36 80 77 3d d1 af af 3a 36 ba f8 bb cf 2d 12 3d
       0.060425006 0.0013403838 -0.0075905574 0.035688218
000090 70 dc 22 3d f1 ed c3 bc 89 bb 81 bc f1 8b 46 bd
       0.039761007 -0.02391717 -0.015836494 -0.048473302
0000a0 2c 12 a5 bb 86 d5 59 bd d2 f6 8e 3c 8e ad b3 3c
       -0.0050375666 -0.053182147 0.017451677 0.021933343
0000b0 7e bf 75 bd 49 44 5a bd 06 21 d8 3c 7a 7a 81 3c
       -0.059997074 -0.053287778 0.026382934 0.015805472
0000c0 f9 1c a4 ba 63 18 30 3c ff aa 0c bc 13 15 90 bc
       -0.0012520842 0.010748002 -0.0085856905 -0.017588174
0000d0 f3 03 9b 3c 3a f7 56 3c 4f e7 41 3d c1 a2 04 bd
       0.018922782 0.013120467 0.047339734 -0.032381777
0000e0 64 e2 d6 bb f9 bc 10 3d 2e 87 15 3c 62 f7 22 bd
       -0.0065577496 0.03533647 0.009126468 -0.039786704
0000f0 98 5b 1e 3c 4f 6f 22 bd f1 cc 52 bd 72 78 23 3d
       0.009665392 -0.039656933 -0.05146498 0.039909787
000100 bb 0e 92 3d 8e b1 97 bc 1b 79 91 3c 14 af 5b bd
       0.07131716 -0.018517282 0.017757943 -0.053633764
000110 26 e4 f5 3b da 94 4e 3d 26 ae c8 3c 36 72 79 bd
       0.007504004 0.050434925 0.024497103 -0.060899936
000120 96 e3 88 3c 1b b0 0e 3d bc 27 8e bd e4 c5 15 bd
       0.016710084 0.034835916 -0.069411725 -0.036565676
000130 92 4f 0d 3d dc 9f 08 3d 16 41 5a bd 1c e1 42 3d
       0.034499712 0.03335558 -0.053284727 0.047577962
000140 c4 e2 3a bd 17 20 82 3d 30 4d 4e 3d 10 7e 4c 3d
       -0.045626417 0.06353777 0.05036658 0.04992491
000150 54 b5 ff bc 92 ec 2e 3d 8b c8 70 3d d4 47 d5 bc
       -0.031214394 0.04270608 0.058785003 -0.026035227
000160 26 44 02 3c 19 ec 53 bd 8a ad 66 3c 15 0f 8c bb
       0.007950818 -0.051738832 0.014079461 -0.004274259
000170 02 6f 19 3d 23 db 44 bd 9e 93 a9 bc 82 3b 03 bc
       0.03745938 -0.048060548 -0.020700272 -0.008009793
000180 06 28 9f 3c eb 62 9f 3c 5a 17 4b 3b b1 00 26 bd
       0.019428264 0.019456347 0.003098926 -0.040528003
000190 37 7c 1d bd f1 80 a5 bc eb 0b 7a 3c 2e 1a 69 3c
       -0.03844854 -0.020203086 0.0152616305 0.014227433
0001a0 c7 3b bc 3a 29 92 84 3c 63 14 48 3c 9a 42 6b 3d
       0.0014361077 0.016182976 0.012211892 0.057436563
0001b0 da 25 aa 3c 29 96 5b ba 65 a4 4d bd 65 36 23 3d
       0.020770002 -0.00083765626 -0.050205607 0.039846797
0001c0 69 a6 b7 bc 77 7d f0 bb cb d4 d0 3c bd ac 3e 3d
       -0.022418218 -0.0073391753 0.025492093 0.046551455
0001d0 d3 55 93 bc 7e e8 9c bc ea 98 f1 3c 2c be 3c bc
       -0.01798526 -0.01915383 0.02949186 -0.01151995
0001e0 1d 02 04 bd 4e 5a 51 bd 28 0c 67 bc e9 23 fb 3c
       -0.032228578 -0.051111512 -0.014102019 0.030656772
0001f0 b6 8c 25 3d bc 13 05 bc cb 9f 4d 3d 2d 14 6f 3d
       0.040417396 -0.008122381 0.05020122 0.05836885

actor_mu.weight f4 [4, 128]
000000 ac 69 7f ba e2 b5 58 bb 6e 64 f8 38 e1 0c 10 3b
       -0.00097432244 -0.0033067395 0.00011844268 0.0021980333
000010 17 6f 19 bb 30 8a d5 ba f5 cc 38 3b 9b c9 95 bb
       -0.0023412162 -0.0016291793 0.0028198336 -0.0045711524
000020 b9 8c 52 bc b7 f4 ee 3a e3 5e bd b9 f4 0c 32 38
       -0.012850934 0.001823089 -0.00036119585 4.245057e-05
000030 bb 87 10 3c 1f 43 af bb 5b a5 bf 3b 22 06 27 bb
       0.008821423 -0.0053485776 0.0058485693 -0.0025485833
000040 52 70 ca bb 5d 43 1b bb d4 e7 ef 3a a7 14 66 bb
       -0.0061779404 -0.0023691275 0.0018303343 -0.0035107525
000050 d3 0d 17 bb b3 d0 0a ba 21 56 94 3a 94 b5 e2 ba
       -0.0023049011 -0.0005295381 0.0011317172 -0.0017296546
000060 61 e7 10 3a d3 6c 33 bc c1 09 98 bb e9 9c 1e bb
       0.0005527642 -0.010951239 -0.0046398346 -0.0024202412
000070 e0 a1 f4 bb 1b c5 de 3a 1c f5 d1 3a 04 cd 86 3a
       -0.007465586 0.0016995998 0.0016018483 0.0010284488
000080 91 b3 d4 bb 9f 2f 8f b8 a3 ab 0e 3c 20 a4 bb ba
       -0.0064911325 -6.8276415e-05 0.008707914 -0.0014315881
000090 62 b1 8c 3a e8 38 5d 3b 35 69 3b b9 09 67 6e bb
       0.0010734017 0.0033755843 -0.00017872902 -0.0036377332
0000a0 f5 30 1b 3b 05 60 d6 b9 96 ad 35 3b fc 4e 2d bc
       0.0023680304 -0.000408888 0.0027721873 -0.010577913
0000b0 2a ff da 3a bb 5d 56 3a b6 a7 15 bc 3e 6b 3e bb
       0.0016708125 0.0008177419 -0.009134224 -0.002905562
0000c0 ca 98 3f bc 3a 10 17 bb a4 89 e6 3b 50 1d 4f 3b
       -0.011694143 -0.0023050443 0.007035451 0.0031603165
0000d0 c0 ab 4c ba e5 a7 a9 39 c8 5d fc bb 8c 0d b2 3a
       -0.0007807575 0.00032359283 -0.0077016093 0.001358436
0000e0 e3 f5 4e bb 16 bc b4 3a d4 e3 81 bb 9e 2f 6b 3c
       -0.0031579665 0.0013788964 -0.003963927 0.014354615
0000f0 c5 dc 04 bb ec 66 08 3b e2 0d 4a ba 9c 4b 8e bb
       -0.002027319 0.00208133 -0.0007707757 -0.0043425094
000100 5b 6d 86 bb bf 66 b4 b9 fb b3 9c bb 8c 04 c6 39
       -0.0041023917 -0.00034408827 -0.0047821975 0.0003776889
000110 57 6a b9 bb 13 d1 3d 3b 00 8d dc 33 e9 22 0d bb
       -0.0056584287 0.002896373 1.0270196e-07 -0.00215357
000120 69 71 b4 37 12 58 fc ba 5c d5 b1 b9 5e 2f 4a bb
       2.1510483e-05 -0.0019252321 -0.00033919036 -0.0030850987
000130 d6 57 b0 ba 9f 18 4c 3b e2 91 22 bb 46 12 05 3a
       -0.0013453912 0.0031142605 -0.0024806191 0.00050762703
000140 71 10 48 38 31 5f 86 3a 21 bd b6 bb be ec a1 bb
       4.7699028e-05 0.0010251758 -0.005576745 -0.004941552
000150 c2 42 f0 38 cb 32 f6 bb 02 c2 58 3b 98 84 22 bb
       0.000114565264 -0.007513379 0.0033074622 -0.002479827
000160 1c 08 3a 3b d6 d4 53 bb bc 8a 92 3b 02 b8 37 3b
       0.0028386181 -0.0032322905 0.004472105 0.0028033261
000170 49 1b f0 3a 74 01 28 bb ca 8f f6 3b dd 09 e3 3b
       0.0018318678 -0.0025635632 0.007524465 0.006928666
000180 6b 1e 6f bb 2a 69 b6 ba eb b4 ba 3b 2b 21 4b 3b
       -0.0036486636 -0.0013916839 0.0056978366 0.0030995111
000190 93 1b 26 3c 8e 1f 29 3b b7 65 4c 3c c8 f2 89 3a
       0.01013841 0.0025806162 0.012475423 0.0010524625
0001a0 81 19 59 3b b8 7e 03 bb 34 ab cd 3a c5 84 bb 3b
       0.0033126774 -0.0020064544 0.0015691281 0.0057226145
0001b0 99 b3 6a 3b 26 89 16 bb fb ee 82 bb 22 51 bd 3a
       0.0035812615 -0.002296993 -0.003995774 0.0014443735
0001c0 74 f6 b7 b8 b3 2f e2 b8 8d db 21 3a 69 99 ca 3b
       -8.7720255e-05 -0.000107854044 0.0006174378 0.0061828387
0001d0 51 8a d2 3a 77 91 c0 bb ee 35 d5 3a cc 9e bb 3a
       0.001606295 -0.0058767158 0.0016266683 0.0014314293
0001e0 4a d5 73 ba 5d a3 14 bb 7b 3e fd 3a c9 72 99 bb
       -0.0009301497 -0.002268038 0.0019320989 -0.004682873
0001f0 14 5f 3a 3b ae 82 df 3b 4e 69 8d 39 74 0a 84 3b
       0.0028438019 0.006820998 0.00026972074 0.0040295664
000200 88 03 69 bc fc e0 0a bc 93 60 39 bc d1 15 8f bc
       -0.014222033 -0.008476492 -0.011314529 -0.017466458
000210 73 6a a6 bb 04 91 cd ba 9d 54 4d 3b c9 f8 03 3c
       -0.0050786077 -0.0015683477 0.003133095 0.0080549205
000220 18 f4 cf bb df 47 2d 3b fe ba 44 b9 09 8d 06 b9
       -0.006346237 0.0026440544 -0.00018761677 -0.00012831776
000230 32 70 15 3c 7b 95 e4 3a 37 c7 9d bb d2 21 02 3b
       0.009120988 0.0017439568 -0.004815008 0.0019856584
000240 35 4a cd 3b 9e 2d 88 3b 98 80 f0 3b 22 cb d2 bb
       0.0062649497 0.0041558286 0.0073395483 -0.0064329067
000250 1f 58 ed bb f4 05 dc 39 97 11 7d 3b aa e3 81 bb
       -0.007243171 0.00041966105 0.003861522 -0.0039639072
000260 3e 36 8e 3b 61 80 a5 ba c6 78 35 3b fd 3b b8 bb
       0.0043399623 -0.0012626761 0.0027690395 -0.0056223855
000270 81 2d 02 3c 56 bf 18 3c 69 98 1d 3a d6 f4 69 bb
       0.007945419 0.009322962 0.00060117856 -0.0035698912
000280 8f 79 94 bc 9e 64 b9 bb 7d 54 7b 3c 50 80 db bb
       -0.01812437 -0.0056577465 0.015339968 -0.0066986457
000290 88 fc 0b bb 13 9f c4 3b ee 52 b6 bb 63 5a 10 bc
       -0.0021360237 0.0060004084 -0.005564085 -0.008810612
0002a0 2f cd b2 3b 04 fd c0 bb 3f a5 06 3c f5 58 35 3c
       0.0054565887 -0.005889537 0.008218109 0.011068572
0002b0 b4 63 32 bb 13 ba 9e bb 51 e5 4d 3c c8 ca a9 ba
       -0.0027220072 -0.004843959 0.01256688 -0.001295411
0002c0 14 40 cb bc b4 8a 14 3b a7 3f 2e 3c 02 b0 29 3b
       -0.024810828 0.0022665681 0.010635293 0.0025892262
0002d0 69 a3 f7 3b ca 15 92 bb 5a 33 c0 bb 17 d3 3a bb
       0.007557322 -0.004458164 -0.0058654966 -0.0028507167
0002e0 09 79 4b bc cb 12 a6 bb 0f b8 87 bb 85 63 9d 3c
       -0.012418994 -0.0050681583 -0.0041418145 0.019212494
0002f0 27 29 13 bb ae 10 e6 3a 78 c6 46 3c 12 9a a3 ba
       -0.0022454949 0.0017552578 0.01213228 -0.001248183
000300 d4 72 16 bc 2f 26 4e 39 83 40 70 bc 96 e1 e5 ba
       -0.009182651 0.00019659915 -0.014663818 -0.0017538543
000310 7f 3b 8f bb 4c db f4 3b 28 6a 29 3c 38 d3 c3 ba
       -0.004371106 0.0074724313 0.010340251 -0.0014940267
000320 88 da 1b bb 6c 7c 37 bb c3 05 62 bb bf 33 f6 3a
       -0.0023781378 -0.0027997745 -0.0034488298 0.0018783732
000330 04 3f 45 39 d7 4e 52 bc 79 c4 f8 bb 4e 78 b4 3b
       0.00018810859 -0.01283618 -0.0075917807 0.0055075055
000340 f0 16 89 3a 5b 74 e3 3b ff a8 92 3b d2 f3 3d bc
       0.0010459106 0.006941361 0.0044757123 -0.011593776
000350 6e 59 3f 3b d2 9f 03 3c 8d 75 88 3c c0 6c 8d bc
       0.0029197591 0.00803371 0.016657615 -0.01726377
000360 d0 73 57 3b e7 74 08 bc 46 b9 33 3c ef 94 e7 3b
       0.0032875426 -0.008328653 0.010969466 0.007067315
000370 86 2f 44 3b b6 d6 0a bc d1 b1 47 3c 11 ca 7b bb
       0.0029935553 -0.008474043 0.012188391 -0.0038420002
000380 7d 42 b0 ba 95 c2 24 bb b2 72 ca bb 44 9d a0 bb
       -0.001344755 -0.0025140394 -0.0061782235 -0.00490156
000390 aa 02 41 3c 83 24 0b 3c 24 31 fe bb 25 70 2e 3c
       0.01178042 0.008492592 -0.007757323 0.0106468545
0003a0 6c 27 6b 3b b0 5a 3c ba 66 79 b2 3c b1 41 91 3c
       0.0035881652 -0.00071851443 0.021786403 0.01773152
0003b0 07 e8 ae ba 23 bd 06 bc 4f a8 f4 3b d2 0b 9e bc
       -0.0013344296 -0.008223805 0.007466353 -0.019292746
0003c0 e2 d1 8c ba 2a 40 8e bb ed 98 a5 3b 17 19 bb ba
       -0.0010743702 -0.004341145 0.0050536306 -0.0014274445
0003d0 33 74 e7 bb 2b 20 a2 3c 9c b9 c9 3b 57 29 73 3a
       -0.0070634126 0.01979073 0.0061561596 0.00092758745
0003e0 12 7b 3a 3b d3 bf a6 ba 60 2f 44 bb 63 71 1f bb
       0.0028454703 -0.0012721963 -0.0029935464 -0.0024329058
0003f0 4d 5e b8 bc 37 fc bd 3c 8b d8 72 bb 94 ac 34 3c
       -0.022505904 0.023191554 -0.003705534 0.011027474

actor_mu.bias f4 [4]
000000 7a ab 9c bd b2 f6 6c bc bf 0c 80 bd 10 0a cd 3d
       -0.07649894 -0.014463114 -0.06252431 0.10011685
