Python/solver_model.pth (torch, 962579 bytes, 17 tensors)

actor_fc1.weight f4 [256, 79]
000000 4a 05 59 bd 19 b2 39 bd 3d ce 0d 3d ec 23 6c 3d
       -0.05298356 -0.045335863 0.034620512 0.057651445
000010 a9 86 9c bd 30 7c 89 3d ac 50 a2 bd 6d 20 da bc
       -0.07642872 0.0671314 -0.07925543 -0.02662679
000020 9d 77 16 bc 00 40 bb bd e4 62 55 3c 7f 32 74 bd
       -0.0091837915 -0.091430664 0.013024066 -0.05961847
000030 f9 2d b2 bd c9 b8 c0 3c 0e 6f 90 bd 4e 71 e0 3d
       -0.08700175 0.023525612 -0.07052432 0.10959111
000040 5a c3 c4 3d a5 44 bd 3d 0e 85 b3 3d 5b 44 45 bd
       0.09607573 0.092416085 0.087656125 -0.048160892
000050 e6 26 a1 3c 54 2d ae bd bf 4f 28 bd e6 56 54 3d
       0.019671869 -0.085047394 -0.041091677 0.051840685
000060 08 5c be 3d fe 4e ca bd 52 63 ba 3d 40 8f 8e 3a
       0.09294897 -0.09878348 0.09100975 0.0010876432
000070 35 64 8a bd cc e5 02 bc 5f da 8b bd e5 25 83 bd
       -0.06757394 -0.007989358 -0.0682876 -0.06403712
000080 ce d9 0d 3c 3a 24 93 bd eb d8 3c bd 80 ff a7 bc
       0.008657886 -0.07184644 -0.046105307 -0.020507574
000090 e5 29 5f bd 30 03 39 bd 37 89 6b 3d c0 4f a8 3a
       -0.054483313 -0.045169055 0.057503905 0.001284115
0000a0 78 15 a5 3d 65 ed b2 bd 0b 12 9f bd 31 a3 00 bd
       0.080607355 -0.08736686 -0.07767113 -0.03140563
0000b0 e3 35 04 bd 60 f4 d9 bc 97 9c e7 3d 89 86 07 3d
       -0.032277953 -0.026605785 0.11309164 0.033087287
0000c0 f0 e0 f6 3c bd e0 16 3d 8d 12 15 bd e0 fb b3 3c
       0.030136555 0.03683542 -0.036394645 0.02197069
0000d0 67 e0 ab 3c dd f2 bf bd 52 ba 2a bd c0 32 0c 3d
       0.020981027 -0.09372494 -0.041681595 0.034228086
0000e0 64 b4 b7 3d 66 a3 43 bd 2e 85 cf 3d d9 d2 76 3d
       0.08969954 -0.04776325 0.10132824 0.060259674
0000f0 a8 ed 36 3c 79 fa d0 bd 0d a7 9a 3d 46 e5 8f bd
       0.01116506 -0.10204024 0.07551394 -0.07026152
000100 55 ad 85 3d d1 5f bd 3d bf 31 a5 3d c6 39 da bc
       0.06527201 0.09246791 0.08066129 -0.026638877
000110 52 43 08 ba 6a 26 a6 bd 82 8f 9e 3d fe 5f 88 3d
       -0.000519802 -0.08112796 0.07742216 0.06658934
000120 e5 06 9c 3d 6d 70 e3 bd 7a 0c fa 3c cc 59 9b bc
       0.076185025 -0.11105428 0.030523527 -0.018963717
000130 2f a5 c0 bd 24 fc 3e bd c4 7f ea 3d 78 ab 17 3d
       -0.09406506 -0.04662718 0.114501506 0.03702876
000140 7a 3b 53 bc 8e 12 6f bc e0 f8 b6 bc 05 98 ba bd
       -0.012892598 -0.014591826 -0.02233547 -0.09111027
000150 03 e8 d0 bc b5 a5 d5 bd b1 80 90 3d 39 88 cc 3d
       -0.025501257 -0.10431997 0.07055796 0.0998692
000160 1c c4 54 3d b2 a7 d7 3d 3d c4 08 bd f0 01 df 3c
       0.051944837 0.10530032 -0.033390272 0.027222604
000170 f3 94 ff 3b b5 94 a6 3d 9c 4c bb bd 21 d1 cb 3d
       0.0077997386 0.08133832 -0.091454715 0.099519975
000180 70 15 db bd 9e c3 17 bd 21 ea 87 3d 34 9d a9 3d
       -0.10697448 -0.03705179 0.066364534 0.08281937
000190 50 c4 7a 3d fa 73 c6 bd de 19 ef bd 30 08 98 bc
       0.061222374 -0.096900895 -0.11674856 -0.018558592
0001a0 df d4 ca bd d3 89 e2 3c ac 7f 6e 3d 47 94 9e bd
       -0.09903883 0.02765361 0.058227226 -0.077431254
0001b0 23 1e cb 3d d8 17 15 bd 31 fd 79 bd 59 79 8a 3d
       0.099178575 -0.036399692 -0.061032478 0.067614265
0001c0 f4 67 2a 3d 3d 88 bd bc f7 16 c7 bd fa 3e d9 3d
       0.041603044 -0.023136253 -0.09721177 0.10607715
0001d0 b6 67 87 bd 6f 05 4a bc 38 7f bb 3d 32 a2 ab bd
       -0.06611578 -0.012330397 0.091551244 -0.08380546
0001e0 1f 2b 76 bd e6 ba 71 bd 44 21 51 3c 24 5b 58 3c
       -0.060099717 -0.05901613 0.012764279 0.013205323
0001f0 28 de d9 bd c7 b2 bc 3d 20 52 a1 b8 54 ed 88 bd
       -0.10638076 0.092137866 -7.692375e-05 -0.06685892
000200 3f cb 48 bc 10 22 af 3c 9a 52 89 bd 66 22 d5 3d
       -0.012255489 0.021378547 -0.06705208 0.104069516
000210 b0 83 2e 3d fe 66 2f bd c5 f9 bf 3d 49 79 b8 3c
       0.042606056 -0.04282283 0.09373812 0.02251877
000220 d0 2b dd 3d 88 9e 7e 3c d7 d1 d8 3d ac 19 0c 3d
       0.10799372 0.0155407265 0.10586899 0.03420417
000230 19 d9 b8 bd ab 7a ae 3d 8a e2 11 bd b2 b3 b4 3d
       -0.09025783 0.08519491 -0.035616435 0.08823337
000240 ff ad d3 3d 3c ae 40 bc 54 10 01 bd f3 fc 5b bd
       0.103359215 -0.011760291 -0.031509712 -0.053708028
000250 50 2f 3c bc 18 8f c1 3d 64 c4 bf bc ef da 6e 3d
       -0.01148589 0.09451121 -0.023409076 0.05831426
000260 53 51 17 bd 87 8f b7 bd 3e fd e3 3d 31 b1 ad bd
       -0.03694279 -0.089629225 0.111322865 -0.08481062
000270 10 28 94 3b 6d a1 64 3d 18 85 44 bd 01 31 be bd
       0.0045213774 0.05581801 -0.04797849 -0.092866905
000280 a7 cf a4 3d 48 7e 75 3d ba 32 4d 3d 54 4c 7c 3d
       0.08047419 0.059934884 0.050097205 0.06159623
000290 a5 15 98 bd e4 47 b8 bd d6 38 78 bd 80 df da 3c
       -0.07426003 -0.08998087 -0.060601078 0.026717901
0002a0 4f 08 c0 3d ca 97 da 3d bc 52 05 3d ef 43 1d bc
       0.09376585 0.10673483 0.032549605 -0.009598716
0002b0 51 95 c7 bd b0 78 0e 3d af d0 a0 3d 88 22 f8 bc
       -0.09745277 0.034783065 0.07852303 -0.030289903
0002c0 d0 f5 7f 3c d1 6c 98 bd e7 df 98 bd 78 19 05 bc
       0.015622571 -0.0744263 -0.07464581 -0.008123748
0002d0 4e d5 e5 bc 7a 35 a1 3b 54 e8 36 bd 17 82 8f bd
       -0.028055813 0.004919705 -0.04465516 -0.070072345
0002e0 1e 51 10 3d e2 5c c3 3d 71 37 12 bd 93 fc 93 bb
       0.03523361 0.095392 -0.035697404 -0.004516193
0002f0 3a d8 89 bd e8 a2 0e 3d b1 5b cc bd 00 b1 bd 3d
       -0.06730695 0.03482333 -0.09978426 0.09262276
000300 44 73 a7 bd 86 b0 4c bc 40 e4 a3 3d 4b 99 bc bc
       -0.08176282 -0.012493258 0.080025196 -0.023022315
000310 81 b3 e7 3c 40 d7 1d bb 8e d0 63 3b a3 07 5d bd
       0.028283836 -0.0024084598 0.003476176 -0.05396236
000320 62 d1 bb bd 4d 65 de 3d b6 be c5 bd a4 5d bd bd
       -0.09170796 0.10859165 -0.09655516 -0.09246376
000330 63 a4 82 3d 18 29 18 3d 8c f9 8d bc 86 5f 29 3c
       0.063790105 0.037148565 -0.017330907 0.010337716
000340 48 35 67 3d 40 60 cc ba 30 12 e6 3d cb 32 85 3d
       0.056447297 -0.001559265 0.11233938 0.065038286
000350 2c 4d 4b 3d 0a 70 42 3d 2b e8 c1 bc 60 5c ca 3c
       0.049634144 0.04747013 -0.023670277 0.024702251
000360 1e 31 8c bd df 21 78 3d a0 74 19 bd e6 a0 8b 3d
       -0.06845306 0.060579177 -0.037464738 0.06817798
000370 c3 a2 3b 3d 19 c7 87 bd af 07 64 bd f9 52 e2 bd
       0.04580952 -0.06629772 -0.05567139 -0.11050982
000380 18 76 b4 3c 41 1e a2 3d 29 a9 c5 bd d6 e8 8d 3d
       0.022028968 0.07915927 -0.09651405 0.069291756
000390 a0 0a dd bc f0 ef 04 3c 74 aa 1a bc 2b 4b c9 3d
       -0.026982605 0.008113846 -0.009440053 0.0982879
0003a0 51 10 68 bd 86 e6 94 3d 42 ef 2d bd a0 eb c8 3d
       -0.056656186 0.07270531 -0.042464502 0.09810567
0003b0 b1 2b f8 3c 48 36 51 bc 07 75 4d 3c b8 99 23 bb
       0.030294271 -0.012769289 0.0125401085 -0.002496345
0003c0 62 f6 82 bd cf 71 e8 bc 1d f9 aa bd 8f d8 de bd
       -0.0639465 -0.02837458 -0.08348296 -0.10881149
0003d0 ad a3 9b 3d 31 44 ad bd 80 66 a0 3d 9b fe 86 bd
       0.07599578 -0.08460272 0.0783205 -0.06591531
0003e0 25 30 06 3d 5c fd a0 3d 9f 44 d0 bd f7 b5 e1 3c
       0.032760758 0.078608245 -0.101693384 0.027552588
0003f0 ac ee 4e 3d 0d cb 87 bb db 6a 00 bd 38 32 e6 3d
       0.050520584 -0.0041440786 -0.031351905 0.11240047

actor_fc1.bias f4 [256]
000000 9c 6a 26 3d 74 61 20 bd fc 84 8c 3d a8 20 eb bd
       0.040629014 -0.03915544 0.06861302 -0.11480838
000010 04 c7 5d bd 16 c6 61 bd c4 38 d6 bd c0 9d a6 3d
       -0.054144874 -0.05512055 -0.10460046 0.08135557
000020 03 cf b9 3d be f3 2c 3d 8a 35 29 3d 9b 31 82 3c
       0.090726875 0.04222464 0.041310824 0.015892794
000030 f6 39 bb 3b 75 19 cb 3b 6b b3 34 bd ae da ec 3c
       0.0057136966 0.006198103 -0.04411642 0.028912868
000040 27 f2 c7 3d fc 6c 2d bd ec 52 70 3d 48 d3 a6 3b
       0.09762984 -0.042340264 0.05867283 0.0050911047
000050 1d a7 57 3d 8b b6 5c bd a9 26 09 bc 03 fa 9d 3d
       0.052649606 -0.053885024 -0.008371034 0.077137016
000060 5e 4a be 3d b4 d1 ac 3d ad 5a 6c bd 2f 09 e0 bd
       0.09291528 0.08438435 -0.057703663 -0.10939252
000070 31 d6 91 3d 16 00 e9 bd f4 3a c7 bd 83 d1 dc 3d
       0.07120932 -0.113769695 -0.09728041 0.10782149
000080 0a a3 76 bd f6 a7 7a bb 0d bc dc bd 4c 39 2c bd
       -0.06021408 -0.0038247085 -0.10778055 -0.04204683
000090 e0 e8 99 3d 24 c8 e1 bc b0 97 9f 3d 2b f4 d5 3c
       0.075151205 -0.027561255 0.07792604 0.026117405
0000a0 9c 55 89 bd fd d0 01 3d 2d 7a ca 3d 0b 0d dc bd
       -0.06705782 0.031693447 0.098865844 -0.10744675
0000b0 46 7e 94 bb e4 ef 05 bd 29 3a bc 3d d7 83 5b 3d
       -0.0045316545 -0.03269948 0.09190781 0.05359253
0000c0 ee ec 86 bd d8 c4 91 bd 58 ee 8f bd 37 ee e1 bd
       -0.065881595 -0.07117623 -0.07027882 -0.11031764
0000d0 6d 29 c7 bd 2d a7 d9 3d 14 67 59 3d 2a fa da bc
       -0.09724698 0.106275894 0.05307682 -0.026730616
0000e0 f8 54 44 3c fb 00 cb bd a7 a7 b9 bd 79 74 d9 bd
       0.011983149 -0.099122964 -0.0906518 -0.106179185
0000f0 6d 1e d3 3b 78 93 ba bd 9b c5 36 bd 2b f2 d0 bc
       0.006442836 -0.09110159 -0.044622045 -0.0255061
000100 65 06 6f 3d ca b5 5a 3c a0 8a d5 bc 1b 3a 58 3d
       0.058355708 0.013349006 -0.026067078 0.05278979
000110 f2 ef c0 bc 1f f5 da 3d b4 ad 51 bd 1e 6b c4 bd
       -0.023551915 0.106912844 -0.051191047 -0.095907435
000120 42 33 80 3d d8 33 b6 3d 5b 66 7b bd 6f 9d cf bc
       0.06259777 0.08896607 -0.06137691 -0.025343625
000130 49 18 7a bd 6c 52 a5 39 89 b4 c0 3d c4 3e e5 bc
       -0.061058316 0.00031532662 0.09409434 -0.02798403
000140 a7 ae ac 3d f5 ef 91 3c d0 62 89 bd f2 b1 f8 bc
       0.0843175 0.017814616 -0.067083 -0.030358288
000150 64 c3 0f 3c 74 e2 78 3d 56 63 d6 3d 63 0a 06 bc
       0.008774612 0.060762838 0.104681656 -0.008181187
000160 7e 21 9c 3c 9a e3 8c bd 96 ea 60 bd 56 86 d3 3d
       0.01905894 -0.06879349 -0.05491122 0.10328357
000170 0e ab 8a 3d de d2 99 3d b2 a0 16 bd 2f d9 1e bd
       0.06770907 0.07510923 -0.036774345 -0.03878134
000180 9e 87 21 bc fd 20 38 bd 04 7f 0d 3d 04 d1 73 3d
       -0.009858994 -0.044953335 0.03454496 0.059525505
000190 c6 74 64 bd 4e 97 8c 3d af 82 61 3d ce 50 c4 bd
       -0.055775426 0.068647966 0.05505627 -0.09585725
0001a0 a8 7c 23 bd c5 45 b0 bd 08 de 81 bd de 22 09 3d
       -0.039913803 -0.086070575 -0.06341177 0.033480518
0001b0 de bb 2d 3d 5f 50 cf bc ab b0 ba 3d c8 c7 a7 bc
       0.042415492 -0.025306879 0.09115728 -0.020481005
0001c0 4f ee da bd a7 6d 01 bd a0 11 25 3d 8a e2 cd bd
       -0.10689985 -0.031598713 0.04030001 -0.100529745
0001d0 07 e9 0f 3d 50 7a 49 bc f5 5e 67 bc f3 71 ee bc
       0.03513434 -0.012297228 -0.014121761 -0.02910707
0001e0 40 6f d1 3d f7 0e 19 bd f0 e5 8b bd 6c 34 16 3d
       0.102262974 -0.037367787 -0.068309665 0.036671087
0001f0 82 26 72 3d b7 78 d4 bd 19 71 a8 bb 54 19 f5 bb
       0.059118755 -0.10374587 -0.0051404354 -0.007479826
000200 45 82 a7 3c 6c 83 63 bd a2 bf 58 3d 22 82 af bc
       0.02044786 -0.055545256 0.05291713 -0.021424357
000210 68 a0 6b bd b2 43 65 3d 94 58 da 3d d1 96 67 bd
       -0.057526022 0.055972762 0.10661426 -0.056540314
000220 b2 21 19 bc ba 63 a5 3c 8d 6c 52 3d 66 e0 d6 3d
       -0.0093464125 0.020189155 0.051373053 0.10492019
000230 b3 1e de 3b 40 b3 ae bd 13 f1 66 bd 80 d2 ee bc
       0.006778562 -0.08530283 -0.05638225 -0.029153109
000240 28 00 7c bd 98 bf a2 bd 26 ab ea 3c 59 06 b0 bd
       -0.061523587 -0.079467 0.028646063 -0.08594961
000250 b7 15 11 3d 6d a7 0c 3d 9c aa bb 3d dc 03 b1 bd
       0.0354211 0.034339357 0.091634005 -0.08643314
000260 c1 8b 0f bd 2a 08 ad 3d 4e ae 5b 3c c1 9a 2e 3d
       -0.03504539 0.08448823 0.013408257 0.042628054
000270 ab f8 c6 3d 58 c8 5f bd 61 0f 99 3d 04 31 f1 bc
       0.097153984 -0.054634422 0.074736364 -0.029442318
000280 41 a0 91 bd e5 b7 e2 3b 2a f6 8e bd ea f0 de 3d
       -0.07110644 0.0069188946 -0.06980546 0.108857945
000290 08 15 aa 3d 41 12 b6 bc f0 cb d7 bd 58 2c 01 3d
       0.08304793 -0.022225501 -0.10536945 0.03153643
0002a0 00 e4 1a bb 86 bf b9 3c 03 4e 7b bc 50 ab 6b bd
       -0.0023634434 0.022674333 -0.015338424 -0.057536423
0002b0 78 9f cc 3d d8 21 bd bc 43 c5 6c bd cc 73 b5 bd
       0.09991354 -0.023087427 -0.05780531 -0.08859977
0002c0 c3 06 c1 3d 6f d6 30 bd c6 e2 94 bc 0f 64 5d bd
       0.09425118 -0.04317325 -0.01817454 -0.0540505
0002d0 d3 25 14 bd 80 55 cd bd ca 0c cb 3d e5 b8 9c bd
       -0.036168884 -0.100260735 0.09914549 -0.07652453
0002e0 43 d0 b9 bd 5a 6c 9f bd 81 90 5f bd bf bf 80 3b
       -0.09072926 -0.07784338 -0.05458117 0.003929108
0002f0 c6 c6 dd bd 7a 62 b7 bd 44 f8 a1 bc 19 70 a2 bd
       -0.10828929 -0.0895433 -0.019771703 -0.07931537
000300 47 57 b9 bd 77 7e ec bd cf f9 dd 3d 9c 51 bf ba
       -0.0904985 -0.11547559 0.10838663 -0.0014596465
000310 6d 21 4b 3c 34 b2 ce 3d 0e 3b a4 bd 22 f8 a4 3d
       0.012398106 0.10092583 -0.08019076 0.0805514
000320 bc ef 0c bd c9 67 7a bb d8 19 ba 3d f0 82 b1 bd
       -0.034408316 -0.0038208833 0.090869606 -0.086675525
000330 2e ae 71 bc 7c 52 ce bd 09 e0 6a bd 1a 08 b7 3d
       -0.014751 -0.100743264 -0.057342563 0.08937092
000340 99 eb ac bd 33 3c a8 bd fd 2c b0 bd 5b f3 6d 3d
       -0.08443374 -0.08214607 -0.08602331 0.05809341
000350 ab 9b c4 3d 4a 78 44 3d fc 09 e8 3c 3c a8 29 bd
       0.09600004 0.04796628 0.028325073 -0.041420206
000360 96 62 86 3d b9 59 c5 3d 96 7b a1 bd 4f 9d 9b 3d
       0.065617725 0.09636254 -0.078849 0.075983636
000370 aa 59 9d bd 0b 37 cc 3d bc 3e c0 3d f1 22 35 3d
       -0.07683118 0.09971436 0.09386966 0.044222776
000380 75 59 3b bd af 94 c0 3d 73 ba 98 3d 12 35 de bd
       -0.04573961 0.09403359 0.07457437 -0.10849966
000390 58 a3 e6 3d 25 52 be 3d e7 de 61 3d dc 21 b0 3d
       0.11261624 0.092930116 0.055144217 0.08600208
0003a0 e9 c5 97 3d 6e 49 8c 3d 62 55 de bd 8b 02 7d bd
       0.07410795 0.06849943 -0.10856129 -0.061770003
0003b0 29 4a 81 3d 79 ae 86 3d 42 38 07 bd bb 0d 0d bd
       0.06312973 0.06576247 -0.033012636 -0.034436923
0003c0 d9 8c 88 3d 5a d8 e9 bd c2 6f ad bc 70 fb db bd
       0.066674896 -0.11418219 -0.021171454 -0.10741317
0003d0 b3 8e ca bd 72 9d 5d bd 81 ff de bd 66 37 40 bb
       -0.09890499 -0.05410523 -0.10888577 -0.0029329895
0003e0 ec 55 a4 bd 5d 85 a7 bd 49 6f e5 bc c8 69 d8 bd
       -0.08024201 -0.08179734 -0.028007166 -0.10567051
0003f0 48 ef 0f bd 5b 0b 84 3d 7c 5e c2 3d 62 86 1b bd
       -0.035140306 0.064474784 0.09490678 -0.037969954

actor_fc2.weight f4 [256, 256]
000000 3d 71 81 3c eb 83 4f bd 94 c6 18 3d 69 ce 51 bd
       0.015801067 -0.050662916 0.037298754 -0.05122224
000010 3a 45 e5 bb 51 7b 5e bd df b1 33 bd e2 d6 34 bd
       -0.006996778 -0.054316822 -0.043870803 -0.04415024
000020 82 08 ae bb 32 5e e9 3c 37 31 2e 3d d8 73 4a 3d
       -0.005311073 0.028487299 0.042527404 0.049426883
000030 7e 0f 46 bc ae 40 05 3d 9f 05 50 3d 00 f6 2e bd
       -0.012088655 0.032532386 0.05078661 -0.042715073
000040 97 cb 59 bd d4 6d 5f bd 4b 4f 3e bc 52 96 44 bb
       -0.053172674 -0.0545481 -0.011615585 -0.0029996824
000050 22 95 57 bd e6 42 f8 3b f7 dd 37 bb a3 49 47 3d
       -0.05263246 0.0075763343 -0.0028055885 0.04865421
000060 44 c4 ad bc ff 26 04 3d cb 0f c6 39 f1 19 6e 3d
       -0.02121175 0.032263752 0.0003777727 0.05813021
000070 97 0d 0a bc eb c4 56 bd f6 19 e6 3b bc 86 09 3d
       -0.008426092 -0.05243389 0.0070221378 0.03357576
000080 3b 9d 29 3d 61 91 5c bd 8f 47 fb bb 03 b7 41 3d
       0.041409712 -0.05384958 -0.0076684426 0.047293674
000090 c5 2b 2e bd 25 29 48 bd 58 87 69 bd 7f 53 bb bb
       -0.04252221 -0.048867363 -0.05701384 -0.0057167406
0000a0 8f 95 42 3c c8 ee 43 bd d2 26 6e bd 0d 78 d7 3c
       0.011876478 -0.04783514 -0.05814249 0.026302362
0000b0 b2 24 1f bd 5a 9b 0e 3d 85 64 8d 3c d2 12 19 3d
       -0.038853355 0.034816124 0.017259846 0.037371464
0000c0 05 a6 6c bd d7 84 3f bd d9 3f 75 bc 35 01 49 bc
       -0.057775516 -0.046757545 -0.014968836 -0.012268354
0000d0 c9 66 d7 bc 08 0d 33 3d fa 78 a8 bc dc 0f 6e bc
       -0.026294129 0.0437136 -0.020565499 -0.014530148
0000e0 89 87 9c 3b 06 2a d9 bc 68 9a 31 3d ae 91 fb 3c
       0.0047768992 -0.026509296 0.043360144 0.030709114
0000f0 a3 b6 41 bd 26 0b 57 3d 11 b1 e4 bc 38 91 6b bc
       -0.047293317 0.052500866 -0.027916463 -0.014377885
000100 83 d3 1f 3d 2a 5b c6 bc 65 ab 61 3d ed d1 26 3d
       0.039020073 -0.024213392 0.055095095 0.040727545
000110 cb 2d 80 bd b9 24 e7 bb 83 b2 52 3d 99 bf 8b bd
       -0.06258734 -0.007053938 0.051439773 -0.06823654
000120 e3 f1 7c 3d 82 fb 68 3c 18 86 e6 3c 15 71 e4 3c
       0.06175412 0.01422012 0.028140113 0.027885953
000130 e9 cb 0f bc 80 2d 4a 3c ec fd 20 bd 14 05 77 3b
       -0.008776643 0.01233995 -0.03930466 0.0037692236
000140 14 bf da 3c f6 a5 0e bd 7b a8 04 bd 0e 89 34 3d
       0.026702441 -0.03482624 -0.032387238 0.044076018
000150 10 1e 91 bc 3f b0 91 3d f5 1f 12 bc 11 63 4a bc
       -0.01771453 0.071136944 -0.008918752 -0.012352721
000160 02 70 45 3d 03 e3 61 3c 78 e7 c0 bc 18 82 01 bd
       0.048202522 0.013787034 -0.023547873 -0.031618208
000170 fc 0d ec bc 62 45 3a bd 58 84 41 bd 73 0f 49 3d
       -0.028815262 -0.045476325 -0.047245353 0.049087
000180 2a 03 52 3c 39 7e 99 3c d5 80 86 bd f7 01 10 bd
       0.012818137 0.018736945 -0.065675415 -0.035158124
000190 c1 21 a1 3c 2a c3 64 3c 11 b5 7f 3c fc 43 05 3d
       0.019669415 0.013962546 0.015607134 0.032535538
0001a0 67 e7 c8 3b 8a fd 24 3d 7f dd 1e 3d 0e 1b 37 bd
       0.006131101 0.040280856 0.038785454 -0.044703536
0001b0 be 6f 6a bd a7 1a 5d 3d 8b 0c 0c 3d 3b 24 83 3c
       -0.057235472 0.053980496 0.03419165 0.016008487
0001c0 c3 79 4c 3d b7 35 25 bc f7 e1 86 bc 69 31 ab 3c
       0.04992081 -0.010083607 -0.01646517 0.020897584
0001d0 db c6 80 bd 2a 72 4b 3c cd 30 1f 3d 9c 98 aa 3c
       -0.06287929 0.012417356 0.0388649 0.020824723
0001e0 70 dc b7 3c 1c ea a2 3b f9 89 44 3b 0b 70 15 bd
       0.02244398 0.0049717557 0.0029989465 -0.036483806
0001f0 ee e2 5a bc 12 f8 64 3d 9a 1c 0a 3d 92 ae 0d 3d
       -0.013359768 0.05590064 0.033718683 0.03459031
000200 be 3f 0e 3d ce 70 4d bd 57 51 07 bd 4d 01 cb bc
       0.034728758 -0.050156407 -0.033036556 -0.024780894
000210 cc 26 78 3d eb e5 5d bd 26 b1 01 bd 0c 22 65 bd
       0.060583875 -0.054174345 -0.031663083 -0.055940673
000220 df b2 9f bc 9f aa 19 bc 3f ca 3f 3b b0 83 4e 3d
       -0.019494472 -0.009379058 0.0029264835 0.050418556
000230 14 88 0c bc e2 98 50 3d f5 2a f0 bc 60 34 ae bc
       -0.008577365 0.05092705 -0.029317359 -0.021265209
000240 31 db b4 bc 9f 05 0e 3d fe 59 07 bb 99 0a 2f 3d
       -0.022077175 0.03467333 -0.0020653005 0.042734716
000250 fe fb 9f 3c 4d a8 60 bc c0 39 2f ba d7 71 45 bd
       0.019529339 -0.013712001 -0.00066843256 -0.04820427
000260 9e 1d dd bc ea cd 5e bc 1a 6a 62 3d c0 4d 77 bc
       -0.026991662 -0.013598898 0.055276968 -0.015094221
000270 85 4f f9 3b 0d 7c 36 bd 18 cb c4 3c e1 8f 4c 3d
       0.0076083564 -0.044551898 0.024022624 0.0499419
000280 af 00 8d 3d 4a cc 53 bd 04 85 7f bc 36 8f 15 bd
       0.06884896 -0.051708497 -0.015595678 -0.03651353
000290 3d c5 61 3d f4 eb 10 3c 82 7a 4b bd 1e c6 63 3d
       0.05511974 0.008845318 -0.04967738 0.05560886
0002a0 34 cb 99 3b a0 ea 3e bd 60 32 40 bd c8 fd 3a bc
       0.004693413 -0.046610475 -0.04692304 -0.011413045
0002b0 fd c9 c7 bc 81 4d f1 bc d0 9e da 3c 5c 1e 5d 3d
       -0.024388308 -0.029455902 0.026687056 0.05398403
0002c0 f7 ee c4 3c 5f f8 c1 3c 7c 16 02 bd 7d 31 a3 bc
       0.024039729 0.023678003 -0.031759724 -0.019921059
0002d0 61 cb a8 3c 82 b2 ff 3c f6 1d 61 3c b0 92 62 bd
       0.020604791 0.031213049 0.013740053 -0.055315673
0002e0 c8 a7 46 bd 74 eb 7a bb 90 44 aa bc 84 9e 29 3d
       -0.048499852 -0.0038287314 -0.020784646 0.041410938
0002f0 10 81 97 3c 40 bb 2b bc bc 30 2d bc 80 28 a3 bc
       0.018494159 -0.010481656 -0.010570701 -0.019916773
000300 80 55 8a 3c 14 ce 4f bc ff 87 a9 3c 78 c8 b2 3b
       0.016886473 -0.01268341 0.02069473 0.0054560266
000310 74 ed 5b 3d 86 00 eb 3c b1 e5 b7 3c 08 c1 1c bd
       0.05369325 0.028686773 0.022448393 -0.038270026
000320 a6 d5 83 3c 81 5b 06 3d d1 01 69 bd ac 9a 5c 3d
       0.016093086 0.03280211 -0.056886498 0.053858444
000330 18 4e 85 bd 89 a0 7e bd b4 ae 72 bd 16 94 3e bd
       -0.06509036 -0.062164817 -0.05924864 -0.046527945
000340 74 58 4d 3d 50 db 55 3d 34 92 28 bd bd 3e 48 bc
       0.050133184 0.052211106 -0.041155055 -0.012221989
000350 2e 3a 29 bd 6c 77 52 3d ab f4 8d 3d e8 7e 5f bd
       -0.04131525 0.05138342 0.06931432 -0.054564387
000360 44 51 a8 3c df a9 9c bb a3 ae 76 3d 13 6b 2a bd
       0.020546563 -0.0047809924 0.06022514 -0.04160602
000370 37 b7 f2 bc ec 85 0d 3d 46 d1 64 3d 54 72 3a bd
       -0.02962838 0.034551546 0.05586364 -0.045519188
000380 a4 ed 8d 3c 06 35 67 3d c6 98 12 bd dd bb 47 3d
       0.01732523 0.05644705 -0.035790227 0.048763145
000390 4b 8b 84 bc da 8e 42 bd cf 91 d9 3c 48 c9 99 bb
       -0.016179701 -0.047499515 0.026558785 -0.004693184
0003a0 fe 5a 61 bd 28 63 28 bd 09 70 1b bd c6 9b 52 3b
       -0.055018418 -0.041110188 -0.037948642 0.0032136305
0003b0 ed 11 38 3d 33 ab 4f bd 91 3b e1 bb 41 f6 ab 3c
       0.04493897 -0.050700378 -0.006873556 0.020991446
0003c0 49 6c 41 bc 16 53 b7 3c 66 10 66 bb da 0d 12 bd
       -0.011805602 0.022378486 -0.003510499 -0.03565774
0003d0 fd 23 72 bd df 5d 43 bd 63 31 bc bb b9 88 cc 3b
       -0.059116352 -0.047696944 -0.005743192 0.0062418845
0003e0 9d b5 02 3d d6 5b 4e bd 4e 8f 4a bd e2 eb b7 3b
       0.03191148 -0.05038055 -0.049453072 0.005612836
0003f0 54 e3 3c 3c 64 2b 4b bd 09 1d 88 bc cd 17 72 bb
       0.011528809 -0.049601927 -0.016615408 -0.0036940456

actor_fc2.bias f4 [256]
000000 49 67 53 bc 57 a4 41 bd 27 7f 2a 3d 7b 6d 6a bc
       -0.012903043 -0.047275867 0.04162517 -0.014308329
000010 aa 3f a4 3c 6a d1 1b bd 15 5a 16 bd 33 98 e9 b9
       0.020049889 -0.03804151 -0.036707003 -0.0004455462
000020 8f cb 19 bd 27 71 a7 3c 05 a7 0c 3d c4 5d af bc
       -0.037547644 0.020439697 0.03433897 -0.021407016
000030 fd c6 bb bc f2 d5 73 3d 1d 08 3d bd 46 09 a6 bc
       -0.022922033 0.059530206 -0.046150316 -0.020268094
000040 ba 57 6d 3d 8b 17 26 bd ed 49 76 bd 11 c4 60 bd
       0.05794499 -0.040549796 -0.060129095 -0.054874483
000050 63 8b f3 bc a8 0a ef 3c 52 94 a3 3c 58 0f 8d 3c
       -0.02972955 0.029179886 0.019968186 0.01721923
000060 0c b7 31 3d 1d 24 37 3c c7 b4 cc 3c 88 3d 7e 3d
       0.043387458 0.011178044 0.024988545 0.0620704
000070 8a 2c 42 bd d9 25 0e bd 6e 90 2d bd a3 75 51 bd
       -0.047405757 -0.034704063 -0.042374067 -0.051137578
000080 34 67 62 3c c2 26 da 3c c6 87 09 bd 2a 43 3d bd
       0.013818551 0.02662981 -0.03357675 -0.04620663
000090 3d d6 e2 3b 17 96 8a 3b bf 81 8c b9 0d 01 a4 bb
       0.006922512 0.004229318 -0.0002679955 -0.005005008
0000a0 a3 9d 08 3d 4e f8 e9 3c 07 7c c3 bc a5 ff 09 3d
       0.03335346 0.028560784 -0.023862852 0.033691067
0000b0 49 25 0c bd c7 12 67 bd f3 f9 2c 3d 4b a8 4a bd
       -0.034215245 -0.05641439 0.042230558 -0.049476903
0000c0 9d 5f 35 bc 31 6c 09 bd d5 70 46 3d 84 f5 e0 3c
       -0.011070159 -0.033550445 0.04844745 0.027460821
0000d0 e7 1d 3e 3c b3 d0 40 3d 13 52 36 3d e5 1c 68 bd
       0.011603809 0.04707403 0.044511866 -0.05666818
0000e0 8c f6 89 3c 92 3e 08 bc 6d 20 ff ba 0e 2f 34 bd
       0.016841196 -0.008315699 -0.001946462 -0.043990187
0000f0 80 dc 4b bd a4 f8 36 3d be 8a d5 bc 83 7b 8e bb
       -0.049770832 0.044670716 -0.026067134 -0.00434822
000100 15 9c 23 3d 90 70 0a bd 51 72 9e 3c 30 8e 3f 3d
       0.039943773 -0.033798754 0.01934162 0.04676646
000110 b8 00 3a bd 25 bc 4a 3d 4c ae 00 3d af d1 81 3d
       -0.04541084 0.049495835 0.031416222 0.06338822
000120 cf 50 ab 3a d5 0d 7a 3d 5b 17 11 bd a0 29 c6 bc
       0.0013070347 0.061048348 -0.035422664 -0.02418977
000130 fd 1b 1e 3d 4f 6d 37 bd 90 05 68 bd 14 64 4b bd
       0.03860091 -0.04478198 -0.05664593 -0.04965599
000140 5c e7 46 bb 1a b1 0f 3d 31 00 d7 bc 5e 51 5f bd
       -0.0030350303 0.035081007 -0.026245208 -0.054520957
000150 71 e6 0e 3d f6 dd fe 3c 5e 1e ec 3c 01 6b 43 bc
       0.034887735 0.031111699 0.028823074 -0.011927367
000160 4c 66 28 bd 16 c2 89 bb 84 8c 4c 3c 77 84 83 bd
       -0.041113183 -0.004204045 0.012484673 -0.0642175
000170 2d 13 67 3d 91 e8 55 bc 45 f8 2b bd 1b df 28 3d
       0.05641477 -0.013055936 -0.041984815 0.041228395
000180 97 ec 54 3d ff be 48 3d 3f dc 27 bd 4e ed 46 3d
       0.051983442 0.049010273 -0.040981527 0.048566155
000190 38 f9 8a 3c 68 cd 21 3c 11 f2 8a 3c 2a 1f 67 bd
       0.01696454 0.009875633 0.01696113 -0.056426205
0001a0 30 89 86 3d 8e ca c0 bc f3 b1 52 3d ff b6 53 3d
       0.06569135 -0.023534086 0.051439237 0.05168819
0001b0 c8 56 2f bc 94 c3 ea 3b 8a 85 36 3d 43 a6 b9 bc
       -0.010701843 0.007164428 0.044560947 -0.022662288
0001c0 98 ba 46 bd 42 fc 1e 3d 43 5a c4 bc 0b 7e 53 bd
       -0.048517793 0.03881479 -0.023968821 -0.051633876
0001d0 1e 26 6f bd bd e9 55 3d eb 61 ce bc 3c a8 62 bd
       -0.05838596 0.052224863 -0.025193175 -0.055336222
0001e0 9d 21 b6 3b e0 04 91 3c 13 1d 17 3b 9b 5f 32 3d
       0.0055582062 0.01770252 0.00230581 0.043548208
0001f0 78 b5 e2 39 76 11 3d 3d 9e 4f bd 3c 85 e1 5f 3d
       0.00043241284 0.04615923 0.023109253 0.05465843
000200 53 af 31 3d f0 aa 1d bd cd 5a e9 3b 54 3f aa 3a
       0.043380093 -0.038493097 0.00712142 0.0012988844
000210 07 d3 dc 3c 9f 90 3f 3d 3d 66 4b bc e6 aa 23 3d
       0.026956094 0.04676878 -0.012414512 0.039957903
000220 24 53 19 bd 62 1c 34 bc 9e ab 38 3c 03 04 4f bd
       -0.037432805 -0.010993095 0.0112713855 -0.050540935
000230 0b 26 01 3c c7 86 c8 3c 4d c4 89 3b d6 2a 65 bc
       0.007882605 0.02447833 0.004204309 -0.013987264
000240 e7 ea 18 3d 10 6d 00 bd f2 d2 4d bc 30 3d be 3c
       0.037333395 -0.03135401 -0.0125625 0.023222536
000250 c5 64 2a 3c 86 49 f3 bc 04 94 1e 3d 75 83 88 3c
       0.010400002 -0.029698145 0.038715377 0.016664246
000260 a4 ee 4f bd 2e 69 e3 3c ff 99 b2 3c 5a 70 58 bd
       -0.050764695 0.027760115 0.021801947 -0.05284152
000270 26 9b 51 3d f6 21 57 3d 6a f1 ce bc d9 39 4b bd
       0.05117335 0.052522622 -0.0252616 -0.049615715
000280 33 26 e6 bc e7 46 19 3d d0 41 18 3b ba f9 64 bd
       -0.028094387 0.037421133 0.0023232587 -0.05590222
000290 86 c5 5f bd cb 6b 1b bd 25 99 61 3d dd 95 e6 bc
       -0.054631732 -0.037944596 0.05507769 -0.028147632
0002a0 c5 3a 41 3d 95 37 e7 bc d9 11 5d bc 70 f1 dc bc
       0.047175188 -0.028224746 -0.013493025 -0.026970595
0002b0 07 30 3d 3d f5 47 00 bd 08 52 1d 3c af d0 2c 3d
       0.04618838 -0.031318624 0.009602077 0.042191204
0002c0 cc d6 70 3d 1b 8b f1 3b a9 28 ef 3c f3 99 3c bd
       0.058798596 0.007371319 0.029194193 -0.046045255
0002d0 5f 66 32 3d e6 02 2d 3b 39 88 66 bc ff e5 be bc
       0.04355466 0.0026399433 -0.014070564 -0.02330303
0002e0 d0 92 18 bd 08 89 40 3d f8 d4 34 bd 38 c7 59 bd
       -0.037249386 0.047005683 -0.044148415 -0.053168505
0002f0 81 36 24 3d 8b ce 4f bd 46 05 5e 3c 1e 1f 47 bd
       0.04009104 -0.050734084 0.013551062 -0.04861366
000300 1f 73 a6 bc 0f 5b 22 bd 16 9f bf bb 46 65 0a bd
       -0.020318566 -0.03963762 -0.005847822 -0.033787988
000310 e7 18 00 3d 77 8c 7b bd 6e 7e 47 3d be f9 dd 3c
       0.03127375 -0.061413255 0.048704557 0.027096625
000320 8d b4 0a 3c 88 71 9f 3c 4f 53 eb 3c bb 87 03 3d
       0.008465898 0.019463316 0.028726248 0.032111865
000330 7e 40 a4 3b 1d 1b c3 3c 40 6d 12 bc 36 db c6 bb
       0.005012571 0.02381664 -0.00893718 -0.0060686124
000340 49 85 14 3d 83 bb 1d 3d 4b 83 4b 3d fa 6f 45 3c
       0.036259923 0.038508903 0.049685758 0.012050623
000350 13 5e 1c 3d 37 cd 84 bc 6f d7 7c 3c 6e ec 1b bd
       0.038175654 -0.016211135 0.015432223 -0.038067274
000360 c9 8c 41 3b a5 21 11 3d 65 5a 20 3d 2a 1b 6e 3d
       0.0029533377 0.035432477 0.039148707 0.058131374
000370 f2 e6 a7 3c 04 d3 15 bd 8a cb 34 3d 86 d5 4b bb
       0.020495865 -0.036578193 0.044139422 -0.0031102612
000380 f8 fd 72 3d f9 bf 0a bd ea 3b da bc be ca 5e bd
       0.059324235 -0.033874486 -0.026639897 -0.05439257
000390 3a e8 ba ba 15 47 28 bd a6 b2 6f bd cb a6 1a 3d
       -0.0014259883 -0.041083414 -0.05851998 0.037756722
0003a0 bf 4f 12 bd 06 d9 54 3d 14 19 11 3c 29 f8 71 3d
       -0.035720583 0.051964782 0.008856077 0.059074555
0003b0 44 aa e3 bc 40 d2 02 bd af 33 84 bc c3 25 0b bc
       -0.02779115 -0.03193879 -0.016137926 -0.00849289
0003c0 69 42 35 bd c3 bc bf bc 43 77 5a bd 37 2c f0 bc
       -0.044252787 -0.023405438 -0.053336393 -0.029317958
0003d0 e4 4c 5e bd 15 1b 12 3d 2b 94 1b 3d 02 10 86 bc
       -0.054272547 0.03567036 0.0379831 -0.016365055
0003e0 c2 aa b9 3c 52 ee 1c bd d5 5a 71 3c cd dd 8c bc
       0.022664431 -0.038313217 0.014731129 -0.017195607
0003f0 83 62 c1 3c f2 a6 c3 bc e6 8b b9 3c 8a fc 83 bc
       0.023606544 -0.023883317 0.022649717 -0.016111631

actor_fc3.weight f4 [128, 256]
000000 3d e1 f4 bc e9 52 23 3c e5 15 a5 bc 63 16 54 bb
       -0.029892558 0.009968498 -0.020152042 -0.0032361976
000010 9f 66 80 bc 3f a8 64 bd ce c3 3d bd da 0d 44 3d
       -0.015673934 -0.055824514 -0.046329312 0.047864772
000020 bd 94 1d bc a9 9a da 3c b3 dd 80 bd cb 52 38 3d
       -0.0096179815 0.026685076 -0.06292286 0.045000833
000030 53 79 af 3c 1c f5 78 3b e8 49 c5 bc 09 21 2f 3c
       0.021420157 0.0037987893 -0.024083093 0.010689029
000040 3f e6 e5 bc f3 49 6b 3d 8b 6a d9 bb 9f 87 03 bd
       -0.028063891 0.05744357 -0.0066350154 -0.03211176
000050 45 03 05 3b ed b1 a8 3c 9d 0a 8a bc 35 13 6b 3d
       0.0020296138 0.020592654 -0.016850764 0.057391364
000060 c8 e8 00 3c b7 e4 82 3d 74 4d 35 3d e1 73 97 bc
       0.007867999 0.0639128 0.04426332 -0.018487873
000070 0e f7 cd bc 9c b7 5a bd 8c a9 c5 bc 3a fd 97 3c
       -0.025142219 -0.05339776 -0.024128698 0.018553365
000080 58 1d 36 3d be 07 23 bd a3 6f 4d 3d e0 34 05 bd
       0.044461578 -0.039802305 0.050155293 -0.03252113
000090 22 db 30 bd c9 41 b0 3c 5b fe 22 3d f5 e2 3d 3c
       -0.04317773 0.021515744 0.039793354 0.011589755
0000a0 b4 d2 81 3c 9b 0b 96 3b 45 ac 67 bd d7 71 13 3d
       0.015847541 0.00457902 -0.056560773 0.035997238
0000b0 e6 76 18 bd 7d 82 43 3d f2 40 0b bd 33 8c 63 bd
       -0.037222765 0.047731865 -0.033997484 -0.055553626
0000c0 7f bf 48 3d 2b e9 dc bc 99 12 cd bc 28 ef e2 3c
       0.04901075 -0.026966652 -0.025033282 0.02770193
0000d0 8e 6b 37 3d 41 68 33 3d 1f a9 6d 3d ea 33 72 3d
       0.044780307 0.043800596 0.058022615 0.05913154
0000e0 fe 26 8f 3c 13 ba 5c bd 0e 92 d4 3c 2d 32 78 bc
       0.017474648 -0.05388839 0.02594855 -0.015148682
0000f0 73 fd 1d bb ca b3 75 3d 70 c1 fd 3c 83 7a 7d 3d
       -0.0024107366 0.059985913 0.030976027 0.061884414
000100 6c ae 4b 3d c5 3f 4b 3d 2c 44 4d 3c 03 fb 84 bd
       0.04972689 0.049621362 0.0125284605 -0.06493189
000110 1a e2 4a bd e3 9e 5f bd 2a 31 a4 3c d7 54 55 bb
       -0.049532034 -0.054594886 0.020042975 -0.003255179
000120 8f 05 23 3d 43 60 6a bc cf e0 17 bc 28 ae 57 3c
       0.039800223 -0.014305177 -0.009269907 0.013164081
000130 e3 de 41 bd d9 da 08 3d aa c3 74 bd 8e d3 66 bd
       -0.047331702 0.033411834 -0.059756912 -0.056354098
000140 25 cf 2c bd d6 dd 73 3c e1 8e 01 3c df d9 77 bd
       -0.042189736 0.014884433 0.0079076 -0.060510512
000150 4d 93 c5 bb e4 a5 dc 3c 8b ee be bc d9 4c e5 3b
       -0.0060295225 0.026934572 -0.023307106 0.0069976863
000160 93 3c 4f bd f0 9a 1b 3d d5 98 23 3c 76 a7 e5 bc
       -0.050594877 0.037989557 0.009985168 -0.028033953
000170 b9 06 b9 3c 43 ee 5f 3d db 59 f1 3b 20 fa 43 3d
       0.022586213 0.054670583 0.007365448 0.04784596
000180 69 e2 04 3c 14 d4 ba 3b dc ed 5a 3b 74 23 7a 3d
       0.008110621 0.005701551 0.0033405935 0.061068967
000190 f5 69 fa bc a1 66 50 bd c8 ef 46 3d 07 05 1c 3d
       -0.030568102 -0.050879125 0.048568517 0.038090732
0001a0 b6 84 01 bd c3 06 04 3d 42 2e 29 bd b3 34 1c 3d
       -0.031620704 0.03223301 -0.04130388 0.038136195
0001b0 66 a2 99 bc 98 f1 4a 3d d7 ab 31 3d b4 1a 33 3d
       -0.018754195 0.049546808 0.04337677 0.043726638
0001c0 18 d8 00 bd 6e 0d 07 3d b1 35 e6 3c 83 4e 3b bd
       -0.031456083 0.032971792 0.028101774 -0.04572917
0001d0 da c3 39 3c 80 51 37 3d df 0e ab 3c fe a9 df b9
       0.011338199 0.04475546 0.020881115 -0.0004266053
0001e0 b5 88 fe 3c 71 ed 77 bd f8 b2 94 bc 14 7b 6f 3d
       0.031071046 -0.060529176 -0.018151745 0.058466986
0001f0 96 90 18 bd ba 94 67 bd c1 22 0f 3b f0 31 0e 3d
       -0.037247263 -0.05653832 0.0021840783 0.034715593
000200 08 2b 11 3d ef fd 75 3d 54 c0 3f 3d 43 ec 90 3b
       0.03544143 0.060056623 0.046814278 0.004422696
000210 08 fb 74 bd d3 4e 22 3d 59 db 44 bd 70 a4 9c 3b
       -0.059809715 0.039625954 -0.04806075 0.0047803447
000220 58 ea 36 bc c8 f8 12 3d d4 63 ef 3c ad f1 10 3d
       -0.01116427 0.035881788 0.029222406 0.03538673
000230 05 3f 2d 3d d4 ad 65 3d c4 76 77 3c 4e b0 58 bd
       0.04229643 0.05607398 0.0151039995 -0.052902512
000240 13 aa f0 3c 41 2e 46 bd f5 bb dc bc db b6 3e 3d
       0.029377973 -0.048383955 -0.026945094 0.046561103
000250 4d 85 d4 bb 9d 41 01 bd 36 88 a5 3c d0 05 09 b9
       -0.0064856173 -0.031556714 0.020206552 -0.00013067503
000260 83 a3 31 bd 3d 7c 47 3d 2b 4f 3b 3d 82 c5 75 3d
       -0.043368828 0.048702467 0.045729797 0.06000281
000270 08 6d 75 3d ed e5 61 bd da 0f 47 bc 3d 54 c2 bb
       0.059918433 -0.055150915 -0.012149775 -0.005930452
000280 06 59 89 bc dc 07 75 3c a7 82 e7 bc a9 42 5d 3d
       -0.016766082 0.014955487 -0.028260542 0.05401865
000290 50 84 0c bd 12 b0 80 3c ef 4f 11 3d 7f 43 e9 bc
       -0.03430587 0.015708957 0.03547662 -0.028474567
0002a0 ef 88 67 bd c8 2b 7d 3d ab 47 b2 bc 70 c7 d4 bc
       -0.056527074 0.06180933 -0.02176269 -0.025974005
0002b0 1a 65 45 3d ae 09 40 3d cc 26 41 3d 94 ad 3b 3d
       0.04819212 0.04688423 0.04715614 0.045819834
0002c0 8e 94 e3 bc 6c cb f5 bc a6 ae 94 39 64 f8 1e 3d
       -0.027780797 -0.030004226 0.00028358883 0.038811103
0002d0 44 fa fe 3c 89 78 45 3d e6 8d 2e bc 01 df e3 3c
       0.031125195 0.048210654 -0.010653948 0.027816297
0002e0 c2 df 41 bd 4f 88 95 3c 6a d0 26 bd 69 b3 07 3d
       -0.047332533 0.018253474 -0.040726103 0.033130083
0002f0 7a 84 d8 3c c7 7f 19 bd 9b 1d ca 3c fe 82 ef 3b
       0.026430357 -0.037475374 0.02467232 0.0073093167
000300 18 11 42 bd 94 63 ac 3c ef 5e dd bc bb 6f 3f 3d
       -0.047379583 0.021043576 -0.027022807 0.046737414
000310 2f f3 c4 b8 ea af 0b bd 1f 1d 4c bc 64 a3 92 3c
       -9.391305e-05 -0.03410331 -0.012458115 0.017900176
000320 12 de 1d 3d 97 f3 6b 3d d9 2d a8 3c 61 ba 06 bd
       0.03854186 0.057605352 0.020529674 -0.03289259
000330 04 25 1a 3d e4 8c 22 3d 87 62 05 3d 9e 20 46 bd
       0.037632957 0.039685145 0.032564666 -0.04837095
000340 5c ff d0 3c 1e 5f 8f bb 67 88 2c bd 39 e0 8f 3c
       0.02551239 -0.0043753525 -0.04212227 0.017562972
000350 89 b9 15 3d 82 8b 3a bc eb 55 81 bd 6c 11 c2 3c
       0.036553893 -0.0113858 -0.06315216 0.023689948
000360 e7 12 49 bd 26 d8 d9 3c 9f cf 1b bd 68 06 93 3b
       -0.049090292 0.026592325 -0.0380398 0.0044868477
000370 c1 1a e6 bc 49 78 63 bd 02 5a a7 bc bb 59 58 bd
       -0.02808893 -0.055534635 -0.020428661 -0.05281995
000380 36 30 24 3d 40 7c 1f 3c 4c 43 aa 3c 53 e9 02 3d
       0.04008504 0.009734213 0.020784043 0.031960797
000390 46 d8 e3 bc ce 18 76 bc 90 c9 75 3b 1e cf e1 3c
       -0.027813088 -0.015020562 0.0037504174 0.027564581
0003a0 70 7a 12 3d de c7 04 3c 91 79 aa 3c 0e 9c 70 3c
       0.035761297 0.008104293 0.02080992 0.014685644
0003b0 6c 9b 0e bd de 59 78 bd 27 ea 57 bd 0d a4 2e bd
       -0.03481619 -0.06063258 -0.05271354 -0.04263692
0003c0 23 5c cc 3b 4c f0 67 bd 41 de 84 3d 5e 90 57 bd
       0.0062365695 -0.05662565 0.06487704 -0.052627914
0003d0 eb 9c fa 3a 60 68 13 3c 59 01 b2 3c dd 70 85 3d
       0.0019120252 0.008997053 0.021729158 0.065156676
0003e0 01 9c 5b bc 33 b3 4c bd 7e 30 89 bc 36 4b 5f 3d
       -0.013403893 -0.049975585 -0.016746756 0.054515086
0003f0 83 a0 54 bd db f6 29 bd b3 a1 ba bc 73 6a 85 bd
       -0.05191089 -0.041495185 -0.022782182 -0.06514444

actor_fc3.bias f4 [128]
000000 76 83 09 3d b5 e5 bd 3c ed 1e 06 bd e5 ef d4 bb
       0.033572637 0.023180822 -0.032744337 -0.006498324
000010 91 3f ca bc c3 f1 65 bd df db 2f bd 67 59 82 3d
       -0.024688514 -0.056138765 -0.042934295 0.063647084
000020 a2 d1 4d 3d f8 f0 83 bb a4 7c be bc 9f 29 ac 3b
       0.05024875 -0.0040265284 -0.023252793 0.005253985
000030 03 ac 62 bd dc 7b da bc 47 12 35 3d a6 40 71 bd
       -0.055339824 -0.026670389 0.044206884 -0.058899544
000040 37 6f 4c 3d 21 57 e0 bb 8b 9a 32 bd ce 19 bb bc
       0.04991075 -0.006846324 -0.043604415 -0.022839453
000050 a4 0e a1 bc 26 eb 58 3d ac ac 22 bd 99 34 64 bd
       -0.019660302 0.05295863 -0.039715454 -0.055714224
000060 99 0e 43 3d 7c 07 38 bb 4d 4e 50 bd de 0c c5 bc
       0.047621343 -0.0028080633 -0.050855923 -0.024053987
000070 f2 a4 7a bd 02 52 91 bc 8a e0 a0 3c 71 99 6e bd
       -0.06119246 -0.0177393 0.019638319 -0.058251802
000080 52 7d 3a 3d ce 95 52 3d 83 02 3c bb 14 6d 63 bd
       0.04552967 0.051412396 -0.002868802 -0.055523947
000090 de 63 8f 3b 42 b2 5e 3d a9 56 74 3d 1c aa 9b bc
       0.004375919 0.05436922 0.059652958 -0.019002013
0000a0 e9 af 71 3d 7d 73 80 3d e9 e7 5d bc 2c 18 ac bc
       0.05900565 0.06272028 -0.013544061 -0.02100762
0000b0 8e ff 4b 3d 67 62 78 3d 22 15 6c bc 16 1f 10 3d
       0.049804263 0.06064072 -0.014409335 0.035185896
0000c0 a4 4d 72 3d aa e4 11 bd 4a 20 96 bc 74 c9 b3 3c
       0.059156075 -0.03561846 -0.018325943 0.021946646
0000d0 c8 c1 64 3d ec c3 7a bd 3a 99 b5 bc 8a d0 15 3c
       0.055848867 -0.061222002 -0.02216779 0.009143958
0000e0 fc 26 52 3d e3 05 22 bd 18 43 13 bd fe cb 37 3d
       0.05130671 -0.039556395 -0.035952657 0.044872276
0000f0 53 c4 37 bd 97 fb e7 bc 79 88 e9 3c f3 64 0d 3d
       -0.044864964 -0.02831821 0.028507458 0.0345201
000100 ff 55 a9 bc b0 af 6e bd 87 5f 5b bd ea 2b 00 ba
       -0.020670889 -0.058273017 -0.0535579 -0.0004889356
000110 c9 cd 43 bd a7 c9 2b 3d 53 de 0b 3d 91 29 bb 3a
       -0.047803674 0.041940358 0.03414757 0.0014279356
000120 a1 a2 99 bb 1f e6 58 3d 98 ff 69 3d b5 a6 a4 3c
       -0.0046885763 0.052953836 0.05712852 0.020099023
000130 06 39 71 bb be 4c 2b 3c 90 49 6a 3c f5 d9 ee bc
       -0.003680767 0.0104553085 0.014299765 -0.029156664
000140 25 59 e0 3c e1 22 a1 bc 20 ee 65 bd c8 ec 2d 3c
       0.027386257 -0.019669952 -0.056135297 0.010615535
000150 e2 99 7e 3d 79 cc 70 bd a4 22 9c bb 6d ee 70 3c
       0.062158473 -0.05878875 -0.0047648717 0.014705283
000160 48 74 38 3c 79 59 a6 3c 38 1f ec 3c 83 4b 2a 3d
       0.011258192 0.020306336 0.02882348 0.04157592
000170 05 8d 95 bb 66 71 98 3c c6 c6 4f 3d 1a b4 4e bd
       -0.00456393 0.01860876 0.050726674 -0.050464727
000180 d6 bb e7 3b 51 38 17 bb 6b bc 27 bd 92 50 5a bc
       0.0070719523 -0.0023074339 -0.040951174 -0.0133248735
000190 3f d0 27 3d 59 4a 3a 3d 64 f4 2a bd 3e 53 73 bc
       0.040970083 0.04548106 -0.041736975 -0.014851389
0001a0 36 00 7f 3b fe 0b 71 3d 86 9f 6b 3c b5 47 32 bd
       0.0038910038 0.058849327 0.014381295 -0.043525416
0001b0 47 99 71 bd 7b 25 af 3c fd 70 25 3c 19 67 bb bc
       -0.058984067 0.021380177 0.010097739 -0.02287631
0001c0 69 4c da bc 9d 2a ff 3c 3a 20 08 3d 15 0e 51 bc
       -0.026647763 0.03114825 0.03323386 -0.012759705
0001d0 f2 0e 26 bd ca 45 79 3d a1 d4 3f 3c 44 e6 38 3d
       -0.040541597 0.06085757 0.0117084095 0.045141473
0001e0 09 cd df 3c 89 89 e4 3b 23 64 33 bc 39 5b 9e 3c
       0.027319448 0.0069744033 -0.010949167 0.019330608
0001f0 10 0c dc 3c 7c 27 5e bc bc 29 2a bd 67 ab 82 3d
       0.02686122 -0.0135592185 -0.041543707 0.06380349

actor_mu.weight f4 [3, 128]
000000 92 c8 c1 3b b4 2e 1d bc c0 6d c4 3b 37 b8 3c 3c
       0.0059138024 -0.009593654 0.0059945285 0.01151853
000010 48 e0 8c bb c5 05 88 bc 7d ee 33 bc b2 ed 35 3c
       -0.0042991973 -0.016604314 -0.010982153 0.011104034
000020 dd ba 50 bc 90 cb 0c 3c b1 2b f0 3b 8a c8 05 bb
       -0.012739864 0.008593455 0.007329427 -0.002041372
000030 27 ee 98 bb f2 6e d5 bb ff 74 f8 3b 1e e9 f2 bb
       -0.004667062 -0.00651347 0.0075823064 -0.0074130436
000040 2a ac 37 3c 86 23 db 3a b0 fb 6a 3c f7 19 3c bc
       0.011210481 0.0016718961 0.014342234 -0.0114808
000050 b3 b9 27 3c 1b 4a 95 bb 93 e6 c0 bb ff e1 24 3a
       0.010237145 -0.004555953 -0.0058868616 0.00062897796
000060 81 3b 26 bc 61 73 62 bc 47 c2 a1 39 61 86 49 3c
       -0.010146023 -0.013821454 0.0003085306 0.012300105
000070 76 b6 a9 bb ec 38 dd 3b 57 e5 4b bb ea 51 72 3c
       -0.0051792217 0.0067511704 -0.003111204 0.014790038
000080 54 43 36 3c bb b2 33 bc 6a ae b4 bb 87 c9 b6 3a
       0.011124451 -0.010967906 -0.005513956 0.0013945558
000090 ab cb 6d bc e3 86 67 3c 96 dc 4f bc 56 06 24 3c
       -0.01451389 0.014131281 -0.012686869 0.010011276
0000a0 f7 f2 f7 3b da 53 31 3b a3 bf 34 3c a0 13 bb bb
       0.0075668055 0.0027058036 0.011032018 -0.0057091266
0000b0 54 31 38 3c 48 a9 3c 3c 58 35 37 3c 4d 67 5b bc
       0.0112422295 0.011514969 0.011182152 -0.013391328
0000c0 47 33 f2 3b bf 41 4b bb 58 8e c5 3b 27 5c 8d 3b
       0.0073913666 -0.003101453 0.0060289316 0.004313964
0000d0 6b 57 db bb 2c ed 5a 3c cc e0 1d 3c dc 43 c8 3b
       -0.0066937706 0.01336221 0.009636115 0.006111605
0000e0 43 96 42 3c 1b e7 be bb 47 cc 37 bc 08 26 4c 3b
       0.0118766455 -0.0058258898 -0.011218137 0.0031150598
0000f0 a9 97 5a bb 55 70 4d 3c 60 90 23 bc 4d 46 42 3c
       -0.0033354557 0.012538989 -0.009983152 0.011857581
000100 4c a6 a6 3b f3 77 1a 3c 61 07 b2 3b 5f 48 1d 3c
       0.005085742 0.009428012 0.0054330085 0.009599774
000110 0d ae 17 3c 9c d0 a8 3b 0d d0 0f bb ce e7 f3 bb
       0.0092578055 0.0051518213 -0.0021944076 -0.0074434048
000120 42 ac 18 bc ed c4 85 ba d8 02 9f 3b 2e 83 24 bc
       -0.009318413 -0.0010205783 0.004852634 -0.010041041
000130 0f d3 8a 3b 9d d3 fd bb 23 f5 59 bb e4 93 9c 39
       0.004236586 -0.0077461735 -0.0033257685 0.00029864826
000140 1d a6 0f bc 96 f0 9d ba 46 a2 a9 ba cf f1 4b bc
       -0.008767632 -0.001204985 -0.0012942038 -0.012447788
000150 83 eb 56 bc 60 06 46 3c c0 cd df 3b 24 a3 4f bc
       -0.013117674 0.012086481 0.0068299472 -0.012673173
000160 02 b5 30 bc c3 b6 09 3c 9f a2 77 3b 3c 3e 77 3b
       -0.010785343 0.00840539 0.0037786139 0.0037726304
000170 f6 f0 29 3c c8 1c fc 3b a1 e4 a7 3b 1f 2c 48 bc
       0.010372391 0.0076938607 0.0051236902 -0.012217551
000180 ee 81 2d bc e2 f4 53 3b f5 5b a1 bb af 8d d8 bb
       -0.01059006 0.0032342006 -0.004924292 -0.006608687
000190 12 20 b2 3b 4b 9b 28 3c 49 9e 20 3c 22 29 14 bb
       0.005435952 0.010290931 0.009803363 -0.0022607525
0001a0 54 32 c9 3b 86 16 e3 bb e7 d3 12 bc 97 c4 b1 bb
       0.006140033 -0.0069301752 -0.008961654 -0.0054250467
0001b0 94 5e 03 3c a7 56 9a 3b 4c bd ff bb c3 93 93 3a
       0.008018155 0.004710037 -0.0078045484 0.0011259246
0001c0 cf 99 56 bc ef 55 1a bc f5 e7 ee 3b 2a af df bb
       -0.013098194 -0.009419902 0.007290835 -0.006826301
0001d0 6b 56 a2 bb b9 9f 18 3c 9b 7a 5a bc b0 bd 85 3b
       -0.0049541495 0.009315425 -0.0133348955 0.0040814504
0001e0 57 04 40 3c 63 b3 ef bb 75 c1 b7 3b 0c 99 38 bc
       0.011719785 -0.0073150857 0.0056077787 -0.011266958
0001f0 c8 e6 00 3c 0f 2c 56 bb 28 01 1f 3c e6 54 bd 3b
       0.007867523 -0.003268007 0.0097048655 0.005777943
000200 55 e2 a1 ba d1 18 1c bc e1 b3 93 bb 40 6b 08 bb
       -0.0012350777 -0.009527401 -0.004507527 -0.002081588
000210 91 45 4e 3c 99 31 7f 3c 9f 88 44 bc b2 5e 0d 3c
       0.012589828 0.01557579 -0.011995464 0.008628534
000220 8e 0e dd ba d2 d3 40 3a 56 a5 35 3c 04 06 16 bc
       -0.00168653 0.00073557824 0.011086782 -0.009156708
000230 1d 70 aa ba f6 ad f7 39 df db c0 ba f4 8c 39 bb
       -0.0013003383 0.00047241122 -0.0014713964 -0.0028312774
000240 47 43 93 3b 65 df e3 b9 67 49 db bb 1c 13 58 3c
       0.004494104 -0.00043463256 -0.0066921 0.01318815
000250 36 6e 72 bb 8b 3b 04 bb f8 c3 10 bc f1 31 eb ba
       -0.003699196 -0.0020177092 -0.008835785 -0.0017943961
000260 db 36 9f bb e4 ea b0 bb 96 9b 8a 3b f3 f4 f0 3b
       -0.004858834 -0.005399095 0.004229973 0.007353419
000270 2c f9 00 bb 89 72 30 bb a5 38 a2 3b fa 8c 87 bc
       -0.0019679768 -0.0026923737 0.0049506 -0.016546715
000280 8b 4f 99 bc bd b7 61 3c 73 3a 9e b8 32 7d 1c 3c
       -0.018714687 0.013776717 -7.544914e-05 0.009551333
000290 7d 6f 51 bc 33 46 4d 3b 5d 4c 42 bc a8 02 c9 3b
       -0.0127829285 0.003132236 -0.011859027 0.00613435
0002a0 5d 10 2a 3b fe bb 19 3b bf 3e b3 3b d9 f9 6c bb
       0.0025949695 0.0023458 0.0054701264 -0.0036159663
0002b0 69 c2 21 3c 56 7e 33 3c 49 a4 c1 3b 83 7c e4 3b
       0.009873011 0.010955414 0.005909477 0.0069728508
0002c0 5b 1a c9 3b 9f 88 e2 3a 95 d5 03 3b d8 85 8d b9
       0.006137175 0.0017283148 0.0020116318 -0.00026993337
0002d0 16 00 75 bb 09 b2 0a bc 13 50 bb 3b 5e 5f be bb
       -0.0037384084 -0.008465298 0.0057163327 -0.0058097085
0002e0 92 3e 3a ba 13 8f c3 b9 ab a4 dd 3a 14 6a a8 3b
       -0.00071046606 -0.00037299897 0.0016910037 0.0051395986
0002f0 ab 8c 9e bb 8b 7b 93 3c 56 5d 8c ba 7b 44 c6 3a
       -0.0048385463 0.018003246 -0.0010708969 0.001512661
000300 e1 c1 2c bc 4e 0a 6f 3b 74 9a 65 bb 48 64 25 3c
       -0.010544271 0.0036474648 -0.0035034688 0.01009471
000310 4e c2 d0 39 21 70 18 bb 7d 47 54 bb fc 82 e3 3b
       0.0003981762 -0.0023260193 -0.0032391243 0.006943105
000320 31 74 b5 bb 5f 2c 76 bb a0 d5 a2 bb 4e 16 3f ba
       -0.0055375327 -0.0037563068 -0.0049693137 -0.00072893954
000330 0f 83 3c 3a e6 a2 1f b9 1c 90 c0 3b ad d7 2e 3c
       0.000719116 -0.00015224106 0.005876554 0.010671538
000340 ec 83 ee 39 f4 c8 c3 bb af 07 b6 bb 3f 6e 16 3c
       0.00045493187 -0.005974883 -0.005555115 0.009181558
000350 3b 76 98 bb 75 88 3a bc 76 08 99 3a 3f ee 46 bc
       -0.004652766 -0.011385073 0.0011675495 -0.012141763
000360 5a 7c a2 bb 81 89 ab 3b e1 24 9f bb 46 32 8b ba
       -0.0049586715 0.0052348976 -0.004856691 -0.0010619841
000370 4f d0 4b bc 29 78 82 bb 8b e3 76 3c 8b 34 fa bb
       -0.012439801 -0.0039816094 0.015068899 -0.007635658
000380 79 cd 58 3b 01 9b bf 3b de 1a 7b 3b 70 44 2c 3c
       0.0033081456 0.0058473353 0.0038315575 0.010514364
000390 14 35 86 3b df 6e 10 bc a5 8c b1 3b d1 0e 39 bb
       0.004095683 -0.008815496 0.0054183775 -0.002823759
0003a0 95 a5 d4 3b 7a b6 d5 bb 1b ba 21 bc c9 5e 94 bb
       0.0064894655 -0.006521997 -0.009871031 -0.004527901
0003b0 64 3d 7d 3b d3 2e 81 bb 64 8a 0c bb 37 c3 62 3c
       0.0038641328 -0.0039423495 -0.0021444792 0.013840488
0003c0 79 be 3b 3c 19 c6 bd ba e9 88 ed 3b 89 f2 0a 3c
       0.011458986 -0.0014478593 0.007248987 0.008480676
0003d0 7a 83 bd bb e8 64 12 bb cc cc ac bb ed 91 00 bc
       -0.0057834955 -0.0022337977 -0.005273437 -0.007847291
0003e0 9b 54 25 3c d8 ab 63 bc e6 4c 25 bb 4a 11 45 39
       0.010090972 -0.013895951 -0.0025222837 0.00018793825
0003f0 66 c3 8a 3b 56 f4 69 3b 36 05 45 3b 3f 3e 23 39
       0.004234719 0.0035698614 0.003006292 0.0001556808

actor_mu.bias f4 [3]
000000 6d ca e4 3b f6 76 84 bd 47 04 ad bd
       0.006982139 -0.064680025 -0.084480815
