Python/solver_model.pth (torch, 962579 bytes, 17 tensors)

actor_fc1.weight f4 [256, 79]
000000 b8 9a 08 3d e1 2d b5 3d 9e eb 80 bd 68 44 66 bc
       0.033350676 0.08846641 -0.062949404 -0.014054395
000010 2d e4 9d 3d b6 96 6d 3b 70 40 83 3b 1f ef 9a bd
       0.07709537 0.003625316 0.0040054843 -0.0756514
000020 0a 7b 6f 3d bc f0 c2 bc 23 47 8a 3d a5 05 99 bd
       0.05846695 -0.023796432 0.067518495 -0.0747178
000030 20 8f 53 3d a9 e4 8a 3d b5 4e 99 3d c8 2a 62 3d
       0.051650167 0.06781895 0.07485715 0.05521658
000040 6a bb 10 bd 3a 2c e6 3d 40 80 9f bb 69 cb 4f bd
       -0.035334982 0.11238904 -0.0048675835 -0.050731096
000050 2c 4d 8d 3d 22 6a a8 bd e4 af 63 bd 4f 7b b9 b9
       0.06899485 -0.08223368 -0.055587664 -0.00035377822
000060 58 15 20 bd 3a 80 b1 bd 97 64 76 3c fe 6f 2f bd
       -0.039082855 -0.086670354 0.015038631 -0.042831413
000070 08 ba d3 3c b0 5c 68 bd c4 70 0b 3d 18 0b af bc
       0.025845543 -0.05672902 0.03404309 -0.021367595
000080 a4 4a b6 bd e6 8d c3 3d c5 50 e5 3d b4 c9 97 3b
       -0.08900955 0.09548549 0.11197046 0.004632199
000090 85 c4 83 bd fc 25 62 3c 63 94 57 3d 64 28 d3 3d
       -0.064339675 0.0138030015 0.052631747 0.10310438
0000a0 8f 9d ba 3d b6 1c 99 bd 00 07 c4 39 ae 43 4b bc
       0.09112083 -0.07476179 0.0003738925 -0.012406273
0000b0 6e 1a 81 bd 22 1a 8f bd ab ba 07 bd 61 68 6f bc
       -0.06303869 -0.06987406 -0.033137005 -0.014612288
0000c0 9e fc 48 bd 80 70 d5 3d 9e b7 3e 3d 84 02 00 bd
       -0.04906904 0.10421848 0.04656183 -0.0312524
0000d0 e1 fa d8 3b f3 34 92 bd a0 88 76 3c 93 e5 b0 bd
       0.006621704 -0.071390055 0.015047222 -0.08637538
0000e0 6c cb 9f bd 00 eb 65 3c a5 4b 45 3d 22 d0 1f 3d
       -0.078024715 0.014033079 0.048167843 0.03901685
0000f0 d0 2d 23 bd 35 d1 98 bc 06 aa e0 3d 29 83 b4 3c
       -0.039838612 -0.018654445 0.109699294 0.022035198
000100 6e 02 b6 3d fd 5a 2d 3c 9d 5a 56 3c e4 96 c6 bc
       0.08887182 0.010580775 0.013083127 -0.024241872
000110 d8 2d 22 3d c8 9f fd bc 18 7c 1b 3d c0 b5 f5 ba
       0.0395945 -0.030959979 0.037960142 -0.0018746182
000120 7f 9a 06 bd de 87 5a 3d 19 fa c1 bd 47 9d b8 bd
       -0.032862183 0.05335223 -0.094715305 -0.09014373
000130 05 63 82 bd 9c 98 8c 3d de e3 a6 bd a4 a7 dc 3d
       -0.06366543 0.068650454 -0.08148931 0.107741624
000140 ab e9 94 3d 99 01 b1 3d 10 aa 63 3d 1e 86 13 bd
       0.07271131 0.08642883 0.055582106 -0.036016576
000150 65 63 c2 3d 80 b8 86 3a db 3b 85 bd d3 85 c6 3c
       0.09491614 0.0010278374 -0.06505557 0.024233734
000160 88 b2 ee 3c 54 9e d5 3d 7e f4 07 3d b8 4e 41 bc
       0.029137865 0.10430589 0.03319215 -0.011798553
000170 91 88 3c 3d 98 17 ad bd bc 8c 5f bd 75 a9 58 bd
       0.046028677 -0.08451766 -0.054577574 -0.05289598
000180 6a 51 af bd 63 a8 bd bd 40 e6 e4 bd 88 65 9d bd
       -0.085604504 -0.09260633 -0.11176729 -0.07685381
000190 20 99 69 bb 85 6a 03 3b 8c de 73 bd 24 63 dc 3d
       -0.0035644248 0.0020052504 -0.05953841 0.10761097
0001a0 09 5c d5 3d 49 c9 81 bd f0 b4 55 3d ff 79 0c bc
       0.10417945 -0.0633722 0.05217451 -0.008574008
0001b0 7f d5 46 bd ca 1d cb 3d 00 95 cf bd 41 ab a6 bd
       -0.04854345 0.09917791 -0.10135841 -0.08138133
0001c0 52 d3 c9 3d 02 68 60 3d 41 8f e8 bd bc 10 62 bd
       0.09854759 0.05478669 -0.113554485 -0.05519174
0001d0 2e 88 d3 3d b4 57 66 bd d8 6b b7 3d 98 55 ce 3d
       0.103287086 -0.056235984 0.089561164 0.100749195
0001e0 ba 55 8d bb a8 2b 36 3d c7 6c e2 3d f9 7b 6f bc
       -0.004313198 0.044475228 0.11055904 -0.01461696
0001f0 b4 f4 42 3d a1 25 ab 3c fa e9 0d bd b2 67 04 bd
       0.04759665 0.020891966 -0.034646966 -0.032325454
000200 1b 7e 80 bd fd 3d 84 3d e4 60 23 3d dd 40 b9 3c
       -0.06274053 0.06457136 0.039887324 0.022613937
000210 9f 8c 5c bd 10 b9 c1 3c 55 9d cb bd 6d 27 cb 3d
       -0.053845044 0.023647815 -0.09942118 0.09919629
000220 22 ac 1e bd 07 cd 6d bd a3 f2 32 3c 6a f0 80 bd
       -0.038738377 -0.058056857 0.010922107 -0.06295855
000230 df 49 e1 3d ac 0b ba bd 74 c9 94 3c 00 43 c1 bd
       0.11000418 -0.090842575 0.018162467 -0.09436607
000240 91 19 a5 3d 97 a2 5d 3d a0 fe 82 3d 96 f8 ba 3d
       0.08061517 0.054110136 0.06396222 0.09129445
000250 83 23 99 bd 78 60 e2 bc 7e 84 12 bd 9d e8 3d bc
       -0.074774764 -0.02763389 -0.035770886 -0.011591104
000260 88 13 e9 3d d2 b7 25 bd 94 e2 98 bd cb 53 7e 3d
       0.113806784 -0.040458508 -0.07465091 0.06209163
000270 b8 d7 ff 3c 99 b4 27 3c d1 e1 b9 bd 27 3a f1 3c
       0.031230792 0.010235929 -0.09076274 0.029446675
000280 b5 f3 79 bd 48 f2 b4 3d 82 f8 86 3d 11 5c da 3d
       -0.061023433 0.08835274 0.06590368 0.106620915
000290 32 0b ab bd 9f 19 54 bc c6 cd 79 3d bc e3 a5 3d
       -0.08351745 -0.012945562 0.060987256 0.081000775
0002a0 79 43 53 bc 5c 3a c6 3d 96 a6 97 bd b8 0c c2 3d
       -0.012894505 0.096791 -0.074048206 0.09475082
0002b0 5f f6 b0 bc 72 cf 46 bd 7a 05 9a bd b2 0f c8 bd
       -0.021601854 -0.04853768 -0.07520576 -0.09768619
0002c0 1e 65 a1 3d ff f7 ea 3c 23 5e f5 3c 7c 9f 86 3d
       0.07880615 0.028682707 0.029952114 0.06573388
0002d0 6d 28 5a 3d 01 43 b0 3d e0 29 0a 3d 60 2b 1b bd
       0.05326121 0.0860653 0.03373134 -0.037883162
0002e0 d9 4f 80 3d 89 16 e2 bd fc 35 08 3d ee 43 4e 3d
       0.0626523 -0.110394545 0.03325461 0.05035775
0002f0 10 9b b7 3c fb e7 d8 3c 1c 0d 16 bd 6c 12 b4 3d
       0.022412807 0.026477804 -0.036633596 0.08792576
000300 9c 49 b4 bc 0e 3a 97 3d d0 60 ce 3c 6e be 88 3d
       -0.022007756 0.0738412 0.025192648 0.066769466
000310 4d 6d 2d bd c8 4d bc 3c 7c e8 bc 3d bf 1a 93 bd
       -0.042340565 0.022986308 0.092240304 -0.07182836
000320 b8 e3 82 3d 97 1a 62 bd 68 b9 fa bb f4 4f ae 3d
       0.0639109 -0.05520114 -0.0076514967 0.085113436
000330 85 6d b5 3c f5 26 8b 3c 66 b4 87 bd fd d7 cd bd
       0.02214695 0.01698635 -0.06626205 -0.10050962
000340 58 58 49 bd 5a 47 a0 3d a4 b6 85 bc db 99 72 3d
       -0.049156517 0.07826109 -0.016322441 0.05922876
000350 f4 a7 8f 3d 82 0f 9a bd 32 96 44 bc f2 33 db 3d
       0.070144564 -0.07522489 -0.0119987 0.10703267
000360 cc 34 b9 3c fb f9 9a bd 84 93 9b bc b3 6a 7b bd
       0.022608183 -0.07567211 -0.01899124 -0.061381053
000370 c6 73 51 bb 66 af a9 3d 51 ba 9f 3d 18 62 cf bd
       -0.0031959875 0.08285408 0.07799209 -0.10126132
000380 bf 02 ff bd 8e 6b 8b 3d fa a3 ea bd 7c c8 9f 3d
       -0.12451696 0.06807624 -0.11457057 0.07801911
000390 56 78 84 3d 3a f6 08 bd 0e 05 c1 3d 3e 52 c4 bd
       0.06468265 -0.033437945 0.09424792 -0.09585999
0003a0 41 de 98 3c aa 2c 00 bd 19 07 8e bd 20 52 67 bb
       0.018660666 -0.031292595 -0.069349475 -0.0035296753
0003b0 27 be 0e ba ea f7 5c bd 97 a7 09 3d 9b 62 26 3d
       -0.0005445205 -0.053947367 0.03360709 0.04062138
0003c0 2c 05 dd bc 0e 38 64 bd 77 d8 50 3c 4a d6 ad bd
       -0.026980005 -0.05571752 0.012746922 -0.08488138
0003d0 cd bd 7e 3d 75 f3 c8 bd 36 3b 9d 3d 03 b4 4c 3b
       0.062192727 -0.09812061 0.07677309 0.0031235225
0003e0 07 48 80 bc 62 43 cc bd 30 c4 55 3c a9 6a 37 bd
       -0.015659345 -0.0997379 0.013047263 -0.044779453
0003f0 54 16 94 3d 1b 76 e6 bd a1 fe d4 3c d8 fb 06 3d
       0.07230821 -0.112529956 0.026000323 0.03295502

actor_fc1.bias f4 [256]
000000 26 72 71 bc b1 5a 25 bd f9 27 57 3c ef b1 d1 bd
       -0.014736688 -0.040369693 0.013132089 -0.10239016
000010 c0 92 63 bd e9 da 5e 3d 71 3d 52 bc 21 bb a9 bd
       -0.055559874 0.054407988 -0.012832032 -0.08287645
000020 60 8f 2b 3d d6 1d 95 3d 23 70 40 bd a2 15 c5 bd
       0.04188478 0.072810814 -0.046981942 -0.09623267
000030 13 a9 bd 3d d9 0b ae bd 69 ab c7 3c bd e1 b3 3d
       0.09260764 -0.084983535 0.024373727 0.087832905
000040 a1 d0 e3 3d 18 db 17 3d 7d 8c 62 bc 2b 7f 1a 3d
       0.11123777 0.03707418 -0.01382744 0.037718933
000050 cc 9e 34 3c e6 02 33 3d 44 f6 49 3c 98 e7 56 3d
       0.011024188 0.043703936 0.012326781 0.05246696
000060 8d 71 23 bd 78 24 25 bd 23 aa 9a 3d ec 28 b6 3d
       -0.039903212 -0.040317982 0.07551982 0.08894524
000070 19 07 7d bd 3e bb ba 3d 43 1c d6 bb d1 a5 46 3c
       -0.061774347 0.09117745 -0.006534131 0.012124495
000080 10 66 db 3c 58 cd 76 3a 1a a1 8d bd 02 1d 84 3d
       0.026782066 0.0009414754 -0.06915493 0.06450845
000090 9a b6 1e 3c a4 26 7a bd 3a 14 b9 3d f6 bf 0f 3d
       0.00968709 -0.061072007 0.09037061 0.035095178
0000a0 03 6e 7d bb 36 13 f6 3c 35 8d 8f bd 99 6b e2 3c
       -0.0038670308 0.030038457 -0.07009355 0.027639197
0000b0 a1 26 b9 3b 5d e5 13 3d ec 53 68 3d 7d a7 d1 3d
       0.005650357 0.03610741 0.05672066 0.10237024
0000c0 e8 1f 7c bc e5 b9 98 bd 11 01 e3 3d fb 22 d1 bd
       -0.015388466 -0.074573316 0.11084188 -0.1021175
0000d0 c4 eb 7b 3d 9b d6 a2 bc 39 28 94 bd b4 e0 97 3d
       0.06150414 -0.019877722 -0.07234234 0.074159056
0000e0 ac f0 ca bd 52 68 c3 bd 1f e9 6a 3b e9 45 be bb
       -0.09909186 -0.09541382 0.0035844517 -0.005806674
0000f0 cc 05 03 bd f9 0e e3 3d 83 cf b6 3d 70 f8 cb bd
       -0.03198795 0.1108684 0.089262985 -0.09959495
000100 9b c1 5d bd f1 ad e8 bc bc 1c 7e 3d b2 fb bd bd
       -0.054139715 -0.028403254 0.062039122 -0.09276523
000110 ab 8e 47 bc e1 3d da 3d 0a e0 b4 bd b2 46 ee bc
       -0.012180011 0.10656334 -0.088317946 -0.029086445
000120 fe c7 3c bd 07 4b ec bd 83 15 d3 bd 86 a8 c8 3d
       -0.046089165 -0.11537748 -0.103068374 0.09797768
000130 8c ee 1f bd 7c 11 55 bc e7 4b d8 bc 7a 98 95 3d
       -0.039045855 -0.013004657 -0.02640338 0.07304473
000140 9d c2 cf 3d b7 d5 cf 3d 5d e3 06 3d b0 7a 27 bd
       0.101445414 0.10148185 0.032931674 -0.04088849
000150 47 f0 de bd 2e bc d2 3b 2a 6e 8f 3d b1 4c 83 bd
       -0.10885673 0.006431124 0.07003434 -0.06411112
000160 c8 18 fd bc 73 7b da bd ed 63 4e 3d e3 32 7d bd
       -0.030895606 -0.10668077 0.050388265 -0.061816107
000170 83 a9 de 3c 40 93 70 3c 16 ac e3 3d 59 c9 72 3d
       0.027180439 0.014683545 0.11116807 0.05927405
000180 97 8e 9f 3d c9 7d cc bd 93 0e 50 bd b3 a6 a3 bd
       0.07790869 -0.09984929 -0.05079515 -0.0799078
000190 f9 d0 4d 3d 03 9a bc 3d 8e 03 90 3b 10 d8 2a bd
       0.05024812 0.09209063 0.004394955 -0.04170996
0001a0 91 5e 91 3c b0 59 80 bb 44 24 90 3b d2 f7 37 bd
       0.017745288 -0.0039169416 0.0043988544 -0.044914074
0001b0 e7 d4 a7 3c 19 ea 92 3d 8c d6 9a bd fb c5 e9 bc
       0.020487262 0.07173557 -0.07560453 -0.028536787
0001c0 af 14 ab bd a7 94 ed bc 32 5a 78 3d 7f 9a a2 bb
       -0.083535545 -0.029001547 0.060632892 -0.004962265
0001d0 eb d3 30 bc 28 06 7d 3d 0f 10 48 bc 08 2a c0 3d
       -0.010792713 0.06177345 -0.01221086 0.09383017
0001e0 78 8e ca 3d 34 f5 3f 3d 96 04 e1 3d 6d 04 77 bd
       0.09890455 0.046864703 0.10987203 -0.060306955
0001f0 18 b0 83 bc 71 ba 18 bd ea 91 c3 bc 65 ab 48 bd
       -0.016075179 -0.03728718 -0.023873288 -0.04899158
000200 22 92 c9 3d 0a 31 a1 3d 82 ca 75 3d e3 0b 83 3d
       0.09842326 0.078706816 0.06000758 0.063987516
000210 60 1b 3a 3a b7 9d 94 bd 7d 0f c8 3d c3 ab 27 bd
       0.0007099416 -0.07256644 0.09768579 -0.04093529
000220 af 9b e8 bc aa 35 a4 bd 55 7e 10 3d e3 3f 0b 3d
       -0.028394548 -0.08018048 0.03527673 0.033996474
000230 3e 22 ad bd c5 ab 47 bc ac b8 ad ba e5 d7 35 bd
       -0.08453797 -0.012186949 -0.0013253889 -0.044395346
000240 5d 85 4a bc 0b 75 86 3b 20 9d 87 3d d8 38 29 3c
       -0.012360898 0.004103308 0.06621766 0.010328494
000250 f0 5a 8c 3d b8 ae 9c 3d db 79 de bd 6f 3a 86 3c
       0.068532825 0.076505125 -0.10863086 0.016385285
000260 14 de 23 3d 1e a8 cf bc 1c 99 d1 bd c2 31 a4 3d
       0.040006712 -0.02534872 -0.102342814 0.08017303
000270 64 0d 73 bd 2d c8 91 bc 35 25 92 3c 07 02 a6 3d
       -0.059338942 -0.017795647 0.017840007 0.081058554
000280 a9 a3 ea bc 84 fd 10 bd 0b e2 33 3d 93 16 20 3c
       -0.028642492 -0.03539802 0.043916743 0.009771007
000290 a7 0b 80 3d 01 b2 d9 bd 72 c0 13 3e 2b a7 be bd
       0.062522225 -0.10629655 0.14428881 -0.093092285
0002a0 75 52 3f bd fa f3 e8 3d ef 15 a8 bd 16 2b b3 bc
       -0.046709497 0.1137466 -0.082073085 -0.02187113
0002b0 ee 48 d8 bd 6b 9a 97 bd e3 7f 4d bc 16 c3 8c 3d
       -0.10560785 -0.074025 -0.012542698 0.06873147
0002c0 39 7e 86 3d c2 e1 94 3d 8a 63 ed 3c 4f 0d 9f bc
       0.06567044 0.072696224 0.028978128 -0.019415526
0002d0 8c 6d d2 3d 1a 7e 02 3e 94 b6 f0 bd e9 de 41 3c
       0.10274801 0.12743416 -0.11753574 0.011832931
0002e0 6c b1 0c 3d 6f f0 35 bd 97 97 ce 3d 1a 9d d8 bc
       0.03434889 -0.04441875 0.10087507 -0.0264421
0002f0 76 a7 c2 3d 55 c1 ac bc d4 99 e4 bd 40 de fc bc
       0.09504597 -0.021088282 -0.11162153 -0.030867696
000300 fe 49 09 3d 37 98 b1 3b 54 80 75 3c 91 95 0b 3c
       0.03351783 0.0054197568 0.014984209 0.008519546
000310 99 d7 7b bc 04 d0 ec 3c 54 0c 62 3d e7 f4 66 bd
       -0.015371227 0.028907783 0.05518754 -0.0563859
000320 53 32 90 bc 20 e5 cc 3b 25 c0 0b 3d d8 73 5e bc
       -0.017602121 0.0062528998 0.03411879 -0.013577424
000330 26 30 98 3d 45 51 53 bd 7c 65 9b 3d fe ec 37 bd
       0.074310586 -0.051591177 0.07587716 -0.044903748
000340 20 49 fd bc 00 fe 80 bd e5 05 6e 3d e8 64 7d bd
       -0.030918658 -0.06298447 0.05811109 -0.06186381
000350 11 9a b0 bd 87 dd 04 3d ff 4f 84 3d 24 f2 74 3d
       -0.08623136 0.032437827 0.064605705 0.059801236
000360 fc 34 86 bd c4 e5 12 bb 93 73 7c 3d 92 0b 3b bd
       -0.06553075 -0.0022414783 0.061633658 -0.04566533
000370 af cb 99 3d d2 5a 55 3c 70 40 f3 bc 2a 4a 32 bd
       0.07509553 0.0130221415 -0.029693812 -0.04352776
000380 d6 b0 8b bd 77 3a 3e bd 5b e2 6d 3c 91 d0 d5 bc
       -0.06820838 -0.046442475 0.014519299 -0.026100429
000390 78 a6 b2 bd 29 f3 01 3d d0 6e 25 3c 59 ad 56 bd
       -0.08723158 0.031726036 0.010097221 -0.05241141
0003a0 3f f3 b6 3d 8a 48 4e bc 18 72 bc 3d e2 25 86 3d
       0.08933114 -0.012590537 0.09201449 0.06550194
0003b0 62 b8 bd bd 9c fc 95 3d ce e6 26 3d 45 8a d5 3d
       -0.09263684 0.07323572 0.040747456 0.104267634
0003c0 17 5d ad 3d d2 a9 ca 3c 3c 6e 89 bc 26 45 ce 3d
       0.08465021 0.02473918 -0.016776197 0.10071783
0003d0 59 07 ca bd 11 f9 d9 bd 56 a6 80 bd 85 05 f0 3c
       -0.09864683 -0.10643209 -0.06281726 0.029299507
0003e0 07 bb db 3c d5 05 ae bd ef f4 55 3d 18 b3 2d bd
       0.02682258 -0.08497206 0.05223554 -0.042407125
0003f0 0d b4 76 bd c3 82 e4 3b c5 32 dc bb 7d 3d 00 3e
       -0.060230304 0.006973596 -0.0067199194 0.12523456

actor_fc2.weight f4 [256, 256]
000000 d9 46 4f 3c ba d2 e5 bc 4a 82 cf 3c 82 48 8e 3c
       0.012651169 -0.028054584 0.025330681 0.017368559
000010 1e e9 ae bc f1 63 7d 3d 2b 43 88 3a 5e c9 cf 3b
       -0.021351393 0.06186289 0.0010395994 0.0063411435
000020 c7 7a 34 bd a0 c4 0d bd 6d aa 52 3a 89 74 23 3d
       -0.044062402 -0.034611344 0.00080362597 0.03990606
000030 aa ee 36 bd e7 e2 88 3d fc 9d b4 ba 13 1a 54 bd
       -0.0446612 0.06683903 -0.0013779993 -0.05178268
000040 8c 61 24 bd aa d5 10 bc bc b5 45 3b 6d 2a 55 3d
       -0.04013209 -0.008840004 0.0030168137 0.052042414
000050 de 61 70 bb 35 e2 e9 3b c9 e9 79 3d b2 e2 f6 3c
       -0.0036679427 0.0071375617 0.06101397 0.030137394
000060 f4 16 2e 3d 4c 3c 36 3d e3 b8 31 bd 3a d5 fb bc
       0.04250236 0.044491097 -0.043389212 -0.030741323
000070 5b dd a8 3c 3f 36 92 3c 95 27 aa 3c c9 f7 9f 3c
       0.020613363 0.017848132 0.020770827 0.019527333
000080 ce fd 07 bc 10 21 69 bd 01 19 ca bb 08 e6 23 bd
       -0.008300258 -0.056916296 -0.0061675315 -0.040014297
000090 da 3f 53 3d fb 4c 98 3b 1b 87 4c 3d fe dc ee bc
       0.051574565 0.0046478487 0.049933534 -0.029158112
0000a0 a6 ca 35 3d f0 7b 35 bc b3 e7 cc bc c9 36 37 bd
       0.044382714 -0.011076912 -0.025012827 -0.04472998
0000b0 95 1c 18 ba 89 d0 d5 3c 1f f5 30 3d 2e 5e 88 bd
       -0.0005802599 0.026100414 0.043202516 -0.06658588
0000c0 35 4c 6c 3c 1b d1 bc bc d0 71 88 bd 32 81 34 bd
       0.014422466 -0.023048928 -0.06662333 -0.044068523
0000d0 c0 a0 98 bc 45 8b 6d bd f3 50 bc 3b 95 dc 03 bd
       -0.01863134 -0.057994146 0.0057469546 -0.032192785
0000e0 75 67 4c 3d 4b 47 84 bd c5 89 42 3d 38 e4 3d bd
       0.04990335 -0.064589106 0.04749467 -0.046360224
0000f0 6a d2 f6 bc 6a a0 f3 bb e8 0a 5b 3c 5f 98 92 bc
       -0.03012963 -0.0074348943 0.0133692995 -0.017894922
000100 b1 29 b1 bc 00 03 a3 3c 78 07 3d 3d aa c1 8f 3c
       -0.021626325 0.019898891 0.0461497 0.0175484
000110 4a 70 52 3a 8b ef 75 bb 2a e7 e6 bc a2 d1 82 bc
       0.00080275966 -0.0037526812 -0.0281864 -0.015969101
000120 54 36 46 3d f3 7e 2f bd 4d 2e 35 bd b5 e1 84 3c
       0.048391655 -0.042845678 -0.04423361 0.016220907
000130 0d b5 b6 3b 87 bb 0d 3d 06 aa 63 3d b7 35 51 3d
       0.005575782 0.034602668 0.05558207 0.051076617
000140 13 5e 0e bd fe 7d f9 bc 93 6f 40 3d 5c 9f de 3c
       -0.034757685 -0.030455586 0.046981405 0.027175598
000150 42 64 c8 3c 0f ef c4 3c 79 91 2a bd 70 3b 55 bd
       0.02446187 0.024039773 -0.04164264 -0.052058637
000160 68 39 16 bd 18 99 84 3d 5c bc 22 bd 69 52 ce bc
       -0.03667584 0.06474513 -0.039730415 -0.02518578
000170 e9 18 a1 3b 1f c8 d2 3c c4 14 c5 bc 6d 06 81 bb
       0.0049162996 0.02573019 -0.024057753 -0.0039375336
000180 3a 20 21 bd 48 9a 54 3d b7 6b 25 bd 8c 44 83 bb
       -0.039337374 0.051904947 -0.040385928 -0.004005974
000190 40 27 b5 3c a1 b3 a9 3a 28 20 4c 3d b7 a4 9f b9
       0.022113442 0.001294721 0.049835354 -0.00030449565
0001a0 49 70 48 bd 1b 6d 00 3d ea f2 36 3d d1 0b 34 3d
       -0.04893521 0.03135405 0.044665255 0.04395658
0001b0 47 0b a0 3d b8 61 56 bd c1 0a a2 3a dc aa f2 3c
       0.07814651 -0.052339286 0.0012362824 0.029622488
0001c0 24 35 26 bd 22 15 15 bd 64 79 51 bd 19 6f b6 bc
       -0.040578023 -0.036397107 -0.051141158 -0.022269772
0001d0 1f e7 3f bd 17 2e 68 3d bf 9e 4c 3c 7c 1d 5c 3b
       -0.046851274 0.05668458 0.01248902 0.003358691
0001e0 5a f7 f8 37 55 e3 09 bd 6e 38 75 bd 26 be 51 3c
       2.9679086e-05 -0.033664066 -0.05986827 0.012801683
0001f0 c7 a7 fc 3c 23 eb 35 bd d3 75 11 bc 3b e2 f4 bc
       0.030841721 -0.044413697 -0.008878189 -0.029893031
000200 c4 4f 40 3d 0c 34 11 bb 16 6f 13 bd f3 57 2b 3b
       0.04695107 -0.0022156266 -0.03599461 0.002614495
000210 6d 32 37 bd da 65 72 bd 95 9a 7b 3c 9e f8 90 3c
       -0.044725824 -0.059179164 0.015356679 0.017696675
000220 b9 72 9f 3c dd 8b 56 3b ce 09 9c 3b f7 26 15 3d
       0.019463884 0.0032737174 0.004761911 0.036414113
000230 0d 2e 00 bd dc a1 9b bd 1b 11 20 bd 48 d4 98 3b
       -0.031293917 -0.075992316 -0.039078813 0.004663978
000240 1e 21 0d bc 1d 13 a6 3b 2f c0 84 bc 69 63 7c bb
       -0.008613853 0.0050681964 -0.016204922 -0.0038511402
000250 bf 16 b1 bb 44 8f 55 3d 88 be ec 3c 3d 77 03 bd
       -0.005404323 0.052138582 0.028899446 -0.032096136
000260 c6 68 2a bd b4 d7 40 3d dd 33 6e bd 5a 41 88 3d
       -0.041603826 0.04708071 -0.05815493 0.0665309
000270 05 0b 37 bd 4a 70 b7 bc 97 c8 2d bb c7 9e 75 3d
       -0.044688243 -0.02239241 -0.0026517266 0.059965875
000280 26 d6 8b 3d 2c 0e 85 bd 74 0d fb bc b5 d9 9b 3c
       0.06827955 -0.06496844 -0.030646063 0.01902471
000290 12 aa 5d bd 5a c3 c2 3c 07 a3 31 bd 24 e2 17 3d
       -0.05411727 0.023774792 -0.043368366 0.0370809
0002a0 c9 b5 6b 3d bf 45 6f 3d de f5 8c 3c b0 0f 06 bd
       0.05754641 0.058416124 0.017207082 -0.032729805
0002b0 d4 56 4f 3d cb c5 c5 3c 89 9d 2b bd db 1c 8d bd
       0.050619915 0.024142167 -0.041898284 -0.06890269
0002c0 e4 e4 2b bc 59 4b 6d bd 15 4b cf 3c 91 ed 82 3c
       -0.0104915835 -0.057933185 0.025304357 0.015982421
0002d0 4b 62 e9 3c 47 94 0e 3d 28 e8 81 3d dd 75 58 bd
       0.028489253 0.034809377 0.063431084 -0.05284678
0002e0 71 45 3f 3d 30 47 87 bd c6 57 24 bd d4 83 fb bc
       0.046697084 -0.06605375 -0.04012277 -0.030702509
0002f0 66 62 05 3d 6e ef 36 3d 7e f0 90 bc ac a7 c4 3c
       0.032564543 0.04466193 -0.0176928 0.024005733
000300 05 39 3e ba 27 e6 64 bd 6e d7 65 3d ef 4d 29 bd
       -0.00072564214 -0.055883553 0.056113653 -0.04133409
000310 55 1d d5 bc d6 92 38 bd d4 d4 ff bc 71 aa 7e 3c
       -0.026014963 -0.04506191 -0.031229414 0.015543566
000320 5e 97 c2 3c cd 8c 88 3b af 1e 0d bd 1b 84 5c bd
       0.023753818 0.0041671754 -0.03445309 -0.053836923
000330 17 32 c7 bc 17 51 82 bc d7 b9 60 bc ba 80 6f bb
       -0.024315877 -0.015907807 -0.013716183 -0.0036545233
000340 e5 96 0e bc af b2 0d 3d 46 0c b3 3c 52 5e 23 3d
       -0.008702968 0.034594234 0.021856438 0.039884873
000350 5a 6b 21 bb 5a fd b2 bc 2e d7 e4 bb 5d 25 60 3d
       -0.0024630637 -0.021849323 -0.006983659 0.054723132
000360 1d 5a ba 3b e1 59 15 bd f9 a5 11 3d ed df de bc
       0.005687012 -0.03646267 0.035558674 -0.027206386
000370 0f 0c 08 3c ae 50 08 bd 5d ef 79 3c 34 87 d7 3c
       0.008303656 -0.033280067 0.015254823 0.026309587
000380 7a b8 27 bc d5 09 75 bb 64 ef a6 3b 59 ac 6e bd
       -0.010236854 -0.0037389894 0.0050944556 -0.058269832
000390 e8 cd 2f 3d 52 82 6c bd 30 89 0f 3d 43 15 57 3d
       0.042920977 -0.05774147 0.03504294 0.05251051
0003a0 43 d1 53 3d 75 08 08 bc f2 07 8b 3b 99 8a f8 bc
       0.05171324 -0.008302798 0.0042428905 -0.030339526
0003b0 e5 f5 5d bd a6 04 fb 3b fb 17 71 3d 58 9a 21 3d
       -0.05418958 0.0076604662 0.05886076 0.039453834
0003c0 3d fe 2a bd 68 9b 99 bb a1 02 36 bc b7 1f 11 3c
       -0.041746367 -0.0046877153 -0.011109025 0.008857659
0003d0 94 81 2a 3d e8 26 14 3c 86 ef 45 bc 04 e6 46 3c
       0.04162748 0.009042479 -0.012081033 0.012139801
0003e0 55 fd 25 bd 27 09 e2 3c f5 2c b3 3c 29 36 7b bb
       -0.0405248 0.027592255 0.021872023 -0.0038331843
0003f0 42 87 36 bd ec 59 04 bc 0f 3b 1b 3d 97 68 2d 3d
       -0.044562586 -0.00807808 0.03789812 0.042336073

actor_fc2.bias f4 [256]
000000 bd 2c 23 bd 3e e3 9f 3a c0 c0 4d bc 4b 0e 47 3d
       -0.039837588 0.0012198461 -0.012558162 0.048597615
000010 e9 5e 6e 3c 1f ab 25 3c 22 a6 9e bb 8a 69 de bc
       0.0145489955 0.010111599 -0.004841582 -0.027149934
000020 aa 59 d2 bc 2b b3 3f 3d 60 8c 56 bd d6 1e 64 3c
       -0.02567752 0.046801727 -0.052379966 0.0139233675
000030 8f e2 da 3c b4 f1 f8 3c d1 b5 48 3d 46 aa a6 bc
       0.02671936 0.03038869 0.04900152 -0.020344865
000040 ad 7e 9f bc 9a 3e e7 bc 2b 5f 81 bc bb d9 ae 3c
       -0.019469583 -0.028228093 -0.01579245 0.021344056
000050 d2 a4 28 bd 5e 59 67 bd 67 03 8c 3c 20 f9 da bc
       -0.04117281 -0.05648171 0.017091466 -0.02673012
000060 61 38 ea ba 52 1b a7 3c d0 c7 bb 3a bd 63 83 3d
       -0.0017869585 0.02039877 0.0014326517 0.06415508
000070 3a b6 b9 bc 1e 19 28 3c 73 68 82 3c 6a 54 25 3b
       -0.0226699 0.010259895 0.015918946 0.0025227317
000080 1f 55 2b bd ab 6b e7 3c d1 41 57 bd a3 d6 26 3d
       -0.041829225 0.028249582 -0.052553 0.040732037
000090 e6 a5 d8 3c 2f fa 7c bc 2f f8 ca bc 10 6f 73 bd
       0.026446294 -0.015440508 -0.024776546 -0.05943209
0000a0 6e ab 8e bd 00 8a 7c bd 85 d6 a3 bc 2f 14 68 bb
       -0.06966291 -0.061655045 -0.019999752 -0.003541242
0000b0 dd f6 d8 3c bd a0 3f 3d 0f 25 59 bd 1f 41 33 bd
       0.026484901 0.04678415 -0.053013857 -0.043763276
0000c0 b9 8e 85 bc 77 33 bc 3c 09 8b e9 3c dd 48 71 3c
       -0.016303407 0.02297376 0.02850868 0.014726845
0000d0 50 45 c7 bb cf ed 40 bd 64 9f 2e 3d 17 68 46 3d
       -0.0060812607 -0.047101792 0.042632475 0.04843911
0000e0 d4 3b 9e bd 9d 04 19 3b 02 8d e7 bc 72 55 81 3d
       -0.07726255 0.0023348697 -0.02826548 0.063151255
0000f0 ff d2 30 3d 23 6a 57 3d 4f 57 4c bd 78 bc 03 bc
       0.04316997 0.052591454 -0.04988795 -0.00804054
000100 a1 4b ab bc 19 86 83 3d 42 5e 52 bd 5a ba 08 3d
       -0.020910086 0.064220615 -0.051359423 0.033380844
000110 1e 96 c6 bc 1c 5f 49 3d f3 00 ea 3c 19 84 0f 3c
       -0.024241503 0.04916297 0.028564906 0.008759522
000120 87 94 81 3b de 40 20 bc aa 93 43 bd 94 9b fb bc
       0.0039544734 -0.009781091 -0.047748245 -0.030713834
000130 a9 e0 67 3d 95 08 5b bc 27 42 3a bd ba 42 22 3d
       0.056610737 -0.013368745 -0.045473244 0.039614417
000140 75 e8 04 bc af 89 a6 3a 09 b9 16 bd 65 56 28 bd
       -0.008112063 0.0012705828 -0.036797557 -0.041098017
000150 c7 1a 9b bc b1 89 2d bd df fa 52 3d 39 1e 72 bd
       -0.018933667 -0.04236764 0.05150878 -0.059110854
000160 4c 0e bf 3c a7 d3 22 3d d2 64 98 bc 5f c4 b6 3c
       0.023322247 0.03975263 -0.018602762 0.022310434
000170 29 d3 25 3d 93 e3 7d 3d 0f 0d 7c bd 5a c7 40 bc
       0.04048458 0.06198461 -0.06153589 -0.011766279
000180 e6 d4 60 3d 4b c8 be 3b 4b a7 23 bd 8b 04 e8 3b
       0.054890536 0.0058222166 -0.039954465 0.0070806197
000190 68 ef 2e bd 83 e9 6c 3c d7 27 87 bd 11 3e 0a bd
       -0.042708784 0.01445997 -0.06599396 -0.033750597
0001a0 e1 5e 89 3c c7 51 6d bd 90 dd cb 3b 7b fb 1a bd
       0.016768875 -0.057939317 0.0062214807 -0.037837487
0001b0 bb 30 1b 3d ae 27 63 bd d6 2c 26 3d 86 37 99 3c
       0.03788827 -0.055457763 0.040570103 0.018703233
0001c0 de c8 1d 3d 0a be dc bc 7b 8f 40 bd 50 7b 55 3c
       0.03852164 -0.026946086 -0.047011834 0.013029888
0001d0 14 54 7f 3c 8f a2 a5 3c 2d 1b 48 3c 3c a1 b0 3c
       0.015584011 0.020219116 0.01221351 0.021561258
0001e0 e8 48 0c 3d 58 8d 9d 3b a1 03 2b 3d a4 af 87 bb
       0.034249216 0.0048081093 0.041751508 -0.004140811
0001f0 8f 26 68 bd 30 b2 88 bc dd 57 4d bd 18 97 be bc
       -0.056677397 -0.016686529 -0.05013262 -0.023265406
000200 24 f0 8c 3c 8a 0f a7 bc ac 1e 38 3c df 76 5f bc
       0.017204352 -0.020393152 0.0112377815 -0.013639181
000210 e4 e9 0e 3d 36 da 01 bd 9c 96 62 bc ee b5 26 bd
       0.034891024 -0.031702243 -0.013829853 -0.040700845
000220 31 f6 fa 3c ce 3d 6b 3d 05 24 a3 bc 2a 5c c5 3c
       0.030634971 0.05743199 -0.019914636 0.024091799
000230 27 9d 4e 3d 65 eb 3a bc a2 4e b6 3c 4a f7 38 bd
       0.05044284 -0.0114086615 0.022254292 -0.04515771
000240 53 59 0c 3d 3e c6 64 bd bd 6e 12 bc 24 df 65 bd
       0.034264874 -0.05585312 -0.008937535 -0.056121007
000250 56 9d 97 bb 2c e9 1b bd 3e 1e 05 3d c4 cd 1f bd
       -0.00462691 -0.038064167 0.032499544 -0.039014593
000260 20 ea 3e bc 62 e7 bb 3c 58 7f 1e bd 75 4d e5 bc
       -0.011652499 0.02293748 -0.038695663 -0.027991036
000270 25 9e 1a bd 43 8d e4 bc a4 5b 43 bd b4 74 ea 3c
       -0.037748475 -0.02789939 -0.047694817 0.028620102
000280 35 0b 16 bd 7f ae 81 3c 34 aa 6a bd ad 69 89 3d
       -0.03663178 0.015830277 -0.057291225 0.06709609
000290 e1 33 2b 3d 93 11 1a bd 73 cd 66 bd 7d 2a cb bc
       0.041797522 -0.037614416 -0.056348275 -0.024800533
0002a0 78 12 28 3c e3 d4 b6 bc a5 60 61 bd 06 21 d6 3c
       0.01025831 -0.02231831 -0.055023808 0.026138794
0002b0 18 eb e1 3b 89 6f df 3c 13 19 40 bd 3d 19 27 bd
       0.0068944804 0.027274864 -0.046898913 -0.040795553
0002c0 76 75 54 3c 04 de e9 bb 2b ad 06 3d c5 28 23 bc
       0.012967458 -0.007137062 0.03287999 -0.009958451
0002d0 b0 a6 6c bd 53 18 02 bd 0b 3e a5 bc 3b f8 0f 3d
       -0.057776153 -0.03176148 -0.020171186 0.03514884
0002e0 80 c3 af 3c bd fc f8 bc 2a 7b 47 bd a0 42 a1 bc
       0.021455526 -0.030393953 -0.048701443 -0.01968509
0002f0 5e d6 4c bd 74 cb 4a 3d 91 34 cb bc cf bc 37 3d
       -0.050009124 0.049510434 -0.024805339 0.044857796
000300 fa bb 18 3d f5 d0 66 bc d5 c1 81 3d 08 ad 83 bd
       0.037288643 -0.014087905 0.06335799 -0.064294875
000310 83 41 45 bd 06 09 b1 bb 2e 29 65 3d 57 8e 45 3d
       -0.04815818 -0.005402687 0.055947475 0.04823145
000320 b7 71 8f 3d 54 01 88 bc 8f 05 44 bd 6f 61 07 bd
       0.07004111 -0.016602196 -0.047856864 -0.033051904
000330 ef 82 65 3d 2a aa 2f 3d 0c 9b f5 3c 79 eb 45 bb
       0.05603307 0.04288689 0.029981159 -0.0030200167
000340 43 ee 81 3c de 98 7f bd 53 76 30 bd 72 16 8b bd
       0.015860682 -0.062401645 -0.043081593 -0.067913905
000350 e1 40 16 3d b7 e7 4e 3c 00 e3 35 3d 06 cb 8e bd
       0.036682967 0.012628487 0.044405937 -0.069723174
000360 5d 52 3e bb c8 2c d8 bc c9 3f 80 3c 0c 0f 18 3d
       -0.0029040792 -0.02638854 0.015655415 0.037123725
000370 08 42 8f bd a8 c7 30 bd 34 a1 8e 3c 4b 99 9d bc
       -0.06995016 -0.043159157 0.017410852 -0.019238135
000380 9d a3 7e 3d 12 fd 6d 3d 2b ae 28 bc c5 2c 4b 3d
       0.062167753 0.058102675 -0.010295431 0.049603242
000390 6f 08 37 3d f5 80 53 3d 4e 29 e4 bc c9 13 6b bc
       0.044685777 0.051636655 -0.027851727 -0.014347979
0003a0 e8 80 fb bb 5f fc 8e 3b 7a 24 0d bd ea 52 57 bd
       -0.007675279 0.004363581 -0.034458615 -0.052569307
0003b0 cc d6 fc 3b 65 5a 0d 3d 2f cd ca 3c 71 4f ba 3c
       0.0077160355 0.034510035 0.024756042 0.022742959
0003c0 67 02 25 3d a0 54 41 bd b9 47 c3 bc de f8 13 bc
       0.040285494 -0.047199845 -0.023837911 -0.0090315025
0003d0 95 1e 29 bd 48 08 7d 3d 3c a9 f9 3c 9e ba 44 3d
       -0.04128893 0.061775476 0.030476205 0.048029535
0003e0 ee 36 46 bd f4 cf b1 3c a7 7a f0 3a 8a 0f 02 3c
       -0.04839223 0.021705605 0.00183471 0.007938275
0003f0 0a 89 42 bc bc 04 1e 3d 9c d2 fd bc a7 ea 3d 3d
       -0.011873493 0.038578734 -0.030984215 0.04636636

actor_fc3.weight f4 [128, 256]
000000 09 ec cd 3c e8 a8 8a bd 31 35 c6 bb 20 0e b3 3c
       0.025136964 -0.067704976 -0.0060488214 0.021857321
000010 b4 e6 7e bd c8 d4 e7 bc a7 14 04 bd 52 52 8e 3d
       -0.062231734 -0.028299704 -0.032246258 0.06949295
000020 1a 53 91 3d ea 5f af 3b c9 12 a6 bc 34 1c b7 3c
       0.070959285 0.00535201 -0.02027263 0.022352315
000030 0d ae 24 bb 35 1d 83 bd 1d 35 e4 3b 14 34 35 3d
       -0.0025128156 -0.06402055 0.0069643394 0.04423912
000040 61 dd 48 3d c5 ae 18 3d 31 90 bf bc 72 2c a9 bc
       0.04903925 0.03727605 -0.023384186 -0.020651076
000050 6b 6e 73 3d 38 7a 95 bd f2 f2 11 bd 57 7e 87 3d
       0.059431475 -0.07298702 -0.03563208 0.06615894
000060 b8 4e 83 bd 94 c9 03 bd c5 65 36 3d 82 50 39 bc
       -0.06411499 -0.03217466 0.04453065 -0.011310698
000070 a7 45 de bb 45 6d df bc f4 7d 23 bd a0 23 ad 3b
       -0.0067832056 -0.027273783 -0.03991504 0.005283788
000080 53 26 f4 bc 31 25 6d 3d f0 4f 7d 3d 5a 3c 96 ba
       -0.02980343 0.057896797 0.061843812 -0.0011462078
000090 74 4c b5 bc 77 01 c6 bd ab 57 44 bd 66 dc a9 3c
       -0.022131182 -0.09668248 -0.04793517 0.020734977
0000a0 47 1a 56 bd 3c eb 90 3c b6 2b 5a bd 35 5e e8 bc
       -0.052271154 0.017690293 -0.053264342 -0.028365234
0000b0 13 c0 14 3d 76 c0 93 bd 6b 8a a5 bd 56 e6 54 bd
       0.03631599 -0.072144434 -0.08083042 -0.051977478
0000c0 56 b0 4d 3d 7a 45 26 bd ce bf 4c bd 4c 60 c9 bc
       0.050216995 -0.0405936 -0.049987607 -0.02458205
0000d0 5e 92 04 bc af 48 53 3d 02 10 96 3d a1 db 94 3c
       -0.008091537 0.05158299 0.07327272 0.018171133
0000e0 02 ff 80 3d 71 a5 85 3c b1 f0 06 3c ff 0e 9a bd
       0.06298639 0.01631424 0.008236096 -0.075223915
0000f0 fb a0 4f bd 0e 18 88 3a 16 f6 a6 bc 20 95 f8 bc
       -0.050690632 0.0010383145 -0.020381015 -0.030344546
000100 ac 71 dd 3c df 34 3c 3c bd 24 48 3d f1 84 73 3d
       0.027031742 0.011487215 0.04886316 0.059452955
000110 fe bc 21 bd c5 4f c7 bc 4f c6 f2 3c 01 56 64 bd
       -0.039486878 -0.02433003 0.029635577 -0.055746082
000120 93 02 68 3c 7c 3f 40 bd b4 09 07 3d a5 05 d8 bc
       0.01416077 -0.046935543 0.032968238 -0.026369879
000130 f5 df 69 3d a0 d2 9c 3b 33 5d 09 bd 0d e7 52 3d
       0.057098348 0.0047858506 -0.033536147 0.05148988
000140 db 76 10 3d 34 2d 2a 3c b2 13 b4 bd 7e 01 4f bd
       0.0352696 0.010386754 -0.08792819 -0.050538532
000150 1f 73 88 bc ec 7b 18 bc 86 d2 15 bc 03 d3 ec bc
       -0.016656457 -0.009306889 -0.009144431 -0.028909212
000160 85 3d 01 3d 76 18 02 bc d6 e1 10 bc 1a bf b3 3c
       0.03155281 -0.007940402 -0.008842906 0.02194171
000170 7f ab 71 3d c0 8d 3e 3d 93 8c 58 3d 48 47 11 bd
       0.059001442 0.046521902 0.052868437 -0.03546837
000180 c0 e5 0e bd e8 45 7a bd c3 d5 04 3b dc 9d b6 bb
       -0.034887075 -0.061101824 0.0020269013 -0.0055730175
000190 26 8e 42 bd 01 dd f3 bb 3c 02 70 bd 88 47 7a 3d
       -0.047498845 -0.007442117 -0.05859588 0.061103374
0001a0 01 f5 0e 3d da 65 6e 3d 4d 2e 7b 3c e3 4b d4 3c
       0.034901623 0.058202602 0.015330863 0.025915092
0001b0 8d 08 18 3d 45 fa 9e 3d 62 79 08 3d 0d 8d de bc
       0.03711753 0.07762579 0.033318885 -0.027166868
0001c0 bb bf 26 3b bd 39 13 3d f6 48 7b 3d 4c e9 bd bd
       0.002544387 0.035943735 0.061348878 -0.092730135
0001d0 20 1b b1 3b 5a 64 b5 bc 9d 7e 6c 3d b3 c8 d3 bb
       0.005404845 -0.022142578 0.057737935 -0.006463134
0001e0 1d 0e 07 bd 0b 0d 97 bc a3 d2 ba 3c a8 02 a8 3b
       -0.032972444 -0.018438837 0.022805518 0.00512727
0001f0 ad 7e 6c 3d 2d 5d 0c bc bf 6e a9 3c 3e 07 9d bc
       0.057737995 -0.008567137 0.02068269 -0.019168492
000200 5b 5c 18 3d ab b2 af 3c 3f 12 06 bd 00 0b c9 3b
       0.037197452 0.0214475 -0.032732245 0.0061353445
000210 2f ad 37 bd f3 28 0d 3d 2e 28 22 3d 7c 5a 48 3c
       -0.044842895 0.03446288 0.0395891 0.012228604
000220 ee dd 1a 3d c2 3c 44 3d 8f ef 91 bd f2 14 15 3d
       0.037809305 0.047909506 -0.0712577 0.036396928
000230 ae d0 d5 bc 41 e8 5a bc ae 5f ac bc e5 04 f7 bb
       -0.026100483 -0.013361038 -0.021041717 -0.0075384253
000240 ab 84 51 3d 7a a7 8c 3b 1d 82 83 bd 15 3d 88 bd
       0.051151913 0.0042924257 -0.064213015 -0.066522755
000250 df a0 82 bd 4d 2a b7 bc f7 4c 60 bd 0c ae 32 3d
       -0.0637834 -0.022359038 -0.0547609 0.043623015
000260 ff d3 80 bd 99 1d a7 3c 6c 97 05 3d 37 bb 0c bc
       -0.06290435 0.020399855 0.03261511 -0.008589557
000270 d8 a6 5b 3c 4d 37 a2 bd ab 64 7b bc 9b 08 c4 bc
       0.013406478 -0.07920704 -0.015343825 -0.023929885
000280 ef 14 14 3c 2c 93 b3 bc bb 04 9f bb 36 90 89 3d
       0.009038194 -0.021920763 -0.004852859 0.06716959
000290 29 4c 12 3c 1b bc 41 3d a9 a7 52 bd d0 aa 90 3d
       0.008929291 0.047298532 -0.051429424 0.0706383
0002a0 ae 81 fc 3a 6e 9b b2 3d cf 18 89 b9 12 1d ea 3c
       0.0019264722 0.08721052 -0.0002614916 0.028578315
0002b0 cc d7 b1 3d a7 a3 58 bd 2e 2c 30 bd 24 6b 4f 3d
       0.08683738 -0.052890446 -0.043010883 0.050639287
0002c0 a1 54 cb bc d5 89 85 3b 03 42 4f 3c d1 6d a4 3d
       -0.024820628 0.0040752687 0.012650016 0.08028758
0002d0 1d 90 7e bc 6f 40 80 bd 61 6d 8b bc 86 cc 0d bd
       -0.015537289 -0.0626229 -0.01701993 -0.034618877
0002e0 28 e4 6e bd 75 86 54 bd 82 30 08 bd e6 d3 77 bd
       -0.058323056 -0.05188604 -0.033249386 -0.060504816
0002f0 d2 f8 a6 3d 4a 63 60 bd a0 df e6 3b 43 12 d5 3b
       0.081529275 -0.05478219 0.007045701 0.006502421
000300 7d 80 ab bc b7 17 5b bd f8 eb 20 bd 82 28 93 bd
       -0.020935291 -0.053489413 -0.039287537 -0.071854606
000310 02 4a b8 bc d6 fb 39 3d f2 61 fc bb 2d 9a 57 3d
       -0.022496227 0.045406185 -0.0077021057 0.052637268
000320 3c 21 67 3d 9a d2 88 3a c0 69 cb bb b1 4b 0b 3c
       0.05642818 0.0010438741 -0.0062076747 0.008501933
000330 35 e9 5d bc ae 13 78 bc a2 9f 33 3c 6e b2 37 3d
       -0.01354437 -0.015141411 0.010963352 0.0448479
000340 d1 94 12 bd b3 09 31 bd 64 9c 83 3d e6 98 8f bd
       -0.035786454 -0.04322214 0.064263135 -0.07011585
000350 f6 b2 cc bc 13 70 e4 bb 4a 60 2f bc e5 ad 30 38
       -0.024987679 -0.006971368 -0.010704109 4.2123622e-05
000360 87 39 c6 bc e3 04 b3 bc f0 6f a4 3d b9 b0 4b bd
       -0.024197353 -0.021852916 0.08029163 -0.049729083
000370 3b 44 cf 3c 25 19 8e 3d 2d 96 27 bd f5 23 37 bc
       0.02530109 0.0693839 -0.040914703 -0.011178006
000380 28 73 55 bc 1f af f8 bb 79 7a 91 3d 0f eb 74 3b
       -0.013027944 -0.0075892354 0.07103438 0.003737155
000390 7f 4b ab bc e4 24 88 3c ed 63 d0 bc 65 88 b5 3b
       -0.020910023 0.016619153 -0.025438273 0.005539941
0003a0 31 5d 9e bd 14 ba 1f bd 5b 0c 2a 3d 7b b2 bc 3d
       -0.077326186 -0.038995817 0.04151569 0.0921373
0003b0 f9 d4 df 3c 49 70 5b 3d f6 85 7b 3c c4 60 06 3d
       0.027323233 0.05357388 0.015351763 0.032807127
0003c0 25 ec 76 bd ca ef b3 3a c6 af 88 bb a1 dd b3 bc
       -0.0602838 0.0013728079 -0.0041713445 -0.021956267
0003d0 56 6e a0 3c b1 77 54 3d d2 8d 56 3d b6 14 a4 3d
       0.019583862 0.05187196 0.052381344 0.08011763
0003e0 c4 a7 5f bc 89 98 9a 3c 52 e1 65 3c 06 0e 43 bd
       -0.013650838 0.018871563 0.014030771 -0.047620796
0003f0 8d 63 d1 3c da 45 13 bb e0 70 a1 3c 65 aa 43 3c
       0.025560165 -0.0022472055 0.019707143 0.011942481

actor_fc3.bias f4 [128]
000000 91 97 a9 bc 12 ea d9 3c 19 02 93 3c 30 2c 37 bd
       -0.020702155 0.026600871 0.017945336 -0.044719875
000010 ed b1 82 3b 2a a8 b8 bc b7 6c 07 3c 02 9e 8f bd
       0.0039884956 -0.022541124 0.008265666 -0.070125595
000020 84 d1 5f 3d 92 01 77 bd 17 d1 59 3d f6 a0 61 3a
       0.05464317 -0.060304232 0.05317792 0.0008607054
000030 ec 0e 9c bb 13 7b a6 bc 88 01 37 bd 34 e0 4f 3d
       -0.004762521 -0.020322358 -0.044679195 0.050750926
000040 62 c2 49 3b af b7 90 bc ec de 72 bd c3 c5 1f 3c
       0.0030786027 -0.017665712 -0.059294626 0.00975174
000050 de 24 75 3b 50 31 32 3d 66 15 a4 3c 4a 32 b1 bb
       0.0037406008 0.04350406 0.020029735 -0.0054076063
000060 91 73 2e 3c 22 00 76 bd 89 fc b4 bb 9c a7 7f bd
       0.01064767 -0.06005872 -0.0055232686 -0.062415704
000070 1e d0 1a bc 6d b5 14 bd 03 5f 4d bd 93 b7 a4 3c
       -0.009449033 -0.036305834 -0.05013944 0.020107066
000080 13 48 af 3c 56 9c 43 bd 18 e5 07 bd e7 7b 47 bc
       0.021396672 -0.047756515 -0.033177465 -0.012175537
000090 35 73 09 bd 8b 0e f0 bc b8 e7 1e bc 41 47 88 bc
       -0.033557136 -0.02930381 -0.009698801 -0.016635539
0000a0 6e b3 a9 bc 47 ca 8e 3d 64 32 03 3c aa d8 ae 3c
       -0.020715442 0.06972175 0.0080076195 0.021343548
0000b0 06 f1 32 bd de 99 54 3c 27 d7 47 bd 48 69 23 3d
       -0.04368689 0.012976138 -0.04878917 0.039895326
0000c0 51 63 52 3c 1c 07 6a 3d 45 35 32 3d 15 3d a6 3b
       0.012841062 0.057135686 0.043507833 0.0050731995
0000d0 92 23 d4 bc cd de b2 3c be 8d cc bc a7 63 23 3b
       -0.025895867 0.021834755 -0.024969932 0.0024931224
0000e0 b1 98 23 bd 30 4a e8 bc 8a f8 98 3b 0a 91 f2 3b
       -0.03994054 -0.028355688 0.0046683 0.007402544
0000f0 3f 69 9c 3b 5d 24 d4 3b 67 35 49 b9 02 6b 45 bd
       0.0047732885 0.0064740614 -0.00019188748 -0.048197754
000100 78 30 25 3d 5f d8 84 bc bc 59 0c 3d da 6b d4 3b
       0.040329427 -0.016216455 0.034265265 0.0064825835
000110 9c b8 1c 3d 12 c7 96 bc a7 96 be bc e1 f2 25 bd
       0.038261995 -0.018405471 -0.023265196 -0.04051483
000120 04 8e 06 3d 1b 99 55 3d c4 c7 70 3c 37 f0 fd 3c
       0.03285028 0.052147966 0.014696065 0.030998332
000130 c3 40 3d bd aa d5 24 bd d5 0b 47 bc 9d ca ab bc
       -0.04620434 -0.04024283 -0.012148817 -0.020970637
000140 e6 cb 81 bd 5a da bc 3a 9c 14 21 3a c4 e7 ab bc
       -0.06337719 0.0014408336 0.00061447336 -0.020984538
000150 40 59 1d 3d e2 42 1c bd 32 e0 c2 3b d9 c5 55 3d
       0.038415194 -0.038149722 0.0059471363 0.052190635
000160 1b 73 55 3d df 19 72 3d e2 e4 3b 3d 0d e3 ac bc
       0.052111726 0.059106704 0.045872577 -0.02110436
000170 6f 36 d4 bc 9e e5 11 3d 43 0b d8 3c 5f e9 84 bc
       -0.025904862 0.03561937 0.026372558 -0.016224561
000180 2b 43 45 3d 2e 9a fa bc de f7 02 3d 01 fc 0e bd
       0.04815976 -0.030591097 0.031974666 -0.0349083
000190 ae ff c8 3c 06 17 d5 bc 2f 80 c6 bc 76 38 86 3b
       0.02453598 -0.026011955 -0.024231045 0.004096086
0001a0 c7 53 a2 bc b2 72 a3 3a 6f 11 54 bd df bb 6a bd
       -0.019815339 0.0012470095 -0.05177444 -0.057308074
0001b0 eb f5 03 3d 7d e5 04 bd d3 df d3 3c 2b d9 52 bc
       0.032216948 -0.03244542 0.025863564 -0.01286916
0001c0 fc 23 43 3d 18 1e 0a 3d 3f e1 d2 3c 9d e8 3e bd
       0.04764174 0.033720106 0.025742171 -0.046608556
0001d0 54 f5 a8 3c b7 d3 2f bc d4 4e ec bc a5 d9 4c bd
       0.020624794 -0.010731629 -0.028846182 -0.05001225
0001e0 db c4 95 3d e3 3a bc bb 09 92 9a bc 0d 48 58 bb
       0.07312938 -0.0057443245 -0.018868463 -0.003300193
0001f0 61 89 47 3d e1 fd a2 3a 17 2f 08 bd 85 ae 80 bb
       0.048715 0.0012435281 -0.033248033 -0.0039270543

actor_mu.weight f4 [3, 128]
000000 51 04 6e 3c d3 9b c8 bc e5 27 a3 bc 30 ae b1 bc
       0.014527396 -0.024488365 -0.019916484 -0.021689504
000010 db 44 d0 3c 98 8f 90 3b b7 74 47 3c 5a 23 ac bc
       0.025423458 0.004411649 0.012173823 -0.02101295
000020 82 c3 91 3c ee 99 80 bc 3b 90 bb bc 65 db c0 3c
       0.01779342 -0.0156984 -0.022895923 0.023542115
000030 c9 32 b5 bc 6f 7b 0b bc 58 69 e2 bc b8 94 b4 bc
       -0.022118943 -0.008513316 -0.027638122 -0.02204357
000040 ce 2d 94 3c e6 68 cb bc 23 28 c2 3c 97 a0 dc 3c
       0.018088248 -0.024830293 0.02370078 0.026932044
000050 47 c6 9d bc 6d ac ac 3c f1 a9 8d bc 52 d4 b0 3c
       -0.019259585 0.021078313 -0.017292948 0.021585617
000060 2d d6 b8 bc 62 15 a6 3c 0f f2 90 3c 18 c0 86 3c
       -0.022563064 0.020273868 0.017693548 0.01644902
000070 17 c4 87 bb 85 22 c8 3c bb 55 47 bc 3b ce ad bc
       -0.004143249 0.024430523 -0.012166436 -0.021216502
000080 15 93 80 3c fa cb d1 3c f4 7c ab bc 2b af cc 3c
       0.015695134 0.025609959 -0.020933606 0.02498587
000090 b5 a4 db bc 61 52 dc 3c 06 c7 d0 bc a1 ef cf bc
       -0.026811937 0.02689475 -0.025485527 -0.025382819
0000a0 23 3b b5 bc 16 38 4a 3c 32 86 60 bc 5a a2 7a 3b
       -0.022122925 0.0123424735 -0.01370387 0.0038243742
0000b0 c8 4d 86 bc c5 70 ba 3c 3a 26 d3 bc df 24 83 3c
       -0.01639451 0.02275885 -0.025775064 0.016008792
0000c0 cb c0 d8 3c 82 06 94 bc f1 da 46 bc 3d 00 95 3c
       0.026459118 -0.01806951 -0.012137161 0.01818859
0000d0 06 bb de bb 53 f5 43 bc 7a 3a 8f 3c c5 a2 49 bc
       -0.0067971973 -0.011960345 0.017483938 -0.012306874
0000e0 00 ca 96 3c 79 cb b1 3c 89 ca d1 3c 1b 1f b6 3c
       0.018406868 0.021703469 0.025609272 0.02223163
0000f0 b3 60 d5 bc ac d6 e8 3c ba 09 ab bc 9d d6 5e 3c
       -0.026047086 0.028422676 -0.020878661 0.0136009725
000100 ac 88 fc 3b d4 a8 25 bc a0 9b 77 3c 45 79 ad bc
       0.0077067222 -0.010111053 0.0151127875 -0.02117599
000110 29 6a 13 bc a6 95 9c bc e4 16 2c bc f1 fc b5 bc
       -0.0089974785 -0.019114327 -0.010503504 -0.022215338
000120 07 22 f2 bc 0d 14 2b 3c 98 28 97 bc c0 43 a7 3c
       -0.029557241 0.010441792 -0.018451974 0.020418048
000130 c4 a5 99 3c 5d 0b a2 3c 2d d9 a3 3c 2c ea f2 3c
       0.018755801 0.019780809 0.020001018 0.029652677
000140 3a 4a 8f bc ce f6 f1 bb b3 cb c2 bc 52 61 83 3c
       -0.017491449 -0.0073841577 -0.023778772 0.016037617
000150 af 38 8e bb 49 9e ab bc db 98 7e bc 27 14 a5 bc
       -0.0043402533 -0.0209495 -0.015539373 -0.020151211
000160 1f af aa bc 5f ea e1 3c df a7 96 3c a7 80 c7 3c
       -0.020835457 0.027577577 0.018390594 0.024353338
000170 1a fa e2 3c c0 8c b0 3c d8 16 88 3c 5e 5f ca 3c
       0.027707148 0.02155149 0.016612455 0.024703678
000180 7a 49 84 bc da 46 96 bc 0e e9 d8 3c b5 ad e8 bb
       -0.016148318 -0.018344332 0.026478317 -0.0071007856
000190 1e fc a8 3c 4b d0 8f 3c 9f 60 8a 3c 4f 21 a7 3c
       0.020628031 0.017555377 0.016891776 0.020401625
0001a0 a9 2c b6 bc 2d 6e 78 bc e2 3b 3f bc 87 8b a0 bc
       -0.022238092 -0.015162987 -0.011671992 -0.019597782
0001b0 24 fe ce bc 1d 8f 87 3c 27 9e c0 bc 56 6a 63 bc
       -0.025267668 0.016547734 -0.023512913 -0.013880333
0001c0 30 78 d2 bc 8d 8a ea bc 86 86 74 bc 53 d0 a5 bc
       -0.025692075 -0.02863052 -0.014924651 -0.020240938
0001d0 ed a1 ce 3c 2d bc 84 3c 05 79 96 bc 6c a6 90 3c
       0.025223697 0.01620301 -0.018368253 0.017657481
0001e0 8c 8c 9d 3c a4 04 b1 3c 07 26 a1 bc 0b 28 83 3c
       0.019232057 0.021608658 -0.019671453 0.016010305
0001f0 e1 b7 91 3c b0 d0 8d bc b0 73 be 3c a2 77 bd bc
       0.017787876 -0.017311424 0.023248523 -0.023128334
000200 27 65 12 bd 06 3f 8c 3c 1f 2f 2d 3c 9b 5d 68 bc
       -0.035740998 0.017119896 0.010570317 -0.0141824735
000210 f2 6b 5f 3c 2a 11 ba bc c9 a3 3d bd 45 f0 17 bd
       0.013636576 -0.022713263 -0.046298776 -0.037094373
000220 77 4d e2 3c bb 4a 0d 3d 45 e0 81 bc dc 80 a2 3c
       0.027624829 0.034495097 -0.01585401 0.019836836
000230 55 32 0b bd 1f d4 d6 bc 52 d7 bd bc 47 c9 50 bc
       -0.033983547 -0.026224194 -0.023173962 -0.012743301
000240 e7 3c 10 bd c4 44 76 3c 98 b2 21 3a 4c d8 af 3c
       -0.03521433 0.015031043 0.0006168275 0.021465443
000250 e1 4c 42 3c 34 a2 22 bc 4f e2 e0 3c 11 cd cd 3c
       0.01185915 -0.009926368 0.027451662 0.025122197
000260 3d 73 53 ba a2 fd c8 3c 05 3f a4 bc 56 72 88 bc
       -0.0008066183 0.024535004 -0.020049581 -0.016656082
000270 e1 47 f6 bc c1 2d 23 3d 66 66 d9 3b de 18 87 bc
       -0.030063571 0.039838556 0.0066345213 -0.01649135
000280 65 7b 11 bd e0 a2 74 3c 11 cd d3 3c b3 95 08 3c
       -0.03551807 0.014931411 0.02585462 0.008336472
000290 f4 41 e5 bc 98 0d 75 3c 31 b1 3a bc b6 47 1d bc
       -0.02798555 0.014956854 -0.011394785 -0.009599617
0002a0 be 9b 83 bc c9 d4 1e bc b6 fc b3 bc f1 bc 09 bd
       -0.016065475 -0.009694287 -0.021971088 -0.033627454
0002b0 ce d7 21 bd 3f 5b 8d 3b 45 99 2f bc 85 b0 d1 3b
       -0.039512448 0.004313856 -0.010717695 0.0063992166
0002c0 3c 85 bf 3c bd 77 10 3d 82 cb 03 3d d0 44 a7 bb
       0.02337896 0.03527044 0.032176502 -0.0051046386
0002d0 18 3e 8f 3c 53 b1 01 bc 73 4f c5 bc 3c 0e 71 3c
       0.017485663 -0.007915813 -0.024085736 0.014712866
0002e0 30 9c fd 3c 59 b6 01 3c e0 e6 d3 ba 61 95 e6 bb
       0.030958265 0.00791701 -0.0016166829 -0.0070368503
0002f0 37 fe 24 bd 31 76 dc 3c a0 e2 a3 3b 97 e3 d3 3b
       -0.0402815 0.026911827 0.005001381 0.00646634
000300 63 f6 cc 3c f0 32 49 3d 86 b0 ea bc d1 c2 bc 3c
       0.02501983 0.049120843 -0.028648626 0.023042114
000310 15 d2 25 3d 90 ae 84 3b 57 d4 15 3d cd 21 1e 3c
       0.040483553 0.00404913 0.036579456 0.009651613
000320 ac 3f 90 bc d7 2c 06 3d 3a 4f 5a 3c a6 2c 4a 3b
       -0.017608486 0.032757606 0.013324553 0.0030849366
000330 06 eb 96 bc f5 7d 0f 3c e5 7d 69 3c 77 33 90 3c
       -0.018422615 0.008758058 0.014251207 0.017602665
000340 4b eb f7 3c 7c 5c 77 bc 7c ea c5 bc bb 66 f3 bc
       0.030263564 -0.015097734 -0.024159662 -0.029712072
000350 d4 ac dd bc 6a 3a 9c 3c 05 2d 0c 3d 81 aa d9 bc
       -0.02705995 0.019070823 0.03422262 -0.02657056
000360 bf c6 08 3c 62 cb b1 3c f1 1c 98 bc 24 ca 0c 3d
       0.008348166 0.021703426 -0.018568488 0.034372464
000370 9b 6f dc 3b 58 7b b9 3b 8f d3 e6 bc 38 fd c4 bb
       0.0067271716 0.0056604557 -0.02817705 -0.0060116313
000380 dc f8 32 bc ee 4c 89 3c a4 0a 88 3c 36 e7 ee 3c
       -0.0109235905 0.016760316 0.016606636 0.029162984
000390 9e dd f7 3c 8e f7 c9 bc 3b af 43 bc 94 dc 06 3d
       0.030257042 -0.024654176 -0.011943634 0.032925203
0003a0 2c 8e f0 3b 43 f6 84 3c ac 91 2e bd 67 d4 67 3c
       0.007341167 0.016230708 -0.042619392 0.014149762
0003b0 05 28 95 bc e6 e7 d2 3c 8c 1f c7 bc 96 62 ec 3c
       -0.01820756 0.025745343 -0.024307035 0.028855603
0003c0 18 0c c9 bb dd 10 01 bc 76 5f b1 bc 3e 15 5e 3c
       -0.006135475 -0.007877556 -0.021651965 0.013554869
0003d0 44 e6 55 bc e0 64 08 bd 4e e2 e7 3c 5b dc ae 3c
       -0.013055388 -0.033299327 0.028306153 0.021345308
0003e0 e3 6f b3 bc 27 93 37 bc 99 57 9d bc 95 7f f5 bc
       -0.021903938 -0.011204517 -0.019206809 -0.029968062
0003f0 90 3c da bc 54 e8 4d 3b a4 2f 87 bc 91 06 8a ba
       -0.026640207 0.0031418996 -0.016502209 -0.0010530521

actor_mu.bias f4 [3]
000000 69 94 98 3c c7 16 90 bd a6 99 9f bc
       0.018625455 -0.070355944 -0.019482445
